1100params3.pth (torch, 607751 bytes, 10 tensors)

conv1.0.weight f4 [32, 4, 2, 2]
0	0xbdc57e73	-0.09643259
1	0x3e2b8470	0.1674974
2	0x3dbf31bf	0.0933566
3	0x3e38f790	0.18063188
4	0xbe6c3b9c	-0.23069614
5	0x3d4f240b	0.050571483
6	0x3e479eda	0.19494191
7	0xbbf69b1e	-0.0075258156
8	0xbe5ceb2f	-0.2157409
9	0xbd64ec59	-0.05588946
10	0x3db69e00	0.08916855
11	0xbdbe1b8d	-0.09282599
12	0xbd82caa7	-0.06386309
13	0xbda416e3	-0.08012178
14	0x3cde4e8e	0.027137067
15	0x3b633d4e	0.0034673992
16	0xbdea1b5e	-0.11431001
17	0x3e5948e3	0.2121921
18	0x3d8dc090	0.06921494
19	0x3da67366	0.08127479
20	0xbe763a7c	-0.24045748
21	0xbe287d7f	-0.16454123
22	0xbe131612	-0.14363888
23	0xbe237137	-0.15961157
24	0x3dfc9a7c	0.12334153
25	0x3e5d9efa	0.21642676
26	0xbda59738	-0.08085483
27	0x3d5f380e	0.054496817
28	0xbe2e7593	-0.17037039
29	0x3e030a30	0.12796855
30	0xbc0b2a60	-0.00849399
31	0x399b3402	0.00029602653
32	0xbcfb3745	-0.030666003
33	0x3e51f934	0.2050522
34	0xbe2c2af9	-0.16813268
35	0x3e5a4015	0.21313508
36	0x3c98367b	0.018580666
37	0x3d5f1f29	0.054473076
38	0x3db1738a	0.086646155
39	0x3e1a3efd	0.1506309
40	0xbd4d34be	-0.050099127
41	0xbdf295a0	-0.11844945
42	0x3e6a001a	0.22851601
43	0x3d19a841	0.037513975
44	0x3e0c3f30	0.13695979
45	0xbd33d3af	-0.04390305
46	0xbe42d04c	-0.19024771
47	0xbd92a76a	-0.07160838
48	0xbe494fdd	-0.19659372
49	0x3e7c3624	0.24630028
50	0x3be41976	0.006961043
51	0x3e47b732	0.19503477
52	0x3e57ef1e	0.2108731
53	0xbd0e8c18	-0.034801573
54	0x3d81d06b	0.06338581
55	0xbcdeaac4	-0.027181037
56	0xbe661226	-0.2246786
57	0x3e15d6da	0.1463274
58	0xbdb1d7e5	-0.08683757
59	0x3e5b8c2f	0.21440195
60	0x3de6dddf	0.11272787
61	0xbc94a282	-0.018143896
62	0x3e24f84e	0.16110346
63	0x3dd6c01d	0.104858615
64	0x3e627992	0.22116688
65	0x3abada51	0.0014255737
66	0xbdbd5ca1	-0.09246183
67	0xbd2d5faa	-0.04232756
68	0x3e6df58b	0.23238198
69	0x3e491c05	0.19639595
70	0x3e4c6c15	0.19963105
71	0xbd20b14d	-0.039231587
72	0xbdb350b1	-0.08755625
73	0x3c9db7d8	0.019252703
74	0xbe1b47ed	-0.15164156
75	0xbdc39b0d	-0.09551058
76	0x3e7e220e	0.24817678
77	0x3ce82d1f	0.028341828
78	0x3de21ede	0.11041044
79	0xbda25b34	-0.07927552
80	0x3d9ddc99	0.07708091
81	0x3db89153	0.090120934
82	0xbe30a99e	-0.17252204
83	0x3e768ec0	0.24077892
84	0xbce1ad89	-0.027548568
85	0xbe185c33	-0.14878921
86	0xbdb1a0f8	-0.086732805
87	0x3e4ea1e5	0.20178945
88	0xbe2a46b1	-0.16628529
89	0xbe6bf7bc	-0.23043722
90	0xbe78057c	-0.24220842
91	0x3e54d3b0	0.20783877
92	0xbd2ff200	-0.0429554
93	0xbcd9aa64	-0.026570506
94	0xbdf0ad8d	-0.11751852
95	0x3dca8255	0.0988814
96	0x3e4a748d	0.19771023
97	0x3e15e8c2	0.14639571
98	0x3e29b018	0.1657108
99	0xbc991ef9	-0.018691527
100	0x3d885de8	0.06658536
101	0xbdc9e975	-0.098589815
102	0x3e40a04c	0.18811148
103	0xbda21b76	-0.07915394
104	0xbdadef87	-0.08492952
105	0x3cc1b0fc	0.023643963
106	0xbe3df07f	-0.18548773
107	0xbe1eb7bb	-0.15499775
108	0x3e561a2e	0.20908424
109	0xbdc861fb	-0.09784313
110	0xbdd75351	-0.10513938
111	0x3ded4664	0.115856916
112	0xbc888afb	-0.016667834
113	0x3d29204f	0.041290578
114	0x3e3e2cd1	0.18571784
115	0xbda589e1	-0.08082939
116	0xbd6522ee	-0.055941515
117	0xbe7dc4b2	-0.24782065
118	0x3d79bf9f	0.06097376
119	0xbdf5f453	-0.12009492
120	0xbe0e315e	-0.1388602
121	0x3e062492	0.13099888
122	0xbc498c4e	-0.012301518
123	0x3e4f6c84	0.20256239
124	0xbe197f16	-0.14989886
125	0x3e597f5f	0.21239994
126	0xbd648e28	-0.055799633
127	0xbd45e621	-0.04831517
128	0xbd387497	-0.045033064
129	0x3e56d5e4	0.2098003
130	0xbcc8231b	-0.024430802
131	0xbe5d6248	-0.21619523
132	0xbe117589	-0.14204992
133	0xbe0af8f4	-0.1357153
134	0xbcf702ea	-0.030152757
135	0xbe33ff81	-0.17577936
136	0x3d00345a	0.031299926
137	0x3bc54cd1	0.00602112
138	0x3dec2e0e	0.11532222
139	0xbe4f7275	-0.20258506
140	0x3e7da913	0.24771528
141	0x3d4598b9	0.04824135
142	0x3cdd59b5	0.027020315
143	0xbe3912f5	-0.18073638
144	0x3e2e4087	0.17016803
145	0x3e23c007	0.15991221
146	0x3dc8a462	0.097969785
147	0xbe1f54a9	-0.15559639
148	0xbe16e83a	-0.14737025
149	0x3e32f9f3	0.1747816
150	0xbe42c7f4	-0.19021589
151	0x3d00911e	0.031388395
152	0xbd31eb46	-0.043437265
153	0x3e46f8db	0.19430868
154	0xbe65d352	-0.22443894
155	0xbddc8d06	-0.107690856
156	0xbd85ec87	-0.06539255
157	0xbd99ada2	-0.07503821
158	0xbe3e8db1	-0.18608738
159	0xbdc66fea	-0.09689315
160	0xbe186ad1	-0.14884497
161	0x3e4c3957	0.19943748
162	0xbe12fd93	-0.14354543
163	0x3bd5701e	0.0065136096
164	0xbe7e3202	-0.24823764
165	0xbe03cd7e	-0.12871358
166	0x3e451273	0.19245319
167	0xbe5452bd	-0.20734687
168	0xbd2f2055	-0.042755444
169	0xbded7bf2	-0.11595906
170	0xbcbace7e	-0.022803541
171	0xbc3770db	-0.01119634
172	0xbd89dd84	-0.06731704
173	0xbdf04179	-0.11731238
174	0x3dcbb738	0.099470556
175	0xbd070eb4	-0.032973006
176	0x3d7f080f	0.062263545
177	0xbe54b490	-0.20772004
178	0xbd3297cf	-0.043601807
179	0xbdbcd7ba	-0.09220834
180	0x3ded7b57	0.11595791
181	0xbcc0fe1a	-0.023558665
182	0xbe0cef3d	-0.13763137
183	0xbe719f38	-0.23595893
184	0x3ca5a6b8	0.0202211
185	0xbe0d7ec8	-0.13817894
186	0xbe56325c	-0.20917648
187	0xbe232e4c	-0.1593563
188	0x3e77356f	0.24141477
189	0xbe09ff06	-0.1347619
190	0xbda48154	-0.0803248
191	0xbe62fd7c	-0.22167009
192	0xbe466ed1	-0.1937821
193	0xbe0bbd2b	-0.1364638
194	0xbe7e7c76	-0.24852166
195	0x3d8e2f1f	0.069425814
196	0xbd19e1b0	-0.037568748
197	0x3dd5cfe8	0.104400456
198	0xbdab5e46	-0.083675906
199	0xbe020426	-0.12696895
200	0xbd08395e	-0.033257835
201	0x3e320ff4	0.17388898
202	0x3e12c894	0.14334327
203	0xbd83757e	-0.06418894
204	0x3d4d980c	0.05019383
205	0xbd943ca3	-0.07238128
206	0x3bd1aabe	0.006398528
207	0x3e3f8184	0.1870175
208	0x3e0fabbd	0.14030357
209	0xbc110457	-0.008851132
210	0x3d94fc61	0.072747
211	0x3d7a431e	0.061099164
212	0xbe159450	-0.14607358
213	0xbd598a60	-0.05311048
214	0x3e59f69c	0.2128548
215	0x3dabcbd7	0.08388489
216	0xbb81f899	-0.0039664027
217	0x3e739ad0	0.23789525
218	0xbd90a7b4	-0.07063237
219	0xbdfb363a	-0.12266202
220	0xbde3f3c7	-0.11130481
221	0x3e174a08	0.14774334
222	0x3d9e52c2	0.077306286
223	0x3e231ed3	0.15929727
224	0x3e1cbdf8	0.15306842
225	0xbdce5aa6	-0.100758836
226	0xbd1b704a	-0.037948884
227	0xbe3b4f0f	-0.18291877
228	0x3e12a344	0.14320093
229	0x3e2b8ce8	0.1675297
230	0xbe3435b8	-0.17598617
231	0xbe17fffd	-0.14843746
232	0x3cf41814	0.029796638
233	0x3c95276c	0.018207274
234	0x3e0114da	0.1260561
235	0x3de3aeee	0.111173496
236	0xbe54bd23	-0.20775275
237	0x3d06b011	0.032882754
238	0xbc265592	-0.0101522375
239	0x3e183c05	0.14866646
240	0x3e5e0f97	0.21685635
241	0x3e3a0cc6	0.18168935
242	0x3e16a1e3	0.14710192
243	0xbe19e1d0	-0.15027547
244	0xbe15c66e	-0.14626476
245	0xbe30c59d	-0.17262883
246	0x3e72bd98	0.23705137
247	0xbe60e7fa	-0.21963492
248	0x3e0ed40d	0.13948078
249	0x3e53e94a	0.20694461
250	0xbe7f21fb	-0.24915306
251	0x3ce12bb8	0.027486667
252	0xbe17a571	-0.14809205
253	0x3d5b3b6a	0.05352346
254	0x3d7ddf9b	0.061980825
255	0xbde371b0	-0.111056685

conv1.0.bias f4 [32]
0	0x3d3b51ad	0.04573219
1	0xbe41441b	-0.18873636
2	0xbe43ddc4	-0.19127566
3	0xbe668b48	-0.22514069
4	0xbe6e26b9	-0.23256959
5	0xbe04b1ca	-0.12958446
6	0xbdad9967	-0.08476525
7	0x3de3feea	0.111326054
8	0xbe333f74	-0.17504674
9	0x3cc37806	0.023860943
10	0x3e5c7a5a	0.21531048
11	0xbd7a7201	-0.06114388
12	0xbe0e11bc	-0.13873953
13	0x3e596a3d	0.21231933
14	0xbde8773c	-0.11350867
15	0xbbba409f	-0.005683973
16	0xbe3a682f	-0.18203805
17	0xbdea4882	-0.11439611
18	0xbd24a6b9	-0.04019806
19	0xbe1ca368	-0.1529671
20	0xbcfef0e6	-0.031120729
21	0x3e0b1d82	0.13585475
22	0x3e78794f	0.24265026
23	0x38efda9f	0.000114371294
24	0xbcc9b889	-0.024624126
25	0xbe14e0b5	-0.14538844
26	0xbdbd8566	-0.09253959
27	0xbd3f1d81	-0.046658996
28	0x3e41ccc0	0.18925762
29	0x3e55bd68	0.20873034
30	0x3e2ca6be	0.16860482
31	0x3e6992a4	0.22809845

conv2.0.weight f4 [64, 32, 4, 4]
0	0x3d0a5b63	0.03377856
1	0x3d059687	0.032614257
2	0x3d28cc2d	0.041210342
3	0xbcf94e48	-0.030432835
4	0x3c03d920	0.008047372
5	0x3c821686	0.01587988
6	0x3d21544c	0.039387032
7	0x3c63e8f2	0.013910519
8	0x3b25b959	0.0025287478
9	0x3c548efd	0.012973544
10	0x3d348a5c	0.044077262
11	0x3b644fda	0.0034837634
12	0x3ca04f8b	0.019569179
13	0xbd0ac2da	-0.03387723
14	0x3c2efe63	0.010680768
15	0x3d0a75b1	0.033803646
16	0xbd0c1dc2	-0.034208067
17	0xbd14f92b	-0.036370438
18	0xbd27b0cb	-0.040940087
19	0xbcb91b50	-0.022596031
20	0xbcff4321	-0.03115994
21	0x3d233757	0.039847698
22	0x3c8e83a1	0.01739675
23	0x3ce16e9b	0.027518561
24	0xbcb9de45	-0.022688994
25	0xbce31753	-0.027721083
26	0xbcb33503	-0.021875864
27	0x3bfa4390	0.0076374486
28	0xbd158a0f	-0.036508616
29	0x3c9d4ba6	0.019201111
30	0xba3f681c	-0.0007301585
31	0xbcb11617	-0.021616979
32	0xbd17790c	-0.036980674
33	0xbb6416c5	-0.003480361
34	0xbd236e08	-0.039899856
35	0xbd27d7b0	-0.04097718
36	0xbce58b89	-0.028020637
37	0xbcbdd8b5	-0.023174623
38	0xbd284a0e	-0.04108625
39	0xbd29dab7	-0.04146835
40	0x3d022858	0.031776756
41	0x3c7d331f	0.015454083
42	0x3ce88ae6	0.028386544
43	0xbc9a1d70	-0.018812865
44	0xbd04d3bf	-0.0324285
45	0x3b951416	0.0045495136
46	0x3d0f0966	0.034921072
47	0xbcbd6396	-0.023118775
48	0xbc6df919	-0.014524722
49	0x3c90b2ac	0.017663322
50	0x3c8b0041	0.016967895
51	0x3cf94437	0.030428035
52	0x3c9252ed	0.017861808
53	0xbc859a83	-0.016309028
54	0xbcc39ff6	-0.023879986
55	0xbc9a76ac	-0.018855415
56	0x3d0b6c86	0.034039043
57	0x3d0dc6ca	0.03461341
58	0xbcec55c4	-0.02884949
59	0x3b159f8c	0.0022830693
60	0xbd0d35ee	-0.03447526
61	0xbc941acf	-0.01807919
62	0x3c7f6a96	0.015589377
63	0x3cb988d6	0.022648256
64	0x3cd548bb	0.026035657
65	0x3c4e6c7b	0.012599106
66	0xba869d84	-0.0010270332
67	0xbcd53a10	-0.026028663
68	0x3ccc5f7c	0.024947874
69	0x3bf65633	0.0075176
70	0xbce14181	-0.027497055
71	0x3cd974f5	0.026545027
72	0x3d052efd	0.032515515
73	0x3c5e9200	0.013584614
74	0x3a54eb22	0.0008122196
75	0xbc42d140	-0.011890709
76	0xbd1ca58d	-0.03824382
77	0x3c1976c8	0.009366699
78	0x3caa6199	0.020798491
79	0x3cab62ba	0.0209211
80	0xbc417bcb	-0.0118093
81	0x3d0a3cfb	0.03374956
82	0xbc248adf	-0.010042875
83	0x3cb5f240	0.02221024
84	0xba5fb2a2	-0.0008533393
85	0xbc35b6b4	-0.011090923
86	0x3c5bba2d	0.013411087
87	0x3d128455	0.035770733
88	0x3d1aae68	0.037763983
89	0xbc820139	-0.015869724
90	0xbccacc22	-0.024755541
91	0xbc3b602a	-0.0114365015
92	0x3d210d56	0.03931936
93	0xbce49095	-0.027900973
94	0xbbfe2b83	-0.007756652
95	0xbd1ba187	-0.03799584
96	0x3c4e501b	0.012592341
97	0x3cdd2053	0.026992952
98	0xbcf9c140	-0.030487657
99	0x3d2e1bc2	0.04250694
100	0xbc8b13ec	-0.016977273
101	0x3d30bf5c	0.043151245
102	0x3ce177c0	0.027522922
103	0xbca61bec	-0.020276986
104	0xbc852868	-0.016254619
105	0xbcbd9d36	-0.023146253
106	0x3c819b6f	0.015821187
107	0xbd0cbe36	-0.034361087
108	0xbba0001c	-0.0048828255
109	0x3c53f273	0.012936222
110	0xbc707049	-0.014675208
111	0xba36920e	-0.0006964513
112	0xbd28f35f	-0.04124772
113	0x3bf3373a	0.007422355
114	0x3c933e90	0.017974168
115	0x3ba7ae06	0.0051171808
116	0x3d342d8e	0.043988757
117	0x3c49f75d	0.012327042
118	0xbd30e5b6	-0.04318782
119	0xbc2cf52a	-0.010556499
120	0xbc9ad112	-0.01889852
121	0xbce522b4	-0.02797065
122	0xbce38e43	-0.027777797
123	0xbb87aa17	-0.0041401493
124	0xbc4998ce	-0.012304498
125	0xbbb94936	-0.0056544794
126	0x3c0b58f1	0.008505092
127	0x3ccaa12d	0.024735058
128	0x3bedbd7d	0.007255255
129	0xbce6ce11	-0.028174432
130	0xbce4e624	-0.02794177
131	0x3d1ae49f	0.037815686
132	0xbd05d69a	-0.032675363
133	0x3ced5c6a	0.02897473
134	0x3b17f8ed	0.0023189143
135	0xbc4709cc	-0.012148332
136	0xbd304ec3	-0.043043863
137	0x3cdc87f7	0.026920302
138	0xbccc4afa	-0.024938095
139	0xbc3b0e60	-0.0114170015
140	0x3d11dd11	0.035611216
141	0x3c7e345c	0.015515413
142	0xbc87d0e1	-0.016579093
143	0xbc3ef56d	-0.011655194
144	0xbc9a4018	-0.01882939
145	0x3d2e073a	0.04248736
146	0x3d068c6b	0.032848757
147	0xbce1ee08	-0.027579322
148	0x3a971330	0.0011526104
149	0xbc526163	-0.012840602
150	0x3d233c5c	0.039852485
151	0xbc61c401	-0.013779641
152	0x3d2cc079	0.042175744
153	0xbd2e6f98	-0.042586893
154	0xbcfbedec	-0.030753098
155	0xb9bbacf5	-0.00035796282
156	0xbcfd0b97	-0.030889316
157	0x3cee2d2f	0.02907428
158	0xbc9c7414	-0.01909832
159	0xbc8c5e68	-0.01713486
160	0x3c8682c4	0.016419776
161	0xbd2c91fd	-0.042131413
162	0x3cdfb21f	0.027306614
163	0x3d324faa	0.043533005
164	0xbc6ea325	-0.014565264
165	0xbce7d061	-0.028297605
166	0xbc04881d	-0.008089093
167	0xbd1b6714	-0.0379401
168	0xbc890c9f	-0.016729651
169	0xbcca039a	-0.02465992
170	0xbcf0b1dd	-0.029381687
171	0x3d0dc58d	0.034612227
172	0x3d0b6b06	0.034037612
173	0xbcf773ca	-0.03020658
174	0x3ccf2f14	0.025291003
175	0x3c916b39	0.017751323
176	0x3d1eec51	0.038799588
177	0xbca38331	-0.019960018
178	0xbd338a5d	-0.043833125
179	0xbd21baa2	-0.039484628
180	0x3d080187	0.03320458
181	0x3cfd8940	0.030949235
182	0xbbe59623	-0.007006423
183	0x3ca202ce	0.019776728
184	0x3d1484e5	0.03625955
185	0xbc6cd473	-0.014454949
186	0x3d19ead9	0.037577484
187	0xbcf7e852	-0.030262146
188	0x3bb4f903	0.0055228486
189	0x3c99946e	0.018747535
190	0x3cfd6c4c	0.030935429
191	0x3cb4af25	0.022056172
192	0x3c0c7247	0.008572168
193	0x3ccbed53	0.024893438
194	0xbd1bc854	-0.038032845
195	0x3d304eba	0.04304383
196	0xbcb928f0	-0.022602528
197	0x3ca6c668	0.02035828
198	0x3c16cc25	0.009203945
199	0x3d0247d3	0.03180678
200	0xbcba062b	-0.02270802
201	0xb9d938ab	-0.00041431686
202	0x3c027550	0.00796254
203	0x3c8f18d0	0.017467886
204	0xbab8326e	-0.0014053115
205	0xbc6ae6fc	-0.0143372975
206	0xbcc15cf4	-0.023603894
207	0xbc3d13ad	-0.011540336
208	0x3c80e5b4	0.015734531
209	0x3d09cfd4	0.033645466
210	0xbd20d816	-0.039268576
211	0x3cccd2e5	0.025002906
212	0x3cbefe3b	0.023314586
213	0x3d3340ab	0.043762844
214	0xbc56748e	-0.013089312
215	0xbc39f2f6	-0.01134943
216	0x3ca4f683	0.020137077
217	0xbca3e3b6	-0.020006042
218	0xbc391365	-0.011296128
219	0x3d10f449	0.03538922
220	0xbd08efed	-0.033431936
221	0xbca5c451	-0.020235213
222	0x3d000a0b	0.031259578
223	0xbc94b793	-0.018153941
224	0x3cb960bd	0.022629136
225	0xba7ce716	-0.00096474716
226	0x3b3cdcc5	0.0028818112
227	0xbc78f465	-0.015194987
228	0xbbe48014	-0.006973276
229	0x3a6f1647	0.0009120446
230	0x3bf339ff	0.007422685
231	0x3cca0028	0.024658278
232	0xbb348a28	-0.0027548168
233	0xbd1a35be	-0.03764891
234	0xbce6e34a	-0.028184552
235	0xbd153e96	-0.03643664
236	0x3b0e1ba8	0.0021683965
237	0xbc018bea	-0.007906893
238	0x3cd67969	0.02618094
239	0x3b8fb493	0.00438554
240	0x3c80343d	0.01564991
241	0x3cf44463	0.029817766
242	0xba8336ed	-0.0010010876
243	0xbd248744	-0.04016806
244	0xb9f5f4c0	-0.00046912394
245	0x3d278f38	0.04090807
246	0xbc904538	-0.017611131
247	0xbc8a7ef0	-0.016906232
248	0x3cf08c02	0.029363636
249	0x3cb8df7a	0.0225675
250	0xbd0826f2	-0.033240266
251	0x3b0fbc32	0.0021932242
252	0xbd327572	-0.043569036
253	0xbc9a9bb0	-0.018873066
254	0x3ce03ab8	0.02737175
255	0x3d0075b0	0.031362236

conv2.0.bias f4 [64]
0	0xbb87743e	-0.00413373
1	0xbcb46b36	-0.022023778
2	0xbce7979e	-0.028270539
3	0xb9b0cf16	-0.00033723627
4	0xbca47a41	-0.020077826
5	0x3d04bc68	0.03240624
6	0x3d199dbc	0.037503943
7	0xbc8fee9a	-0.017569829
8	0x3d2203f9	0.03955457
9	0x3bf7032e	0.007538221
10	0xbce14c57	-0.027502222
11	0x3d141af4	0.036158517
12	0xbd150ea9	-0.036390934
13	0xbcd984cc	-0.02655258
14	0x3d16dbce	0.036830716
15	0xbcfaae01	-0.03060055
16	0x3c774ffa	0.0150947515
17	0x3c9bf4e2	0.019037668
18	0x3d08c234	0.03338833
19	0xbd2f2bf5	-0.04276653
20	0xbd2c5d31	-0.04208106
21	0xbd2b8680	-0.041876316
22	0x3ab44874	0.0013754503
23	0x3ce75ef8	0.028243527
24	0xbc773799	-0.015088939
25	0x3be54d63	0.0069977506
26	0xbc6a6324	-0.0143058635
27	0x3c63c23c	0.01390129
28	0x3d15d44b	0.03657941
29	0x3d2c888d	0.042122412
30	0x3d339fe1	0.043853644
31	0xbc48f207	-0.012264735
32	0xbc94461e	-0.01809984
33	0x3d127427	0.035755303
34	0xbc80e0cc	-0.015732192
35	0xbc507e67	-0.012725449
36	0xbc76b3a7	-0.015057481
37	0x3ceb3ac6	0.028714549
38	0xbcf0a8e8	-0.029377416
39	0x3a61fdcf	0.0008620889
40	0x3c9bd6d8	0.019023344
41	0xbc433118	-0.01191356
42	0xbc48db94	-0.012259383
43	0xbc8ef3bb	-0.017450204
44	0xbd1e2fff	-0.03861999
45	0x3cb4c7ae	0.022067871
46	0x3d00a1ec	0.03140442
47	0x3bb54e02	0.005532981
48	0x3c7385f9	0.014863485
49	0x3d0a87fb	0.033821087
50	0x3d216354	0.039401367
51	0xbc820203	-0.0158701
52	0x3d03790a	0.032097854
53	0x3d189bcd	0.03725796
54	0x3c1f8420	0.009736091
55	0x3c83b2dd	0.0160765
56	0xbc9d0445	-0.019167075
57	0x3c81240d	0.01576426
58	0xbd02d308	-0.031939536
59	0x3d0cfb55	0.034419376
60	0x3cd41d9f	0.02589303
61	0x3d1e17a8	0.03859678
62	0x3c7c9807	0.0154171055
63	0xbd0de155	-0.03463872

conv3.0.weight f4 [64, 64, 3, 3]
0	0xbce0acc0	-0.027426124
1	0x3c0c275a	0.008554304
2	0x3d13a8f9	0.036049817
3	0xbaa0fe83	-0.0012282882
4	0xbbe4cd62	-0.0069824914
5	0x3cbfbe84	0.023406275
6	0x3cdb0acb	0.026738545
7	0x3ad455a7	0.0016199843
8	0x3b832d39	0.0040031937
9	0x3c92aff0	0.01790616
10	0x3d0d6b39	0.034526084
11	0x3c37b0fa	0.011211628
12	0xbc76ee8b	-0.0150715215
13	0x3d19752d	0.037465263
14	0xbd0a04ab	-0.033695858
15	0xbcfe7cae	-0.031065311
16	0xbc2ee7ce	-0.010675384
17	0xbcd8e0dc	-0.026474409
18	0xbb913bc6	-0.0044321744
19	0xbd17172b	-0.03688733
20	0x3bcb1bec	0.006198397
21	0xbc683758	-0.014173351
22	0x3bbd2650	0.0057723895
23	0x3c9290b0	0.017891258
24	0xbc07768a	-0.008268008
25	0x3ca499d9	0.020092892
26	0xbc6bb298	-0.014385842
27	0x3c0e513c	0.00868636
28	0x3c8d4789	0.017246025
29	0xbc092276	-0.0083700325
30	0xbc4978ad	-0.012296838
31	0xba88de43	-0.0010442216
32	0xbc60e5eb	-0.013726692
33	0x3ce0bd48	0.027434006
34	0xbc37c02e	-0.011215253
35	0xbc331d74	-0.010932315
36	0x3cf82216	0.030289691
37	0x3d08c595	0.033391554
38	0xbc884860	-0.016636074
39	0xbd110aa4	-0.03541054
40	0x3ba69438	0.005083587
41	0xbcdfbe18	-0.027312323
42	0xbc255d65	-0.010093068
43	0xbd131cda	-0.035916187
44	0x3cadaec9	0.021201508
45	0xbc018d2d	-0.007907194
46	0xbb2605f7	-0.0025333145
47	0x3bcb4ecf	0.006204463
48	0x3d1cd2a2	0.038286813
49	0x3cc5459e	0.024081048
50	0xbcd59b87	-0.026075138
51	0x3c930cb2	0.01795039
52	0xbd115de0	-0.035489917
53	0x3cda8297	0.026673598
54	0xbcd63b38	-0.026151285
55	0x3cb73d44	0.02236808
56	0xbd1f7006	-0.038925193
57	0xbc06e230	-0.008232638
58	0xbd28775a	-0.041129448
59	0xbc975e98	-0.018477723
60	0x3b36d6f5	0.002789912
61	0xbb957b54	-0.004561821
62	0x3c4c76be	0.012479482
63	0xbd0e4b8a	-0.03474001
64	0x3cda4844	0.026645787
65	0xbd23a953	-0.039956402
66	0x3c0f9c54	0.008765299
67	0x3c11d924	0.008901868
68	0x3c829f68	0.015945151
69	0x3bfe8b40	0.0077680647
70	0x3ba1abae	0.004933796
71	0xbcd09f97	-0.025466723
72	0x3bc27299	0.0059340713
73	0x3cde9fde	0.02717584
74	0xbc9a36d9	-0.018824982
75	0xbd21145e	-0.039326064
76	0x3cc2bb33	0.023770904
77	0xbc325eca	-0.010886857
78	0x3d0354fe	0.032063477
79	0xbcd553b8	-0.026040897
80	0xbca8a970	-0.020588607
81	0xbcc5f7ec	-0.02416607
82	0xbce41e34	-0.027846433
83	0x3d0febfd	0.035137165
84	0x3c9ae497	0.018907828
85	0xbcd166ab	-0.025561651
86	0x3d28c8c1	0.04120708
87	0x3d0c4421	0.03424466
88	0x3d0e07cc	0.034675404
89	0x3c475019	0.012165093
90	0xbc867922	-0.016415183
91	0x3cb7acad	0.022421205
92	0x3a0cfff9	0.0005378719
93	0x3d1a81cd	0.037721444
94	0x3d04bfd6	0.03240951
95	0xbc41f354	-0.011837799
96	0xbcb3f11c	-0.021965556
97	0x3c805756	0.015666645
98	0x3c19fe6e	0.00939904
99	0x3a1641fb	0.0005731878
100	0xbc97849b	-0.018495848
101	0x3ca73c3c	0.020414464
102	0x3cba9550	0.022776276
103	0x3cb09bdd	0.021558696
104	0x3c82204d	0.015884543
105	0xbd292c22	-0.041301854
106	0xbcecaba4	-0.028890438
107	0x3d0031f8	0.031297654
108	0xbd139de6	-0.036039256
109	0x3c43d8c1	0.011953534
110	0x3c89cdbb	0.016821733
111	0x3c18ca26	0.00932554
112	0xbce3019e	-0.027710732
113	0x3bf032d3	0.0073302775
114	0x3d1e946a	0.038715757
115	0xbc9ae3fb	-0.018907538
116	0xbd09d1f8	-0.033647507
117	0xbba57af6	-0.0050500585
118	0xbcddae5d	-0.027060682
119	0xbb16c9a5	-0.0023008373
120	0x3cbf7917	0.02337317
121	0x3d1f1c50	0.03884536
122	0x3c989719	0.018626736
123	0xbce65058	-0.028114483
124	0x3c9dba60	0.01925391
125	0x3ca5e396	0.020250123
126	0x3c9c4155	0.019074121
127	0x3d25e878	0.040504903
128	0xbc49e987	-0.012323744
129	0x3cfc6f2f	0.030814735
130	0xbc3d01f7	-0.011536113
131	0x3c86fffb	0.016479483
132	0x3bcf43c5	0.0063252174
133	0xbb17377d	-0.0023073845
134	0x3cf05acb	0.029340168
135	0xbd0dd5e8	-0.034627825
136	0xbcd1fa36	-0.025632005
137	0xbcfad98b	-0.03062131
138	0xbb83f352	-0.004026809
139	0xbb7e7625	-0.0038827744
140	0xbc84948a	-0.01618411
141	0xbccb2cf1	-0.024801703
142	0xbd18b279	-0.03727958
143	0x3c86a67d	0.01643681
144	0xbc433991	-0.01191558
145	0xbc8f5c44	-0.01750005
146	0x3c6d9855	0.014501651
147	0xbc2cbb24	-0.010542665
148	0x3bb3ff74	0.005493099
149	0xbcec65c2	-0.028857116
150	0x3c7695e4	0.015050385
151	0xbcc24646	-0.02371515
152	0x3bb701bc	0.0055849236
153	0x3c88d36a	0.016702373
154	0xbc8dfb30	-0.01733169
155	0x3d06f449	0.032947812
156	0xb87f0b94	-6.080752e-05
157	0xbcb38c20	-0.021917403
158	0x3d27e240	0.040987253
159	0xbb774dfe	-0.0037735696
160	0x3d0839fd	0.033258427
161	0xbc9d85c9	-0.019228833
162	0xbd032e85	-0.032026786
163	0x3bc6c98a	0.006066506
164	0x3bc1544b	0.005899941
165	0xbcb0fd26	-0.021605086
166	0xbc6bbdfb	-0.014388557
167	0xbc710424	-0.01471046
168	0x3c9e3c0c	0.019315742
169	0x3a838bad	0.0010036133
170	0x3d010d82	0.031507023
171	0xbcfb79e0	-0.030697763
172	0xbc637cdf	-0.013884752
173	0xbd296333	-0.04135437
174	0xbcf62bef	-0.030050246
175	0x3c6952e9	0.014240959
176	0xbc910e97	-0.017707152
177	0xbaba441b	-0.0014210971
178	0x3d1c8123	0.038209092
179	0x3c9b4429	0.0189534
180	0xbc13a6c5	-0.009011929
181	0x3d02860a	0.03186611
182	0x3c87f2cd	0.016595269
183	0xbc39e241	-0.011345447
184	0x3c67059a	0.014100457
185	0xbcc8fcbf	-0.024534581
186	0xbd21ad00	-0.039471626
187	0xbba36e0e	-0.004987485
188	0xbb8e0a43	-0.0043347194
189	0x3c3d22a9	0.011543908
190	0x3d020d0f	0.031750735
191	0x3d118ec4	0.035536543
192	0xbc47188a	-0.012151847
193	0x3c8dd262	0.017312232
194	0xbc23f9f3	-0.010008323
195	0xbccce4ff	-0.025011538
196	0xbc223503	-0.009900334
197	0x3b011c26	0.0019700616
198	0x3cab95e9	0.020945506
199	0xbc7f5635	-0.015584518
200	0x3be41bc2	0.006961317
201	0xbce0c9f1	-0.027440043
202	0x3d26b778	0.040702313
203	0x3d0c85af	0.034307178
204	0x3cd95510	0.026529819
205	0x3b0fd982	0.0021949713
206	0x3a9f1072	0.0012135638
207	0x3ba53a7c	0.0050423723
208	0x3d16dcbe	0.03683161
209	0x3d282059	0.041046474
210	0x3d178a1f	0.036996957
211	0x3cbb3479	0.02285217
212	0x3d03861d	0.032110322
213	0xbce6f690	-0.028193742
214	0xbc16b21e	-0.00919774
215	0xbcdce2f5	-0.02696369
216	0x3d136eb5	0.03599425
217	0xbd1ff00a	-0.03904728
218	0xbc158ac0	-0.009127319
219	0xbc9d710c	-0.019218944
220	0x3d1e391e	0.03862869
221	0xbc7d84db	-0.01547357
222	0xbd25b8a9	-0.04045931
223	0xbc930004	-0.017944343
224	0x3b3abd02	0.0028494005
225	0x3b2c6b58	0.00263091
226	0x3c90e317	0.01768641
227	0x3c04b2d9	0.008099281
228	0xbd13beb1	-0.03607053
229	0xbd1a9536	-0.037739955
230	0x3c777c6a	0.015105346
231	0x3cbc73d0	0.023004442
232	0xbd1a3107	-0.037644412
233	0x3b0e9dea	0.0021761605
234	0xbcb30e9a	-0.021857549
235	0xbcc2febc	-0.023803107
236	0x3d10fd75	0.035397965
237	0xbd22708a	-0.039658107
238	0xbca2c97e	-0.01987147
239	0x3c858db2	0.016302917
240	0xbb4e3bfc	-0.003146886
241	0x3c5c613e	0.013450919
242	0x3c4e9846	0.012609547
243	0xbcfe0b4b	-0.031011244
244	0x3d0b5a70	0.034021795
245	0xbcce3287	-0.025170578
246	0x3c9fb301	0.019494535
247	0xbbc7ae9f	-0.0060938145
248	0x3cb9c8d5	0.022678772
249	0x3c173846	0.009229725
250	0x3cf8ee35	0.030387023
251	0xbcbfa81d	-0.023395592
252	0xbd0b721b	-0.034044366
253	0x3cead69b	0.028666785
254	0xbb2f140d	-0.0026714832
255	0xbc3fd852	-0.01170929

conv3.0.bias f4 [64]
0	0x3d1ecf00	0.03877163
1	0x3ba97a7d	0.0051720724
2	0xbc39475a	-0.011308515
3	0x3c231855	0.009954532
4	0xbcecb2e4	-0.028893895
5	0x3cb7a5c3	0.022417909
6	0xbcc5442e	-0.024080362
7	0xbc6b4f8c	-0.014362227
8	0x3d123e16	0.03570374
9	0xbc518022	-0.012786897
10	0xbd003623	-0.03130163
11	0x3d08e1be	0.03341841
12	0x3c0db363	0.008648726
13	0xbd0afc42	-0.033931978
14	0x3b891e32	0.0041845078
15	0xbb0ecf0a	-0.0021790885
16	0x3bccb4ce	0.0062471395
17	0x3cdd15e2	0.026987974
18	0x3c0babfa	0.008524889
19	0xbd003143	-0.03129698
20	0x3d0e98d5	0.03481372
21	0xbd12deaa	-0.03585688
22	0x3d1a14c2	0.037617452
23	0xbd28784e	-0.041130356
24	0x3d09c2fb	0.033633213
25	0x3ca142db	0.0196852
26	0xbc9a723d	-0.018853301
27	0x3cf754a0	0.03019172
28	0x3b0cc902	0.0021482115
29	0x3d0bfba6	0.034175538
30	0x3c6456d0	0.013936713
31	0x3c26ce6d	0.010181052
32	0xbc864ce8	-0.016394094
33	0xbc668cb3	-0.014071631
34	0x3d1d4844	0.038398996
35	0x3d1fd149	0.03901795
36	0xbcf3aff2	-0.029746983
37	0x3c862412	0.016374622
38	0xbc3d47d2	-0.011552768
39	0xbcd9329a	-0.026513387
40	0x3bc88826	0.006119746
41	0x3d298f77	0.041396584
42	0xbcf2aaa3	-0.029622382
43	0xbcc60981	-0.024174454
44	0xbc955485	-0.018228779
45	0xbcd2361a	-0.025660563
46	0xbc647582	-0.013944032
47	0x3bcc9f5e	0.006244584
48	0xba5626ae	-0.0008169216
49	0x3ca3b166	0.019982051
50	0xbd133e69	-0.03594819
51	0x3d293bab	0.04131667
52	0x3cf45635	0.029826263
53	0x3d11d134	0.035599902
54	0xbb2cf1ce	-0.0026389244
55	0xbcbffb94	-0.023435391
56	0x3cf3fd22	0.029783789
57	0xbcfbad22	-0.030722205
58	0xbc920d5e	-0.01782864
59	0xbb0b737d	-0.0021278553
60	0x3c7013f7	0.0146531975
61	0xbccad4be	-0.024759647
62	0x3b6e00da	0.0036316426
63	0xbcde5ed4	-0.027144827

fc1.0.weight f4 [80, 970]
0	0xbc6d7246	-0.014492577
1	0xbcb237e5	-0.021755168
2	0xbc4082e9	-0.011749961
3	0x3cc258eb	0.02372404
4	0x3c9834dc	0.018579893
5	0x3c81c758	0.015842125
6	0x3b7c02d7	0.003845384
7	0x3c339d56	0.010962805
8	0x3cbb5c74	0.022871234
9	0x3cdedd62	0.027205173
10	0xbb57754e	-0.0032876316
11	0xbc963f2b	-0.018340668
12	0x3c14d9cd	0.009085131
13	0xbc884ce9	-0.016638236
14	0x3bee97ba	0.007281271
15	0xb783f377	-1.5729789e-05
16	0x3c88f6c2	0.016719226
17	0xbc82943b	-0.015939822
18	0x3baac6c8	0.005211685
19	0xbabce12e	-0.001441037
20	0x3c771781	0.015081287
21	0x3cbb1b01	0.022840025
22	0x3cc24bfb	0.023717871
23	0xbc82f061	-0.015983762
24	0x3aaf9969	0.001339716
25	0xbc5af032	-0.013362931
26	0xbd0031bd	-0.031297434
27	0x3cbf243b	0.023332706
28	0x3cec21ca	0.028824706
29	0x3d02f323	0.031970154
30	0x3c22aad5	0.009928425
31	0xbc3ee991	-0.011652366
32	0x3bd2a9a3	0.0064289137
33	0xbc18a5ac	-0.009316843
34	0x3cfc43e1	0.030794086
35	0xbcdab57f	-0.026697872
36	0xbc96ea7c	-0.018422358
37	0x3cfb8b83	0.030706173
38	0x3c95559a	0.018229295
39	0x3c7ab9ea	0.015303114
40	0x3ba2825e	0.0049593886
41	0xba8ac38e	-0.0010586844
42	0x3cab0875	0.020878056
43	0xbc081473	-0.008305657
44	0x3c8bcb61	0.017064752
45	0xbc081274	-0.008305181
46	0x3a98c854	0.0011656382
47	0x3cbf1f40	0.02333033
48	0xbbe496bb	-0.0069759763
49	0xbce16f1f	-0.027518807
50	0xbc9ec4a2	-0.019380871
51	0xbcab7a79	-0.020932423
52	0x3c47f550	0.012204483
53	0xbc8a4ea2	-0.016883198
54	0xbc97e15f	-0.018540082
55	0x3b5a7327	0.0033332796
56	0x3d037ba6	0.032100342
57	0xbcb63498	-0.022241876
58	0x3cbe70a7	0.023247076
59	0xbb8f8ca8	-0.004380781
60	0x3ceb1e5e	0.028701004
61	0xbce1336f	-0.027490346
62	0x3c9a4d09	0.018835561
63	0xbce400ad	-0.027832353
64	0x3cdae121	0.026718678
65	0x3cc89be4	0.024488397
66	0x3cd7f36b	0.026361188
67	0x3cc49c0f	0.024000196
68	0x3c182689	0.009286531
69	0x3cd8f7ca	0.026485343
70	0xbc98035c	-0.01855629
71	0x3bc87946	0.0061179725
72	0xbc6aac74	-0.014323343
73	0x3c0c61fc	0.008568283
74	0x3bfc16bf	0.0076931412
75	0xb842678c	-4.634964e-05
76	0xbc3b5a50	-0.011435106
77	0xbcfe6a93	-0.031056678
78	0xbd01b434	-0.031665996
79	0xbc677b7e	-0.014128564
80	0x3c1ddb0a	0.0096347425
81	0xbb924fed	-0.0044650943
82	0x3c8d55e1	0.017252864
83	0x3c1e8493	0.009675163
84	0x3c9debd9	0.0192775
85	0xbc83b86e	-0.016079154
86	0x3cb6cc2c	0.022314154
87	0x3bd45373	0.0064796745
88	0xbcfd5290	-0.030923158
89	0xbc9a1763	-0.01880998
90	0x3cd1abed	0.025594676
91	0xbc92231e	-0.01783901
92	0x3c282261	0.010262103
93	0x3c6a400b	0.014297496
94	0x3c062de6	0.008189654
95	0x3cf56d1c	0.029959254
96	0xbbe043ce	-0.0068440204
97	0xbce6a03c	-0.028152578
98	0xbcfb8959	-0.03070514
99	0xbcdebf8f	-0.027190952
100	0xbc1ab49c	-0.009442475
101	0xbcd9ee4e	-0.02660289
102	0x3cfe6fc7	0.031059159
103	0xbc149a9c	-0.009070065
104	0x3c7485ce	0.01492448
105	0xbccbedad	-0.024893606
106	0x3c5178e1	0.012785167
107	0xbbcf3c08	-0.006324295
108	0xbc5f4ac6	-0.013628667
109	0x3cabcfea	0.020973165
110	0x39db3189	0.00041807842
111	0x3cb187ba	0.021671165
112	0xbcd1771e	-0.025569495
113	0x3bd14325	0.006386178
114	0x3cab12fa	0.020883072
115	0xbcb168ea	-0.021656472
116	0xbc56af44	-0.01310331
117	0xbc24b362	-0.010052534
118	0xbc0e1987	-0.008673078
119	0xbbbe9078	-0.005815562
120	0x3c2fcf6b	0.010730605
121	0x3c1b1092	0.0094644
122	0x3c477ed2	0.012176232
123	0xbb9aabc1	-0.0047201817
124	0xbc7f1410	-0.015568748
125	0x3c907ca3	0.017637556
126	0x3bdcf0dc	0.00674258
127	0xbcc0a691	-0.023516925
128	0x3ca4aac6	0.020100962
129	0x3cfb3e06	0.030669224
130	0x3bbfa883	0.0058489456
131	0xbc9a3a80	-0.018826723
132	0xbc6bec1b	-0.014399554
133	0xbca8fa9f	-0.020627318
134	0xbc029161	-0.007969231
135	0xbc9f744b	-0.019464632
136	0xbc9102e0	-0.017701566
137	0xbcc3ea62	-0.023915473
138	0xbc61b7d8	-0.013776742
139	0x3cd82680	0.026385546
140	0xbc5a83ba	-0.01333707
141	0xbc868e90	-0.016425401
142	0x3c33c46f	0.010972126
143	0x3cc83b1b	0.024442246
144	0x3c686280	0.0141836405
145	0xbbdf1251	-0.0068076034
146	0x3c36d785	0.011159782
147	0xbc96179f	-0.01832181
148	0x3bcbfc0c	0.0062251147
149	0x39166be5	0.00014345309
150	0xba75a41f	-0.0009370464
151	0x3c8437ad	0.01613983
152	0x3cb00d24	0.021490641
153	0xbb8ca7c5	-0.0042924606
154	0xbcaa0d24	-0.020758219
155	0xbc4cee1a	-0.01250794
156	0x3cd63604	0.026148804
157	0x3cafef33	0.021476364
158	0x3b3f9e7d	0.0029238753
159	0x3ce68c68	0.028143123
160	0x3c53996c	0.012914997
161	0xbccb4c29	-0.02481659
162	0xba9a20f0	-0.0011759084
163	0xbc5abca4	-0.0133506395
164	0xbc8aa062	-0.01692218
165	0xbbb590d4	-0.0055409465
166	0x3b36f97b	0.0027919698
167	0x3cf6b402	0.030115131
168	0x3c19e1b3	0.00939219
169	0xbcad40fc	-0.021149151
170	0x3c8ea907	0.017414583
171	0x3c6c392c	0.014417928
172	0xbbad40eb	-0.00528728
173	0x3c335a2c	0.010946792
174	0xba50b201	-0.0007961095
175	0x3c3a610e	0.011375679
176	0xbce2ab70	-0.027669638
177	0x3b35e262	0.0027753343
178	0xbbe7ee46	-0.007077965
179	0xbccffcba	-0.025389064
180	0xbcef4191	-0.02920607
181	0x3cc3e7a6	0.02391417
182	0xbcbafef1	-0.022826644
183	0xbbe02e5f	-0.0068414654
184	0xbcd75ab9	-0.026288377
185	0x3c331128	0.010929383
186	0xbcfd1c34	-0.030897237
187	0xbca6bd97	-0.020354075
188	0xbc62ff3e	-0.0138548
189	0xbcb4edce	-0.02208605
190	0x3acf5e3c	0.0015820931
191	0x3cd59730	0.026073068
192	0x3a2ebc23	0.0006665608
193	0x3c99df1b	0.018783143
194	0x3d0056a6	0.031332634
195	0xbbcb060a	-0.0061957883
196	0x3bc04492	0.005867549
197	0xbcd62950	-0.026142746
198	0x3a764a30	0.000939521
199	0xbc2feb9b	-0.010737325
200	0xbce2c87e	-0.027683493
201	0x3ce3b4da	0.027796198
202	0xbcebd767	-0.028789235
203	0xbcae1fc0	-0.021255374
204	0xbc6ae3e1	-0.014336557
205	0x3a8a2c20	0.0010541715
206	0xbc68a25c	-0.014198866
207	0xbc9d2e8e	-0.019187238
208	0xbc95978a	-0.018260736
209	0x3ac9d201	0.0015397669
210	0xbcd5a76d	-0.026080811
211	0x3b419310	0.002953712
212	0x3c36f187	0.011165983
213	0x3c4abee2	0.012374612
214	0xbb116830	-0.0022187345
215	0x3c98f119	0.018669652
216	0xbcd9cab5	-0.026585916
217	0x3cab00f7	0.020874484
218	0x3c56c156	0.013107618
219	0x3af77f55	0.0018882552
220	0x3c985411	0.018594773
221	0x3bd19e33	0.0063970326
222	0xbc0c4ca3	-0.0085631935
223	0xbc3940a0	-0.011306912
224	0x3c843fa9	0.016143637
225	0x3c079a78	0.008276574
226	0x3c1c165c	0.009526815
227	0x3ca61030	0.02027139
228	0xbc473074	-0.012157548
229	0x3cbb9b8b	0.022901317
230	0xbc2d1321	-0.010563643
231	0xbb227034	-0.0024786117
232	0xbccfecc6	-0.025381457
233	0xbca3879c	-0.019962125
234	0x3ce241b6	0.027619224
235	0xbcdf577a	-0.027263392
236	0xbc891a07	-0.016736044
237	0x3c72beb4	0.014815975
238	0x3c9aece2	0.018911783
239	0x3cd8a939	0.02644788
240	0xbbcf7f4d	-0.006332314
241	0x3ced33b5	0.02895532
242	0x3cc19cb0	0.023634285
243	0x3cc23473	0.02370665
244	0xbc4bd212	-0.012440221
245	0xbcd67593	-0.02617911
246	0x3c278b7d	0.010226128
247	0xbc18f5f7	-0.009335986
248	0x3cf62d87	0.030051006
249	0x3cb6cc74	0.022314288
250	0xbb194e5c	-0.0023392653
251	0x3b940fac	0.00451847
252	0x3cc4067d	0.023928875
253	0x393a5bb1	0.000177725
254	0x3c81af9c	0.015830807
255	0xbb38a12d	-0.002817224

fc1.0.bias f4 [80]
0	0x3cf98513	0.030458963
1	0x3cbda94e	0.02315202
2	0xbcd14e19	-0.025549935
3	0x3c55d5ea	0.013051489
4	0x3c230bd4	0.0099515505
5	0xbca8539c	-0.02054768
6	0xbcb24a25	-0.02176387
7	0xbcb1dda7	-0.021712137
8	0xbcee5380	-0.02909255
9	0xbcb239a3	-0.021755999
10	0xbc399204	-0.011326317
11	0xbc3c496b	-0.011492114
12	0xbca78e29	-0.02045353
13	0x3cec3000	0.028831482
14	0x3c177722	0.009244712
15	0x3b7ea2f1	0.0038854445
16	0xbcfe5b20	-0.031049311
17	0xbc5bf5a3	-0.013425264
18	0xbc343b8d	-0.011000526
19	0xbc617ed1	-0.013763146
20	0xbcb0d96f	-0.021588055
21	0x3b8baf29	0.004262824
22	0xbc552c9e	-0.013011126
23	0x3bcea2f5	0.006306047
24	0xbc65b828	-0.014020957
25	0x3b428d9a	0.0029686452
26	0x3ce38c37	0.02777682
27	0x3a2f1638	0.0006679031
28	0x3bb065cb	0.0053832284
29	0xbbf229c9	-0.007390235
30	0xbc0566f9	-0.008142226
31	0xbc7e8dce	-0.015536739
32	0xbce7a92d	-0.028278911
33	0xbce9cf75	-0.028541306
34	0xbd02a8b5	-0.031899173
35	0xbcf7cd2a	-0.030249197
36	0x3d02024d	0.031740475
37	0xbc9eccea	-0.01938482
38	0x3c26437e	0.010147927
39	0xbc94de24	-0.018172331
40	0xbcf46f9d	-0.029838378
41	0xbbe854e1	-0.0070901965
42	0xbbf05b6f	-0.0073351185
43	0xbc3e9be7	-0.01163385
44	0xbb9a784b	-0.004714047
45	0x3c05f290	0.008175507
46	0x3c84569d	0.016154582
47	0x3b92ed2a	0.0044838386
48	0x3c126f22	0.008937629
49	0x3c7c1eab	0.015388171
50	0x3c4bb7d0	0.012433961
51	0x3c615809	0.013753899
52	0x3cef2fcb	0.029197594
53	0x3a722465	0.00092369906
54	0xbc91213b	-0.01771604
55	0xbbf3c5c6	-0.007439348
56	0xbcfd1176	-0.030892115
57	0x3cb22cec	0.021749936
58	0xbd024134	-0.031800464
59	0xbd0189bf	-0.031625506
60	0xbcb9f766	-0.022700977
61	0xbc3da05c	-0.011573877
62	0x3ce3c142	0.027802113
63	0x3c62e379	0.013848179
64	0xbbb6f28c	-0.005583113
65	0x3cc2bda9	0.023772078
66	0xbc7cfe67	-0.015441514
67	0x3c2a89a0	0.010408789
68	0xbc7b6866	-0.015344715
69	0xbc278b50	-0.010226086
70	0xbca9e628	-0.02073963
71	0x3bfcd1ff	0.007715463
72	0x3ccf64c2	0.0253166
73	0x3c26d6e8	0.010183074
74	0x3ba3e592	0.005001732
75	0xbc5dab27	-0.013529575
76	0x3cbc442d	0.022981727
77	0x3c6fbf88	0.014633067
78	0x3a3ef222	0.00072840054
79	0x3bd475af	0.0064837555

out.weight f4 [40, 80]
0	0xbd9619e7	-0.07329159
1	0x3d280073	0.041016053
2	0x3d6efe1e	0.058347814
3	0x3a8b0e49	0.0010609116
4	0xbd75b4cf	-0.059986886
5	0xbd6c453a	-0.057683207
6	0xbc8c8742	-0.01715434
7	0x3c8ad4ed	0.016947234
8	0xbddfc2b7	-0.10925811
9	0x3d52a318	0.05142507
10	0x3c38922b	0.011265318
11	0xbdd4c5b9	-0.10389275
12	0x3d138187	0.0360122
13	0xbdaf74d9	-0.08567209
14	0x3c860150	0.016358048
15	0x3c10ad8a	0.008830437
16	0x3de3cb94	0.11122814
17	0x3d2234ce	0.03960114
18	0xbd8605a2	-0.06544043
19	0x3cd38cc3	0.025823956
20	0xbde39645	-0.11112646
21	0xbd1b4b59	-0.037913654
22	0xbd00af38	-0.0314171
23	0x3dd69c6c	0.10479054
24	0x3dc3129e	0.09525035
25	0x3ddb05ad	0.10694442
26	0xbd243618	-0.04009065
27	0x3de14cb6	0.110009596
28	0xbc46d27a	-0.012135142
29	0xbc214ff0	-0.009845719
30	0xbdd90e59	-0.1059844
31	0x3ca98091	0.020691188
32	0xbd1aba46	-0.0377753
33	0xbd102a3e	-0.035196535
34	0x3c860c26	0.016363215
35	0xbd8293eb	-0.06375869
36	0x3daac666	0.08338623
37	0x3d891f45	0.06695417
38	0xbd1431de	-0.03618037
39	0xbd9372c0	-0.07199621
40	0xbdbef063	-0.09323194
41	0x3c3c8cc2	0.011508169
42	0x3d90c946	0.0706964
43	0xbccfd9fe	-0.025372501
44	0x3d03e634	0.03220196
45	0xbd083d23	-0.03326143
46	0x3cb01b48	0.021497384
47	0x3b6e5aab	0.003636996
48	0x3d3df4b1	0.046375934
49	0xbd9aff24	-0.075681955
50	0x3d0e65e8	0.034765154
51	0xbd1c0eb6	-0.038099967
52	0x3d492de7	0.04911604
53	0x39f2c07c	0.0004630125
54	0x3ce33995	0.027737418
55	0x3dad2733	0.08454742
56	0xbdb148e9	-0.08656485
57	0xbda5904d	-0.08084164
58	0x3d4adf0f	0.04952913
59	0xbd982233	-0.07428398
60	0xbd684339	-0.056704734
61	0x3dcaca84	0.09901908
62	0x3ce007a5	0.027347395
63	0x3d8463fe	0.064643845
64	0xbcbed7e0	-0.023296297
65	0x3cf2952d	0.029612148
66	0x3dbf12b1	0.09329737
67	0x3d8f6e57	0.070034675
68	0x3c8193eb	0.015817603
69	0x3da9d6e2	0.08292939
70	0x3d13e72f	0.036109146
71	0x3db68416	0.08911912
72	0xbca76288	-0.020432726
73	0xbda0cda1	-0.078517206
74	0xbbb69ff4	-0.005573267
75	0x3d48c654	0.049017265
76	0x3c5d40f6	0.013504257
77	0xbd9bd6a7	-0.07609301
78	0xbd1eb31d	-0.038745034
79	0xbdcc9965	-0.09990195
80	0x3d7021c6	0.05862596
81	0xbd8554df	-0.065103285
82	0x3dd3e60e	0.10346614
83	0xbdba3309	-0.090917654
84	0x3c87c314	0.016572513
85	0xbd1b69a3	-0.03794254
86	0x3d0463a1	0.032321576
87	0x3dba2a26	0.090900704
88	0xbd9cbd67	-0.07653313
89	0xbd05c10c	-0.032654807
90	0xbcfcc168	-0.030853942
91	0xbd72751b	-0.05919371
92	0xbda96729	-0.08271629
93	0x3d11a6e1	0.03555954
94	0x3d6ef9a2	0.058343537
95	0x3dadf9e9	0.08494932
96	0xbd56440f	-0.052311
97	0x3d79e664	0.061010733
98	0xbdd6c75d	-0.10487244
99	0xbd8eca9b	-0.06972238
100	0xbd448ed0	-0.04798776
101	0xbbb34ce7	-0.005471814
102	0xbd8e17f4	-0.069381624
103	0xbb96da20	-0.0046036392
104	0xbd3ec3fc	-0.046573624
105	0x3d9f10c8	0.07766873
106	0x3de4265b	0.11140128
107	0x37f0c35d	2.8701203e-05
108	0x3dd80569	0.10547907
109	0xbd7a751c	-0.06114684
110	0xbcc80cdb	-0.024420192
111	0xbd269c7e	-0.040676586
112	0x3db38aeb	0.08766731
113	0xbd8d8188	-0.06909472
114	0xbdbab1c9	-0.09115941
115	0x3dcf208b	0.10113629
116	0xbb8183f0	-0.0039524958
117	0x3da9bee7	0.08288365
118	0xbda43f50	-0.080198884
119	0x3d9ed967	0.0775631
120	0x3d37df10	0.044890463
121	0x3d1e0276	0.038576566
122	0xbd447751	-0.04796535
123	0x3d4fbc71	0.05071682
124	0xbdbf5a78	-0.093434274
125	0x3cf8f660	0.030390918
126	0x3db0b29c	0.08627817
127	0xbd83b044	-0.064301044
128	0x3c8e0b1c	0.017339282
129	0x3c17040b	0.0092172725
130	0xbde07b8a	-0.10961063
131	0xbdb10860	-0.086441755
132	0xbd227ba9	-0.039668713
133	0x3dc83d57	0.09777325
134	0x3c3b2a20	0.011423618
135	0xbc402c14	-0.011729259
136	0xbd59e925	-0.05320086
137	0x3d89e40f	0.06732952
138	0xbd93c1d7	-0.072147064
139	0xbddb6a2f	-0.10713612
140	0xbd23388d	-0.039848853
141	0x3ccb0948	0.0247847
142	0xbd9d76a3	-0.07688644
143	0x3d9b084e	0.07569943
144	0xbd23fb92	-0.040034838
145	0xbd5f84d2	-0.054570027
146	0xbddce8d8	-0.10786599
147	0x3cce1b68	0.025159553
148	0x3d3304be	0.043705694
149	0x3d4c2f6b	0.04984991
150	0xbd902834	-0.07038918
151	0x3c867888	0.016414896
152	0x3d038ec0	0.03211856
153	0x3d1bb763	0.038016688
154	0xbde136b7	-0.10996764
155	0x3da41beb	0.080131374
156	0x3db5f933	0.088854216
157	0xbd6b859f	-0.057500478
158	0xbda4bde9	-0.08044035
159	0x3d92aa36	0.071613714
160	0x3cd3bc58	0.025846645
161	0x3d618179	0.055055115
162	0x3da6a421	0.08136774
163	0x3b99f880	0.004698813
164	0xbca3b514	-0.019983806
165	0xbd3a0398	-0.045413584
166	0x3da2ccc2	0.07949211
167	0xbdb483c6	-0.08814196
168	0x3d6a949f	0.057270642
169	0xbd8e70da	-0.069551185
170	0xbcfb44d5	-0.03067247
171	0xbda3a7ec	-0.07991013
172	0x3d783368	0.0605959
173	0xbde2cbe4	-0.11074045
174	0xbd919743	-0.07108929
175	0xbdc43bd2	-0.09581722
176	0xbd5aea00	-0.053445816
177	0x3c39604f	0.011314466
178	0xbd805792	-0.06266703
179	0xbdd15cc6	-0.10222773
180	0xbd8251c7	-0.06363254
181	0xbd7be6a6	-0.06149926
182	0x3c3cccde	0.0115234535
183	0x3ccf3838	0.025295362
184	0xbd6e5a87	-0.058191802
185	0xbdc0c014	-0.09411636
186	0xbd3dc4d5	-0.04633029
187	0x3aaf9f32	0.0013398884
188	0x3cfa1280	0.0305264
189	0x3da4a2f2	0.08038892
190	0xbd8854a6	-0.066567704
191	0xbb93f6d6	-0.004515509
192	0x3d15f676	0.036611997
193	0x3d2329fc	0.03983496
194	0xbd81e120	-0.06341767
195	0xbda39f04	-0.07989314
196	0x3d802982	0.06257917
197	0xbd35927c	-0.04432915
198	0xbce2b6cc	-0.027675055
199	0x3b8290b7	0.0039845365
200	0x3da57c69	0.0808037
201	0xbdace810	-0.084427
202	0x3d3d3349	0.046191487
203	0xbd075b7e	-0.033046238
204	0xbcf3504c	-0.029701374
205	0x3c6ae4c6	0.01433677
206	0x3d01bf97	0.031676855
207	0xbd2ac5b8	-0.041692466
208	0x3d1e7bed	0.038692404
209	0xbdbdb16c	-0.09262356
210	0x3c26bdea	0.010177115
211	0xbd081c0c	-0.033229873
212	0x3d85e3f6	0.06537621
213	0x3c51ef83	0.012813452
214	0xbd9ddc30	-0.07708013
215	0xbddccbb8	-0.10781044
216	0xbb009f61	-0.0019626247
217	0xbdb0286e	-0.08601461
218	0x3d97515a	0.073885635
219	0x3dc0dfdf	0.094177
220	0xbd9bd33a	-0.07608648
221	0xbda93c20	-0.08263421
222	0x3c9d7983	0.01922298
223	0xbdc0bfb1	-0.09411562
224	0x3db5fb52	0.08885826
225	0x3c8fc54d	0.017550135
226	0xbdbfc732	-0.09364165
227	0xbcb719a3	-0.022351092
228	0x3d4af9a6	0.04955449
229	0xbd7278db	-0.059197288
230	0x3dc8f7a8	0.09812862
231	0x3ce46fa0	0.027885258
232	0x3d952118	0.07281703
233	0xbdb7efcc	-0.089812845
234	0xbdc6a4d1	-0.09699405
235	0x3c9edcb4	0.019392349
236	0xbc6d6c8a	-0.01449121
237	0x3c59f094	0.013301987
238	0x3d5c5d83	0.053800117
239	0x3d612e85	0.054976005
240	0x3d8bfe18	0.06835574
241	0xbcfd54ab	-0.030924162
242	0xbbc2f89f	-0.005950048
243	0x3dab8d47	0.08376556
244	0x3d907ebc	0.07055423
245	0x3dc366b2	0.09541072
246	0x3dc518aa	0.09623845
247	0x3d69bf86	0.057067417
248	0x3ae18909	0.0017206977
249	0x3dbeeccd	0.0932251
250	0xbd8af524	-0.06785038
251	0x3d4ed714	0.050498083
252	0x3c995c5f	0.018720804
253	0xbd8ea8f5	-0.0696582
254	0x3d09d3a9	0.03364912
255	0x3d66a348	0.05630806

out.bias f4 [40]
0	0xbd371ead	-0.04470699
1	0x3dc5b110	0.096529126
2	0x3cbdd533	0.02317295
3	0xbd361e29	-0.044462357
4	0xbc5a2e1c	-0.013316657
5	0xbd328418	-0.043583006
6	0x3dc13579	0.09434027
7	0xbdba1808	-0.09086615
8	0x3cf5d922	0.030010764
9	0xbd82fc92	-0.0639583
10	0x3db4936a	0.088171795
11	0x3d0fc010	0.035095274
12	0x3c2fedad	0.010737819
13	0xbca46925	-0.020069668
14	0x3d95b511	0.07309926
15	0x3dc961a1	0.09833074
16	0x3d8b43c8	0.068000376
17	0xbd9cfa09	-0.07664878
18	0xbd055955	-0.032555897
19	0xbd60a12a	-0.054841198
20	0x3d9be984	0.07612899
21	0xbccd37b3	-0.025050974
22	0xbd4b1cb0	-0.049587905
23	0x3b92d74e	0.0044812327
24	0xbd011c36	-0.031521045
25	0xbd7990a5	-0.06092896
26	0xbc7b094e	-0.015322043
27	0xbbe712e5	-0.007051813
28	0xbba5a1fc	-0.0050547104
29	0xbdc951d1	-0.09830058
30	0xbc5bf427	-0.01342491
31	0xbcdf7150	-0.027275711
32	0xbcb2432d	-0.021760548
33	0x3d2c691f	0.04209244
34	0xbdaa9a4b	-0.0833021
35	0xbd1942bd	-0.037417162
36	0x3cfb38f6	0.03066681
37	0x3d52a194	0.051423624
38	0xbc9e1344	-0.019296296
39	0x3dc5495c	0.09633133
