1200params3.pth (torch, 607751 bytes, 10 tensors)

conv1.0.weight f4 [32, 4, 2, 2]
0	0xbdc5621c	-0.096378535
1	0x3e2b8fc2	0.16754058
2	0x3dbf553e	0.093424305
3	0x3e390629	0.18068756
4	0xbe6c54e9	-0.23079266
5	0x3d4ebcdc	0.05047308
6	0x3e478666	0.19484863
7	0xbbf9b4ec	-0.0076204445
8	0xbe5d0515	-0.2158397
9	0xbd655669	-0.05599061
10	0x3db66ba5	0.0890725
11	0xbdbe4f13	-0.09292426
12	0xbd82f91b	-0.06395169
13	0xbda44507	-0.080209784
14	0x3cdda7bb	0.02705752
15	0x3b5e72ee	0.0033943015
16	0xbdea2ce9	-0.11434347
17	0x3e59410e	0.21216223
18	0x3d8dacf2	0.06917752
19	0x3da66117	0.08123987
20	0xbe765c9f	-0.2405877
21	0xbe289fc2	-0.16467193
22	0xbe13380b	-0.14376847
23	0xbe23931f	-0.15974091
24	0x3dfc6aad	0.12325034
25	0x3e5d86c5	0.21633442
26	0xbda5bb69	-0.08092386
27	0x3d5eec84	0.054424778
28	0xbe2e91cb	-0.17047803
29	0x3e02efb0	0.12786746
30	0xbc0c744d	-0.00857265
31	0x396e297b	0.00022712901
32	0xbcfb38df	-0.030666767
33	0x3e51f6a6	0.20504245
34	0xbe2c20a5	-0.16809328
35	0x3e5a47cb	0.2131645
36	0x3c98633c	0.018602006
37	0x3d5f3119	0.054490183
38	0x3db15d5d	0.08660386
39	0x3e1a3355	0.15058644
40	0xbd4d2272	-0.050081678
41	0xbdf28c88	-0.118432105
42	0x3e6a0ca0	0.22856379
43	0x3d19e2dd	0.03756987
44	0x3e0c3851	0.13693358
45	0xbd33edc4	-0.043927923
46	0xbe42de22	-0.1903005
47	0xbd92c657	-0.071667366
48	0xbe494dfe	-0.19658658
49	0x3e7c2ecc	0.24627227
50	0x3be390f0	0.006944768
51	0x3e47aaf1	0.19498803
52	0x3e57e9ad	0.21085234
53	0xbd0ec2a1	-0.03485358
54	0x3d81b9a5	0.06334237
55	0xbcdf3587	-0.027247204
56	0xbe6610d5	-0.22467358
57	0x3e15e197	0.14636837
58	0xbdb1ce01	-0.0868187
59	0x3e5b9694	0.2144416
60	0x3de6c353	0.11267724
61	0xbc95065c	-0.018191509
62	0x3e24e8c3	0.16104417
63	0x3dd6a008	0.10479742
64	0x3e627d73	0.22118168
65	0x3ac1c358	0.0014782948
66	0xbdbd6521	-0.092478044
67	0xbd2d44d8	-0.042301983
68	0x3e6dfc80	0.23240852
69	0x3e49279e	0.19644019
70	0x3e4c6574	0.19960576
71	0xbd20c169	-0.03924695
72	0xbdb33f89	-0.08752353
73	0x3c9defdf	0.019279419
74	0xbe1b3e19	-0.15160407
75	0xbdc38a02	-0.09547807
76	0x3e7e2344	0.2481814
77	0x3ce82013	0.028335607
78	0x3de2241e	0.11042045
79	0xbda26106	-0.07928662
80	0x3d9df706	0.077131316
81	0x3db89d15	0.09014336
82	0xbe309872	-0.17245653
83	0x3e769b1d	0.24082609
84	0xbce28086	-0.027649175
85	0xbe187691	-0.1488898
86	0xbdb1d467	-0.08683091
87	0x3e4e87d5	0.20169003
88	0xbe2a62e9	-0.16639294
89	0xbe6c13c7	-0.2305442
90	0xbe782194	-0.24231559
91	0x3e54b78a	0.2077314
92	0xbd305268	-0.04304734
93	0xbcda6e6d	-0.026663983
94	0xbdf0daf7	-0.11760514
95	0x3dca529e	0.09879039
96	0x3e4a8191	0.19775988
97	0x3e15ee90	0.14641786
98	0x3e29b9d1	0.1657479
99	0xbc990355	-0.018678347
100	0x3d883040	0.06649828
101	0xbdca1684	-0.09867576
102	0x3e408b9b	0.18803255
103	0xbda23abf	-0.07921361
104	0xbdae1e9c	-0.08501932
105	0x3cc0f055	0.0235521
106	0xbe3e05b3	-0.18556862
107	0xbe1ec7ac	-0.15505856
108	0x3e56053c	0.20900434
109	0xbdc886ea	-0.09791358
110	0xbdd77b1c	-0.10521528
111	0x3ded254e	0.11579381
112	0xbc88681f	-0.016651211
113	0x3d29459f	0.04132616
114	0x3e3e29e0	0.18570662
115	0xbda58641	-0.080822475
116	0xbd6517a7	-0.05593076
117	0xbe7dba7c	-0.2477817
118	0x3d7a0c6c	0.061047003
119	0xbdf5cd31	-0.12002028
120	0xbe0e1ed7	-0.13878952
121	0x3e06383f	0.13107394
122	0xbc47ff2f	-0.012206837
123	0x3e4f847e	0.20265386
124	0xbe196c5b	-0.1498274
125	0x3e5993ac	0.21247739
126	0xbd64331c	-0.055712804
127	0xbd458d1d	-0.04823028
128	0xbd38b7db	-0.045097213
129	0x3e56c918	0.20975149
130	0xbcc8cc98	-0.02451162
131	0xbe5d76aa	-0.21627298
132	0xbe116019	-0.14196815
133	0xbe0ae592	-0.13564137
134	0xbcf64426	-0.030061793
135	0xbe33e82f	-0.1756904
136	0x3d0082d4	0.031374767
137	0x3bc7a3d2	0.006092527
138	0x3dec5c00	0.11540985
139	0xbe4f5b7c	-0.20249742
140	0x3e7dbc5e	0.24778888
141	0x3d45e05c	0.04830967
142	0x3cde1e03	0.02711392
143	0xbe38fae0	-0.18064451
144	0x3e2e3614	0.17012817
145	0x3e23b7a6	0.15988025
146	0x3dc88e71	0.097927935
147	0xbe1f5eb9	-0.15563478
148	0xbe16d9df	-0.14731549
149	0x3e32fb02	0.17478564
150	0xbe42b712	-0.19015148
151	0x3d00c38f	0.0314365
152	0xbd31bffa	-0.043395974
153	0x3e46fe42	0.19432929
154	0xbe65c702	-0.22439197
155	0xbddc7a89	-0.10765559
156	0xbd85d9f0	-0.06535709
157	0xbd99bfca	-0.07507284
158	0xbe3e7ec0	-0.18603039
159	0xbdc65eca	-0.09686048
160	0xbe18653e	-0.14882371
161	0x3e4c4071	0.19946457
162	0xbe12f705	-0.14352043
163	0x3bd687fb	0.006546972
164	0xbe7e4fc0	-0.2483511
165	0xbe03ea6c	-0.12882394
166	0x3e44f18f	0.19232772
167	0xbe547268	-0.20746768
168	0xbd2f9059	-0.04286227
169	0xbdedb39e	-0.11606525
170	0xbcbbb442	-0.022913102
171	0xbc393b1e	-0.011305599
172	0xbd8a1780	-0.067427635
173	0xbdf07a40	-0.11742067
174	0x3dcb843d	0.09937332
175	0xbd077d49	-0.033078466
176	0x3d7f500d	0.0623322
177	0xbe54a680	-0.2076664
178	0xbd326ce8	-0.043560892
179	0xbdbccfd2	-0.09219326
180	0x3ded4430	0.11585271
181	0xbcc1da60	-0.0236637
182	0xbe0d0a67	-0.137735
183	0xbe71ba4d	-0.23606224
184	0x3ca4ce2c	0.020117842
185	0xbe0d99cc	-0.138282
186	0xbe564d52	-0.20927933
187	0xbe23493e	-0.15945908
188	0x3e771bc1	0.24131681
189	0xbe0a18ea	-0.13486066
190	0xbda4b56b	-0.08042415
191	0xbe63179a	-0.22176972
192	0xbe4677e3	-0.1938167
193	0xbe0bc16f	-0.13648008
194	0xbe7e84b0	-0.24855304
195	0x3d8e218c	0.06939992
196	0xbd1a34a8	-0.037647873
197	0x3dd5a7b0	0.104323745
198	0xbdab769b	-0.083722316
199	0xbe020ea7	-0.12700902
200	0xbd07e3d2	-0.03317625
201	0x3e3223a2	0.17396405
202	0x3e12d8dc	0.14340538
203	0xbd8355e1	-0.064128645
204	0x3d4d8553	0.050175976
205	0xbd9441c5	-0.07239107
206	0x3bd09145	0.0063649737
207	0x3e3f7a16	0.18698916
208	0x3e0fbb61	0.14036323
209	0xbc1018b7	-0.008794955
210	0x3d951171	0.07278717
211	0x3d7a6c05	0.06113817
212	0xbe15ab51	-0.14616133
213	0xbd59e0c2	-0.05319286
214	0x3e5a04a2	0.2129083
215	0x3dabf37a	0.08396049
216	0xbb84bc43	-0.004050763
217	0x3e738965	0.2378288
218	0xbd90a784	-0.07063201
219	0xbdfb171d	-0.12260268
220	0xbde420f5	-0.111390986
221	0x3e173415	0.14765961
222	0x3d9e46a5	0.07728318
223	0x3e231a0c	0.15927905
224	0x3e1cc6d4	0.15310222
225	0xbdce442e	-0.10071598
226	0xbd1b55ba	-0.037923552
227	0xbe3b4ab4	-0.18290216
228	0x3e129dac	0.1431796
229	0x3e2b7eb1	0.16747548
230	0xbe3426f2	-0.17592981
231	0xbe18001f	-0.14843796
232	0x3cf49219	0.029854821
233	0x3c95adda	0.018271375
234	0x3e011ae7	0.12607919
235	0x3de3b92b	0.11119302
236	0xbe54c5d8	-0.20778596
237	0x3d066bf3	0.032817792
238	0xbc260238	-0.010132365
239	0x3e183571	0.14864136
240	0x3e5e1449	0.21687426
241	0x3e3a139a	0.1817154
242	0x3e16ae7a	0.14714995
243	0xbe19d3de	-0.15022227
244	0xbe15a92d	-0.14615317
245	0xbe30a8ee	-0.17251942
246	0x3e72dda1	0.23717357
247	0xbe60c8b1	-0.21951558
248	0x3e0ef131	0.13959195
249	0x3e5405e8	0.20705378
250	0xbe7f0341	-0.24903585
251	0x3ce21d32	0.027601812
252	0xbe178a86	-0.14798936
253	0x3d5ba680	0.053625584
254	0x3d7e54b0	0.062092483
255	0xbde337a4	-0.11094597

conv1.0.bias f4 [32]
0	0x3d3bb906	0.04583075
1	0xbe412388	-0.1886121
2	0xbe43cec2	-0.1912184
3	0xbe668fd6	-0.22515807
4	0xbe6e30d4	-0.23260814
5	0xbe04968e	-0.12948057
6	0xbdad78e9	-0.084703274
7	0x3de4078b	0.11134251
8	0xbe3356b1	-0.17513539
9	0x3cc30a7a	0.023808707
10	0x3e5c96f8	0.21541965
11	0xbd7a0380	-0.061038494
12	0xbe0dfe76	-0.138666
13	0x3e598208	0.21241009
14	0xbde87854	-0.11351076
15	0xbbbdf4ad	-0.00579699
16	0xbe3a5174	-0.18195134
17	0xbdea174b	-0.11430224
18	0xbd24deb9	-0.040251467
19	0xbe1cb476	-0.15303215
20	0xbcfe4db9	-0.03104292
21	0x3e0b125a	0.1358122
22	0x3e788fe6	0.24273643
23	0x3810b47c	3.4500365e-05
24	0xbcc8d2c3	-0.024514562
25	0xbe14cc2b	-0.14531009
26	0xbdbdad59	-0.09261579
27	0xbd3f61c4	-0.046724096
28	0x3e41c003	0.18920903
29	0x3e55d979	0.2088374
30	0x3e2ca22b	0.16858737
31	0x3e69adee	0.22820255

conv2.0.weight f4 [64, 32, 4, 4]
0	0x3d0a0835	0.033699233
1	0x3d054f16	0.032546125
2	0x3d2888cb	0.04114608
3	0xbcf9d478	-0.03049682
4	0x3c0286e9	0.007966735
5	0x3c81725d	0.015801603
6	0x3d21063f	0.039312597
7	0x3c62b3b4	0.01383679
8	0x3b201d5a	0.0024431557
9	0x3c5329b0	0.012888357
10	0x3d34326d	0.043993402
11	0x3b5ecf20	0.0033997968
12	0x3c9f8081	0.019470455
13	0xbd0b28c4	-0.033974424
14	0x3c2d6fcf	0.010585739
15	0x3d0a11ef	0.03370851
16	0xbd0c737e	-0.03428983
17	0xbd154bda	-0.03644929
18	0xbd27f3f2	-0.04100413
19	0xbcb9a7b1	-0.02266297
20	0xbcfff750	-0.031245857
21	0x3d22deb0	0.039763153
22	0x3c8ddf9c	0.01731854
23	0x3ce0ca41	0.027440192
24	0xbcba9710	-0.02277711
25	0xbce3cf72	-0.027808879
26	0xbcb3e38d	-0.02195909
27	0x3bf78485	0.0075536394
28	0xbd15ea69	-0.036600504
29	0x3c9c8a3f	0.01910889
30	0xba56d77d	-0.00081955624
31	0xbcb1d2a1	-0.021706881
32	0xbd178b2e	-0.036997966
33	0xbb61a0c2	-0.0034428095
34	0xbd233b74	-0.03985162
35	0xbd278ee7	-0.040907767
36	0xbce572c9	-0.028008835
37	0xbcbd86ad	-0.023135507
38	0xbd281780	-0.041038036
39	0xbd29aa39	-0.041422103
40	0x3d02350e	0.03178888
41	0x3c7d696b	0.015467028
42	0x3ce9035f	0.02844399
43	0xbc99b48b	-0.018762847
44	0xbd04b67d	-0.032400597
45	0x3b966435	0.0045895823
46	0x3d0f42c4	0.034975782
47	0xbcbcfe8f	-0.023070602
48	0xbc6e4c7f	-0.014544605
49	0x3c9119e6	0.017712545
50	0x3c8b8e82	0.017035726
51	0x3cf9d493	0.030496871
52	0x3c924169	0.017853456
53	0xbc854faf	-0.016273348
54	0xbcc33a5b	-0.023831537
55	0xbc9a2b62	-0.018819515
56	0x3d0b8009	0.03405765
57	0x3d0de62d	0.03464334
58	0xbcec34a2	-0.028833691
59	0x3b15eb37	0.0022875795
60	0xbd0d25cc	-0.034459874
61	0xbc941972	-0.01807854
62	0x3c7ed425	0.015553509
63	0x3cb90579	0.022585617
64	0x3cd4ea4d	0.02599063
65	0x3c4d9b25	0.012549196
66	0xba7c88a5	-0.0009633399
67	0xbcd4af7a	-0.02596258
68	0x3ccc0aae	0.024907436
69	0x3bf4dc71	0.0074725677
70	0xbce0b4e1	-0.02743
71	0x3cda0b63	0.026616758
72	0x3d05370b	0.032523196
73	0x3c5eb07e	0.013591884
74	0x3a5ea901	0.00084938115
75	0xbc422b37	-0.0118511235
76	0xbd1c8dbd	-0.03822111
77	0x3c19dce9	0.009391048
78	0x3caa9534	0.020823099
79	0x3cab72a5	0.02092869
80	0xbc42c2b2	-0.011887239
81	0x3d09ee16	0.033674322
82	0xbc2590db	-0.010105337
83	0x3cb55e96	0.022139829
84	0xba74551d	-0.0009320544
85	0xbc3701aa	-0.01116983
86	0x3c5ab30d	0.013348353
87	0x3d123cc4	0.035702482
88	0x3d1a507b	0.03767441
89	0xbc82c04c	-0.015960835
90	0xbccb84e6	-0.024843644
91	0xbc3cd4dc	-0.011525359
92	0x3d20a609	0.039220843
93	0xbce55ec3	-0.027999287
94	0xbc00a0b1	-0.007850812
95	0xbd1c04da	-0.038090564
96	0x3c4d1d13	0.012519139
97	0x3cdcc05a	0.02694719
98	0xbcf9c18a	-0.030487794
99	0x3d2e1ae7	0.042506125
100	0xbc8bc5aa	-0.017062027
101	0x3d306991	0.043069426
102	0x3ce0d357	0.027444525
103	0xbca6bcbf	-0.020353673
104	0xbc85d56e	-0.016337123
105	0xbcbe4acd	-0.023229027
106	0x3c80e7a2	0.015735451
107	0xbd0d14c0	-0.034443617
108	0xbba31450	-0.0049767867
109	0x3c526ed0	0.012843803
110	0xbc71f78b	-0.0147684915
111	0xba4f00d6	-0.0007896548
112	0xbd29485c	-0.041328773
113	0x3bf1025d	0.007355018
114	0x3c92b8f0	0.01791045
115	0x3ba54904	0.0050441045
116	0x3d33d48e	0.04390388
117	0x3c48a9cc	0.012247514
118	0xbd31365b	-0.043264728
119	0xbc2e4949	-0.01063759
120	0xbc9b8a39	-0.018986808
121	0xbce5d57b	-0.028055897
122	0xbce43d1f	-0.027861176
123	0xbb8a7b6e	-0.0042261397
124	0xbc4b23f9	-0.012398713
125	0xbbbc5557	-0.005747478
126	0x3c09dd2b	0.008414547
127	0x3cc9dfd4	0.024642862
128	0x3beb2e93	0.007177183
129	0xbce73b5a	-0.028226543
130	0xbce56925	-0.028004238
131	0x3d1aa3b1	0.037753765
132	0xbd06335f	-0.032763835
133	0x3cecaa80	0.028889894
134	0x3b1264d4	0.002233793
135	0xbc486fa8	-0.012233652
136	0xbd30aa14	-0.04313095
137	0x3cdbd941	0.026836993
138	0xbcccfcf6	-0.025022965
139	0xbc3c71b7	-0.011501721
140	0x3d1179c4	0.035516515
141	0x3c7cbb7e	0.015425561
142	0xbc8890cf	-0.016670613
143	0xbc407744	-0.011747185
144	0xbc9ae9fa	-0.018910397
145	0x3d2db4b1	0.04240865
146	0x3d0643a2	0.032779343
147	0xbce288f2	-0.027653191
148	0x3a8af0fb	0.0010600382
149	0xbc53e183	-0.012932184
150	0x3d22dd51	0.039761845
151	0xbc633f48	-0.013870068
152	0x3d2c5f1e	0.0420829
153	0xbd2ed03b	-0.042679053
154	0xbcfcaaa8	-0.030843094
155	0xb9eab8de	-0.00044769695
156	0xbcfdd899	-0.03098707
157	0x3ced5fca	0.02897634
158	0xbc9d3987	-0.01919247
159	0xbc8d2474	-0.017229296
160	0x3c85d8af	0.016338674
161	0xbd2cd85b	-0.04219852
162	0x3cdf224f	0.02723804
163	0x3d3207e8	0.04346457
164	0xbc7005a3	-0.014649781
165	0xbce8780e	-0.028377559
166	0xbc05d1c4	-0.008167688
167	0xbd1bb946	-0.038018487
168	0xbc89cc41	-0.016821029
169	0xbccabe17	-0.024748845
170	0xbcf16bf0	-0.029470414
171	0x3d0d687f	0.034523483
172	0x3d0b04e0	0.033940196
173	0xbcf83911	-0.030300649
174	0x3cce6ac3	0.025197392
175	0x3c90a6c1	0.01765764
176	0x3d1e9a07	0.03872111
177	0xbca410f8	-0.020027623
178	0xbd33d26a	-0.04390184
179	0xbd220432	-0.039554782
180	0x3d07a11a	0.033112623
181	0x3cfccdcc	0.03085985
182	0xbbe889d6	-0.0070965094
183	0x3ca145ac	0.019686542
184	0x3d142551	0.0361684
185	0xbc6e497d	-0.014543888
186	0x3d198d47	0.03748825
187	0xbcf8a3fd	-0.030351633
188	0x3bb1bf6f	0.005424432
189	0x3c98cdfe	0.018652912
190	0x3cfca664	0.03084106
191	0x3cb3e8e8	0.021961644
192	0x3c0b7186	0.008510953
193	0x3ccb9073	0.024849152
194	0xbd1bdb11	-0.038050715
195	0x3d303314	0.043017462
196	0xbcb9a2d4	-0.02266065
197	0x3ca62422	0.020280901
198	0x3c15c7c9	0.009141871
199	0x3d01feb7	0.031737056
200	0xbcba79bc	-0.022763126
201	0xb9f1e887	-0.00046140348
202	0x3c022872	0.007944213
203	0x3c8f04cf	0.017458348
204	0xbabf23d6	-0.0014582823
205	0xbc6c00fc	-0.014404532
206	0xbcc1cc8e	-0.02365711
207	0xbc3d4dde	-0.0115542095
208	0x3c807812	0.015682254
209	0x3d0a1e66	0.033720396
210	0xbd20a124	-0.039216176
211	0x3ccc770a	0.024959106
212	0x3cbe71d4	0.023247637
213	0x3d3310f2	0.043717332
214	0xbc57c3fb	-0.013169284
215	0xbc3b69e1	-0.011438818
216	0x3ca4f15e	0.020134624
217	0xbca3925f	-0.019967256
218	0xbc384d65	-0.011248921
219	0x3d10cfb3	0.035354327
220	0xbd09214f	-0.03347903
221	0xbca625c6	-0.020281684
222	0x3cffc135	0.031220058
223	0xbc9561db	-0.018235138
224	0x3cb8c823	0.02255637
225	0xba861eeb	-0.0010232603
226	0x3b3c44ee	0.0028727609
227	0xbc79ab1d	-0.0152385505
228	0xbbe6be15	-0.0070417025
229	0x3a5e24dc	0.00084741204
230	0x3bf21b53	0.007388511
231	0x3cc991a3	0.024605578
232	0xbb388aa0	-0.0028158799
233	0xbd1a6e2f	-0.037702736
234	0xbce6eddc	-0.028189592
235	0xbd155c90	-0.036465228
236	0x3b0c3bd6	0.002139797
237	0xbc0208e3	-0.007936689
238	0x3cd6c567	0.026217176
239	0x3b90649c	0.004406525
240	0x3c7f1bb2	0.015570568
241	0x3cf3bc7a	0.029752959
242	0xba8b4962	-0.0010626728
243	0xbd24cf34	-0.040236667
244	0xba11904e	-0.0005552814
245	0x3d273789	0.040824447
246	0xbc90f40b	-0.017694494
247	0xbc8b2dde	-0.016989645
248	0x3cefcf6b	0.02927371
249	0x3cb8280b	0.022480031
250	0xbd0880f4	-0.033326104
251	0x3b0a08dc	0.002106241
252	0xbd32d690	-0.043661654
253	0xbc9b5ad7	-0.018964214
254	0x3cdf7d3c	0.027281396
255	0x3d0015be	0.031270735

conv2.0.bias f4 [64]
0	0xbb8a48c7	-0.0042201015
1	0xbcb399d2	-0.021923933
2	0xbce79d9e	-0.0282734
3	0xb9981e73	-0.00029014386
4	0xbca46715	-0.020068685
5	0x3d051c86	0.032497905
6	0x3d19e5a2	0.03757251
7	0xbc908ac8	-0.017644301
8	0x3d225067	0.03962746
9	0x3bf9ccce	0.0076232916
10	0xbce0b662	-0.027430717
11	0x3d14864c	0.036260888
12	0xbd14bd18	-0.036313146
13	0xbcda0483	-0.02661348
14	0x3d172588	0.036901027
15	0xbcf9d8c8	-0.030498877
16	0x3c789eff	0.015174626
17	0x3c9b3d01	0.018949987
18	0x3d093584	0.033498302
19	0xbd2f3c2c	-0.042781994
20	0xbd2c8426	-0.042118214
21	0xbd2b6493	-0.041843962
22	0x3ac287f5	0.0014841544
23	0x3ce758c8	0.028240576
24	0xbc777640	-0.015103877
25	0x3be48bf6	0.0069746925
26	0xbc689dba	-0.014197761
27	0x3c65580c	0.013998043
28	0x3d15fc14	0.036617354
29	0x3d2cd3e1	0.04219425
30	0x3d3341e4	0.04376401
31	0xbc486ede	-0.012233464
32	0xbc938a05	-0.018010149
33	0x3d12dce8	0.035855204
34	0xbc80fd38	-0.015745744
35	0xbc507f27	-0.012725628
36	0xbc7830d8	-0.015148364
37	0x3ceaad32	0.02864704
38	0xbcefdf09	-0.029281156
39	0x3a4c1323	0.0007784834
40	0x3c9ba9bd	0.019001836
41	0xbc417765	-0.011808251
42	0xbc46eb6d	-0.012141091
43	0xbc8fcde1	-0.017554225
44	0xbd1dc6ad	-0.03851955
45	0x3cb4b1a3	0.02205736
46	0x3d005fb0	0.031341255
47	0x3bb8bc0d	0.005637652
48	0x3c73b00d	0.014873517
49	0x3d0a3fce	0.033752255
50	0x3d21d0a1	0.039505605
51	0xbc81261e	-0.015765246
52	0x3d03dee1	0.032194976
53	0x3d18c388	0.037295848
54	0x3c21364d	0.0098396065
55	0x3c84464a	0.016146798
56	0xbc9c8406	-0.019105922
57	0x3c807a4a	0.015683312
58	0xbd027a79	-0.03185508
59	0x3d0d6b9e	0.03452646
60	0x3cd4dd64	0.025984474
61	0x3d1e5fcd	0.03866558
62	0x3c7bad4a	0.01536114
63	0xbd0e10bb	-0.034683924

conv3.0.weight f4 [64, 64, 3, 3]
0	0xbce0c1a2	-0.027436081
1	0x3c0ab954	0.008467037
2	0x3d134b3d	0.035960425
3	0xba9cfd8b	-0.0011977417
4	0xbbe7e040	-0.007076293
5	0x3cbefb3b	0.023313155
6	0x3cdb6c45	0.026785025
7	0x3ac7d365	0.0015245496
8	0x3b800e87	0.003907982
9	0x3c9244be	0.017855044
10	0x3d0d0ba7	0.03443494
11	0x3c36220a	0.011116514
12	0xbc777180	-0.015102744
13	0x3d1911a4	0.03737034
14	0xbd0a69d8	-0.033792347
15	0xbcfeb153	-0.031090414
16	0xbc307299	-0.01076951
17	0xbcd9b69c	-0.026576333
18	0xbb923664	-0.0044620503
19	0xbd174a4e	-0.036936097
20	0x3bc9896d	0.0061504156
21	0xbc682cf7	-0.014170877
22	0x3bbd9c8a	0.005786483
23	0x3c92817d	0.01788401
24	0xbc078f86	-0.008273965
25	0x3ca45509	0.02006008
26	0xbc6b4701	-0.01436019
27	0x3c0dd591	0.008656875
28	0x3c8cfeec	0.0172114
29	0xbc099b71	-0.0083988765
30	0xbc490a03	-0.012270453
31	0xba867e67	-0.001026106
32	0xbc61c65f	-0.0137802055
33	0x3ce11b26	0.027478766
34	0xbc37048c	-0.011170518
35	0xbc3340fb	-0.0109407855
36	0x3cf82216	0.030289691
37	0x3d08c595	0.033391554
38	0xbc884860	-0.016636074
39	0xbd11070f	-0.035407122
40	0x3ba65737	0.005076315
41	0xbcdfcc64	-0.02731914
42	0xbc25401c	-0.010086086
43	0xbd131327	-0.035906937
44	0x3cadbe0a	0.021208782
45	0xbc01ca48	-0.007921763
46	0xbb27e690	-0.0025619604
47	0x3bc95b84	0.0061449427
48	0x3d1caded	0.038251806
49	0x3cc4d328	0.024026468
50	0xbcd66182	-0.026169542
51	0x3c92545f	0.017862497
52	0xbd1181ff	-0.035524365
53	0x3cda230f	0.026628045
54	0xbcd6bc95	-0.02621297
55	0x3cb6c357	0.022309942
56	0xbd1fd27c	-0.039019093
57	0xbc085fb3	-0.008323598
58	0xbd28b5b1	-0.0411889
59	0xbc98246c	-0.018572055
60	0x3b355ede	0.0027674953
61	0xbb94ecbf	-0.004544824
62	0x3c4b1ab1	0.0123965
63	0xbd0e81fa	-0.034791924
64	0x3cd99820	0.026561797
65	0xbd2405e4	-0.04004468
66	0x3c0f7860	0.008756727
67	0x3c105b9e	0.008810906
68	0x3c81e0bd	0.015854234
69	0x3bff7ba8	0.0077967234
70	0x3b9e7795	0.0048360326
71	0xbcd16a1c	-0.025563292
72	0x3bbfde69	0.005855371
73	0x3cdec39f	0.027192889
74	0xbc9a73ac	-0.018853985
75	0xbd21486b	-0.039375704
76	0x3cc32749	0.023822444
77	0xbc31d1d3	-0.010853249
78	0x3d033b5a	0.032039024
79	0xbcd53eea	-0.026030976
80	0xbca84f84	-0.020545729
81	0xbcc5e23a	-0.024155725
82	0xbce3f8f4	-0.027828671
83	0x3d0fc6f7	0.035101857
84	0x3c9a5ebe	0.018844005
85	0xbcd1f7ab	-0.025630793
86	0x3d285f94	0.041106775
87	0x3d0bdb5e	0.03414475
88	0x3d0dd939	0.034630988
89	0x3c465d44	0.012107197
90	0xbc85ee27	-0.016348911
91	0x3cb6fb85	0.02233673
92	0x39f4e794	0.00046711846
93	0x3d1a9348	0.037738115
94	0x3d0464f3	0.032322835
95	0xbc43493f	-0.011919319
96	0xbcb390bf	-0.021919606
97	0x3c802400	0.015642166
98	0x3c1a10a8	0.009403385
99	0x39fff749	0.00048821632
100	0xbc97fabc	-0.018552177
101	0x3ca67a26	0.020321917
102	0x3cba33a3	0.0227297
103	0x3cb01ee2	0.021499101
104	0x3c81597a	0.015789736
105	0xbd28ebe0	-0.041240573
106	0xbcec8091	-0.028869899
107	0x3cffad96	0.031210702
108	0xbd13c421	-0.036075715
109	0x3c42de01	0.01189375
110	0x3c8905c7	0.016726388
111	0x3c19fd3f	0.0093987575
112	0xbce3bf0a	-0.027801055
113	0x3becfd3d	0.007232337
114	0x3d1eee75	0.03880163
115	0xbc9b7ddc	-0.018980913
116	0xbd0a3475	-0.033741433
117	0xbba54ec7	-0.0050447914
118	0xbcdd9dd7	-0.027052803
119	0xbb18a777	-0.0023293176
120	0x3cbfd481	0.02341676
121	0x3d1f3705	0.03887083
122	0x3c98d8a1	0.018657984
123	0xbce6379c	-0.028102688
124	0x3c9d8fe6	0.019233655
125	0x3ca59d96	0.020216744
126	0x3c9c3ae0	0.019071043
127	0x3d260ec6	0.040541433
128	0xbc4b381a	-0.012403512
129	0x3cfc8ca8	0.030828789
130	0xbc3c9c8d	-0.011511934
131	0x3c866720	0.016406596
132	0x3bd1faf6	0.0064080907
133	0xbb12dad8	-0.0022408273
134	0x3cf0c062	0.02938861
135	0xbd0db17a	-0.034593083
136	0xbcd2b018	-0.025718734
137	0xbcfb9204	-0.030709274
138	0xbb82adbd	-0.0039879964
139	0xbb82166f	-0.0039699594
140	0xbc855169	-0.016274171
141	0xbccac294	-0.024750985
142	0xbd191011	-0.037368838
143	0x3c861e17	0.01637177
144	0xbc42b265	-0.011883353
145	0xbc902c65	-0.017599294
146	0x3c6cd8f0	0.014456019
147	0xbc2bbc06	-0.01048184
148	0x3bb09851	0.0053892513
149	0xbced431d	-0.028962666
150	0x3c75b416	0.014996549
151	0xbcc30a45	-0.023808608
152	0x3bb517f2	0.005526536
153	0x3c8918f3	0.01673553
154	0xbc8e7007	-0.017387403
155	0x3d06cfaa	0.032912888
156	0xb81625ed	-3.5798108e-05
157	0xbcb41f08	-0.021987453
158	0x3d27d118	0.04097089
159	0xbb74611f	-0.0037289334
160	0x3d0812df	0.033221122
161	0xbc9db6d6	-0.019252222
162	0xbd0371b0	-0.032090843
163	0x3bc413b2	0.005983793
164	0x3bbe4ebd	0.005807726
165	0xbcb19d66	-0.021681499
166	0xbc6d505d	-0.014484492
167	0xbc72a095	-0.014808794
168	0x3c9ec85b	0.019382646
169	0x3a7bcba7	0.00096052367
170	0x3d00b2ca	0.031420507
171	0xbcfb79c9	-0.03069772
172	0xbc63ddee	-0.013907893
173	0xbd2976d3	-0.041373085
174	0xbcf660fe	-0.030075546
175	0x3c69ce2d	0.014270348
176	0xbc910cea	-0.017706353
177	0xbabe196d	-0.0014503427
178	0x3d1c505c	0.038162574
179	0x3c9ad7dc	0.018901758
180	0xbc148d97	-0.009066961
181	0x3d02312c	0.031785175
182	0x3c877dbe	0.01653945
183	0xbc38bf55	-0.011276086
184	0x3c663fa1	0.014053256
185	0xbcc988ef	-0.024601428
186	0xbd219492	-0.03944833
187	0xbba5476e	-0.0050439155
188	0xbb8e0bfc	-0.0043349247
189	0x3c3dd04c	0.011585306
190	0x3d01b087	0.03166249
191	0x3d113247	0.03544834
192	0xbc4608ec	-0.012087088
193	0x3c8d18e1	0.017223777
194	0xbc257237	-0.010098032
195	0xbccc3c58	-0.024931118
196	0xbc234c8b	-0.00996698
197	0x3afa0fb0	0.0019078162
198	0x3cabd8c7	0.02097739
199	0xbc805b89	-0.015668647
200	0x3be10ee0	0.0068682283
201	0xbce0e96f	-0.02745506
202	0x3d265876	0.040611707
203	0x3d0c226c	0.034212515
204	0x3cd9b04b	0.02657332
205	0x3b099407	0.0020992772
206	0x3a92d878	0.0011203429
207	0x3ba702a1	0.005096749
208	0x3d16872a	0.036749996
209	0x3d27ce19	0.040968034
210	0x3d17e3f9	0.037082646
211	0x3cba8f75	0.022773484
212	0x3d032a35	0.032022674
213	0xbce69b0c	-0.028150104
214	0xbc17e0ce	-0.009269906
215	0xbcdcc7a7	-0.02695067
216	0x3d136610	0.035986006
217	0xbd200ba4	-0.0390736
218	0xbc162094	-0.009163041
219	0xbc9e138b	-0.019296428
220	0x3d1de413	0.038547587
221	0xbc7efdfd	-0.015563485
222	0xbd261905	-0.040551204
223	0xbc92d920	-0.017925799
224	0x3b3a1d88	0.002839895
225	0x3b2ea326	0.0026647537
226	0x3c90736b	0.01763316
227	0x3c034feb	0.008014659
228	0xbd1396d9	-0.03603253
229	0xbd1a9bf8	-0.0377464
230	0x3c7614de	0.015019624
231	0x3cbcb102	0.023033623
232	0xbd1a1496	-0.03761729
233	0x3b1030be	0.002200171
234	0xbcb39195	-0.021920005
235	0xbcc364b4	-0.02385173
236	0x3d10e2a9	0.03537241
237	0xbd228b13	-0.039683413
238	0xbca3154e	-0.01990762
239	0x3c851ba3	0.01624853
240	0xbb4f9b68	-0.0031678323
241	0x3c5d519e	0.013508229
242	0x3c4e69fb	0.01259851
243	0xbcfeaf4c	-0.031089447
244	0x3d0b32a6	0.03398385
245	0xbcce2cbd	-0.025167817
246	0x3ca00627	0.019534184
247	0xbbc850aa	-0.0061131315
248	0x3cb9202f	0.022598354
249	0x3c173773	0.009229529
250	0x3cf8c1eb	0.030365905
251	0xbcbf6996	-0.023365777
252	0xbd0bb663	-0.034109484
253	0x3cea1fce	0.028579619
254	0xbb351628	-0.0027631614
255	0xbc3f718a	-0.011684785

conv3.0.bias f4 [64]
0	0x3d1e7043	0.03868128
1	0x3bac64a0	0.005261019
2	0xbc3a9cc1	-0.011389912
3	0x3c24c3c1	0.010056437
4	0xbcebebd5	-0.028798977
5	0x3cb86145	0.02250732
6	0xbcc54b7a	-0.024083842
7	0xbc69d1ad	-0.014271182
8	0x3d128b50	0.03577739
9	0xbc532b91	-0.012888805
10	0xbcffc1ba	-0.031220306
11	0x3d088733	0.03333206
12	0x3c0f3c5f	0.008742421
13	0xbd0a969f	-0.03383505
14	0x3b8c5551	0.0042826314
15	0xbb09722b	-0.002097259
16	0x3bcc6c2c	0.006238481
17	0x3cddcbf5	0.027074793
18	0x3c0d4307	0.008621938
19	0xbd007628	-0.031362683
20	0x3d0e3b0c	0.03472428
21	0xbd1276a8	-0.03575769
22	0x3d1a8286	0.037722133
23	0xbd281bd2	-0.041042157
24	0x3d09fe23	0.03368963
25	0x3ca22433	0.019792652
26	0xbc99bcbb	-0.018766752
27	0x3cf7dd41	0.03025687
28	0x3b0a52a8	0.0021106396
29	0x3d0ba6b1	0.034094516
30	0x3c62e87b	0.013849373
31	0x3c25788d	0.010099542
32	0xbc856b83	-0.016286617
33	0xbc67d77d	-0.0141504975
34	0x3d1db1e9	0.038499746
35	0x3d1f728a	0.038927592
36	0xbcf2e969	-0.029652314
37	0x3c86f300	0.016473293
38	0xbc3b8df5	-0.011447419
39	0xbcd9d274	-0.02658961
40	0x3bcb465b	0.0062034554
41	0x3d29513e	0.041337244
42	0xbcf362de	-0.02971023
43	0xbcc507ca	-0.024051566
44	0xbc94ed02	-0.01817942
45	0xbcd2164e	-0.025645401
46	0xbc65da99	-0.0140291685
47	0x3bcce5e2	0.00625299
48	0xba3b675e	-0.0007148887
49	0x3ca30476	0.019899588
50	0xbd12fc5f	-0.03588521
51	0x3d29a385	0.04141571
52	0x3cf4d038	0.029884443
53	0x3d11ef2e	0.03562849
54	0xbb26e787	-0.002546759
55	0xbcc06d9f	-0.023489771
56	0x3cf34312	0.029695068
57	0xbcfb524b	-0.030678889
58	0xbc9266da	-0.01787131
59	0xbb0cf594	-0.002150868
60	0x3c71b434	0.014752436
61	0xbccb5ca0	-0.02482444
62	0x3b743e2e	0.0037268507
63	0xbcdefce1	-0.027220191

fc1.0.weight f4 [80, 970]
0	0xbc6d672e	-0.014489932
1	0xbcb217b1	-0.021739813
2	0xbc4110ed	-0.011783821
3	0x3cc22af0	0.023702115
4	0x3c982ef1	0.01857707
5	0x3c81cb94	0.015844144
6	0x3b7a9580	0.0038236082
7	0x3c33338f	0.0109375855
8	0x3cbb17a8	0.022838429
9	0x3cde7734	0.02715645
10	0xbb56dc1f	-0.003278501
11	0xbc962292	-0.018327031
12	0x3c14f665	0.009091948
13	0xbc884217	-0.016633077
14	0x3bee74f2	0.0072771246
15	0x3762fd51	1.35296295e-05
16	0x3c88c2e3	0.016694492
17	0xbc82eaa6	-0.01598103
18	0x3baa3781	0.005194605
19	0xbac02160	-0.0014658384
20	0x3c76abb6	0.0150555875
21	0x3cbae022	0.022811953
22	0x3cc22ed3	0.023703968
23	0xbc82d5d8	-0.01597111
24	0x3aa7fcf3	0.0012816474
25	0xbc5bdc3c	-0.013419207
26	0xbd006593	-0.03134687
27	0x3cbe8212	0.023255382
28	0x3ceba744	0.028766282
29	0x3d02b794	0.031913355
30	0x3c22b519	0.009930872
31	0xbc3e2e2a	-0.011607686
32	0x3bd400de	0.00646983
33	0xbc17d591	-0.009267227
34	0x3cfc9aa9	0.030835466
35	0xbcda8cf7	-0.026678545
36	0xbc96892f	-0.018375961
37	0x3cfbb99b	0.030728152
38	0x3c95ba6b	0.018277368
39	0x3c7b75f5	0.015347947
40	0x3ba37ea2	0.004989461
41	0xba8c5a3f	-0.0010708048
42	0x3cab58a9	0.0209163
43	0xbc07bba3	-0.008284482
44	0x3c8bfe1b	0.01708894
45	0xbc077f31	-0.008270071
46	0x3aa1089b	0.001228589
47	0x3cbf8a9c	0.023381524
48	0xbbe328d5	-0.006932358
49	0xbce11558	-0.027475998
50	0xbc9e74f2	-0.019342873
51	0xbcab2145	-0.020889888
52	0x3c489403	0.01224232
53	0xbc89fd18	-0.016844317
54	0xbc977d57	-0.018492384
55	0x3b5bb8ad	0.0033526823
56	0x3d038515	0.03210934
57	0xbcb6253b	-0.02223455
58	0x3cbe8409	0.023256319
59	0xbb90e2bc	-0.00442156
60	0x3cebb775	0.028774003
61	0xbce0b9de	-0.027432378
62	0x3c9abfac	0.018890224
63	0xbce38b1f	-0.027776299
64	0x3cdb4744	0.02676738
65	0x3cc884ec	0.024477445
66	0x3cd82188	0.026383176
67	0x3cc4f67a	0.02404331
68	0x3c18d17b	0.009327288
69	0x3cd95cd6	0.026533525
70	0xbc98595b	-0.018597296
71	0x3bc7099c	0.0060741436
72	0xbc6aac56	-0.014323315
73	0x3c0c22c5	0.008553212
74	0x3bfc04d2	0.0076910043
75	0xb8d42c43	-0.00010117192
76	0xbc3b2ad8	-0.011423789
77	0xbcfea3b7	-0.031083925
78	0xbd01ba99	-0.031672094
79	0xbc683101	-0.01417184
80	0x3c1d4462	0.009598823
81	0xbb94284b	-0.004521405
82	0x3c8d08c9	0.017216103
83	0x3c1dddd1	0.009635405
84	0x3c9d8818	0.019229934
85	0xbc83c1b0	-0.016083568
86	0x3cb6906d	0.022285664
87	0x3bd3991b	0.0064574606
88	0xbcfdb5b6	-0.030970436
89	0xbc9a6aab	-0.018849691
90	0x3cd1ae9e	0.02559596
91	0xbc9240dc	-0.017853193
92	0x3c27f63c	0.010251578
93	0x3c69f4c8	0.014279552
94	0x3c06c68b	0.008226047
95	0x3cf5f48a	0.030023832
96	0xbbde87cc	-0.0067910906
97	0xbce6255d	-0.028093988
98	0xbcfb0e66	-0.030646514
99	0xbcde43c3	-0.02713192
100	0xbc1a6196	-0.00942268
101	0xbcd9c0d2	-0.026581202
102	0x3cfe9528	0.031076983
103	0xbc13cde2	-0.009021254
104	0x3c74b271	0.014935122
105	0xbccc7ba4	-0.0249613
106	0x3c5098ee	0.012731774
107	0xbbcf3c08	-0.006324295
108	0xbc5f4ac6	-0.013628667
109	0x3cabcfea	0.020973165
110	0x39ca0e00	0.00038538873
111	0x3cb17129	0.021660404
112	0xbcd1c5e1	-0.025607051
113	0x3bcfd070	0.0063419864
114	0x3caa8c81	0.02081895
115	0xbcb171aa	-0.021660645
116	0xbc5706e6	-0.013124203
117	0xbc252d69	-0.010081627
118	0xbc0ebfd0	-0.008712724
119	0xbbbfba8f	-0.005851097
120	0x3c2f54d0	0.010701373
121	0x3c1a9f68	0.0094374195
122	0x3c474d38	0.0121644065
123	0xbb9ac6c6	-0.0047234027
124	0xbc7f625f	-0.015587418
125	0x3c90b528	0.017664507
126	0x3bdd2643	0.006748946
127	0xbcc06e78	-0.023490176
128	0x3ca4e11b	0.02012687
129	0x3cfb5ba8	0.030683354
130	0x3bc00d38	0.005860951
131	0xbc9a1e95	-0.01881341
132	0xbc6b9ce4	-0.014380667
133	0xbca8ca0e	-0.02060416
134	0xbc024617	-0.007951281
135	0xbc9f9cfd	-0.019484038
136	0xbc910a04	-0.017704971
137	0xbcc4010c	-0.02392628
138	0xbc617f19	-0.013763213
139	0x3cd7c53f	0.026339171
140	0xbc5af3d2	-0.013363795
141	0xbc862761	-0.0163762
142	0x3c33d9a8	0.010977186
143	0x3cc86565	0.024462411
144	0x3c688e0d	0.014194024
145	0xbbde07ef	-0.006775848
146	0x3c37c338	0.011215977
147	0xbc95d8c4	-0.018291838
148	0x3bcb93d2	0.00621269
149	0x3931095a	0.00016883519
150	0xba7cf5bb	-0.0009649654
151	0x3c83c823	0.016086644
152	0x3cb021e5	0.021500537
153	0xbb8b5b5a	-0.0042528333
154	0xbca97688	-0.020686403
155	0xbc4d50ac	-0.012531441
156	0x3cd5b762	0.02608842
157	0x3cb06a53	0.021535074
158	0x3b438988	0.0029836614
159	0x3ce6fa55	0.02819554
160	0x3c53996c	0.012914997
161	0xbccb8d05	-0.024847517
162	0xba9a20f0	-0.0011759084
163	0xbc5abca4	-0.0133506395
164	0xbc8abd07	-0.016935838
165	0xbbb74de0	-0.005594
166	0x3b357d98	0.0027693268
167	0x3cf68cc2	0.030096415
168	0x3c199380	0.009373546
169	0xbcad2480	-0.021135569
170	0x3c8e44ce	0.017366793
171	0x3c6b9a20	0.014380008
172	0xbbafa1ca	-0.005359863
173	0x3c32237a	0.010872716
174	0xba63b77d	-0.00086867047
175	0x3c39887f	0.011324047
176	0xbce31f3e	-0.027724858
177	0x3b3209fe	0.00271666
178	0xbbea3ac4	-0.0071481187
179	0xbcd06189	-0.025437133
180	0xbcef1a77	-0.029187424
181	0x3cc43eda	0.023955751
182	0xbcba73f3	-0.022760367
183	0xbbde245b	-0.0067792363
184	0xbcd6cd2a	-0.026220877
185	0x3c340f03	0.010989907
186	0xbcfccc2f	-0.030859081
187	0xbca6462d	-0.020297134
188	0xbc61f215	-0.013790627
189	0xbcb47db8	-0.022032604
190	0x3ad5c734	0.0016309978
191	0x3cd5f847	0.026119364
192	0x3a39ce24	0.0007087907
193	0x3c9a417a	0.01883005
194	0x3d007e7a	0.031370617
195	0xbbce66c6	-0.0062988726
196	0x3bc26325	0.005932229
197	0xbcd64cb4	-0.026159622
198	0x3a76476b	0.00093947974
199	0xbc304e22	-0.010760816
200	0xbce2c87e	-0.027683493
201	0x3ce4331a	0.027856398
202	0xbceb5c23	-0.028730458
203	0xbcadac5c	-0.021200351
204	0xbc6a1855	-0.014288028
205	0x3a8e24ce	0.0010844709
206	0xbc688df0	-0.014193997
207	0xbc9db5a5	-0.019251654
208	0xbc95e384	-0.018296964
209	0x3acefe39	0.0015792317
210	0xbcd572af	-0.026055662
211	0x3b434c79	0.002980022
212	0x3c377942	0.011198344
213	0x3c4b6777	0.012414805
214	0xbb0f4297	-0.002185976
215	0x3c997022	0.018730227
216	0xbcd989c6	-0.026554953
217	0x3cab6694	0.020922936
218	0x3c57bb4d	0.013167215
219	0x3afd3a34	0.0019319714
220	0x3c98dc33	0.018659687
221	0x3bd37983	0.0064536943
222	0xbc0b3e92	-0.008498805
223	0xbc3826de	-0.011239735
224	0x3c8491f5	0.016182879
225	0x3c06e06c	0.008232217
226	0x3c1b2538	0.009469323
227	0x3ca5d946	0.020245206
228	0xbc47b721	-0.012189657
229	0x3cbb663f	0.022875903
230	0xbc2ca3f6	-0.010537138
231	0xbb231aa6	-0.002488771
232	0xbccfea47	-0.025380267
233	0xbca36f48	-0.019950524
234	0x3ce1ea8d	0.027577663
235	0xbcdefdfc	-0.027220719
236	0xbc88af21	-0.01668507
237	0x3c733d45	0.014846151
238	0x3c9b388a	0.018947858
239	0x3cd90aed	0.026494468
240	0xbbcf9838	-0.0063352846
241	0x3ced7650	0.02898708
242	0x3cc1c0a6	0.023651432
243	0x3cc261d6	0.023728292
244	0xbc4b153c	-0.012395199
245	0xbcd6448e	-0.026155736
246	0x3c285cba	0.010276014
247	0xbc183cec	-0.009291869
248	0x3cf6782f	0.030086605
249	0x3cb72c44	0.022359975
250	0xbb1b9f00	-0.0023745894
251	0x3b937f8b	0.0045012883
252	0x3cc3b97b	0.023892155
253	0x391475d9	0.00014158282
254	0x3c8190f7	0.015816195
255	0xbb363ca0	-0.0027807131

fc1.0.bias f4 [80]
0	0x3cf9822e	0.030457582
1	0x3cbd2f3e	0.023093816
2	0xbcd1f9a5	-0.025631735
3	0x3c574647	0.013139314
4	0x3c2181e1	0.009857626
5	0xbca7949f	-0.02045661
6	0xbcb30823	-0.021854466
7	0xbcb2a473	-0.021806931
8	0xbceedd0b	-0.029158136
9	0xbcb24bf0	-0.021764725
10	0xbc3af8b3	-0.011411834
11	0xbc3da426	-0.011574781
12	0xbca6d1e0	-0.020363748
13	0x3cecf0a9	0.02892335
14	0x3c18d6f2	0.009328591
15	0x3b807952	0.0039207125
16	0xbcff0fbd	-0.031135434
17	0xbc5aa8fd	-0.013345954
18	0xbc35c60d	-0.011094582
19	0xbc6278fe	-0.013822792
20	0xbcb18d37	-0.021673782
21	0x3b8c51ed	0.0042822273
22	0xbc56bdb8	-0.013106756
23	0x3bcf5a07	0.006327871
24	0xbc673880	-0.014112592
25	0x3b3cbc24	0.0028798664
26	0x3ce2c62a	0.027682383
27	0x3a1f0721	0.0006066431
28	0x3bad5dcb	0.005290722
29	0xbbf065b5	-0.007336343
30	0xbc03da9a	-0.008047724
31	0xbc7d4784	-0.015458945
32	0xbce75269	-0.028237538
33	0xbcea60aa	-0.028610546
34	0xbd030845	-0.03199031
35	0xbcf710d6	-0.030159395
36	0x3d01aa2c	0.03165643
37	0xbc9e33f3	-0.01931188
38	0x3c258f02	0.0101048965
39	0xbc956dc5	-0.018240819
40	0xbcf3da06	-0.029767048
41	0xbbeb85d7	-0.007187586
42	0xbbed5e50	-0.007243909
43	0xbc404464	-0.011735056
44	0xbb9b19a2	-0.0047332803
45	0x3c048e6d	0.008090598
46	0x3c83d51c	0.01609283
47	0x3b90cd3f	0.0044189985
48	0x3c112c37	0.008860639
49	0x3c7db078	0.015483968
50	0x3c4d3506	0.012524849
51	0x3c62e5f6	0.013848772
52	0x3cefc5eb	0.02926918
53	0x3a595edf	0.000829203
54	0xbc919080	-0.017769098
55	0xbbf0c7aa	-0.0073480206
56	0xbcfc42ce	-0.030793574
57	0x3cb172aa	0.021661121
58	0xbd02a07e	-0.03189134
59	0xbd01e8d1	-0.03171617
60	0xbcb95176	-0.022621851
61	0xbc3cd8de	-0.011526315
62	0x3ce3057c	0.027712576
63	0x3c61521e	0.013752488
64	0xbbb4d562	-0.0055186013
65	0x3cc24b55	0.023717562
66	0xbc7ba33c	-0.015358742
67	0x3c2c108d	0.010501993
68	0xbc7cf568	-0.015439369
69	0xbc2919d0	-0.010321096
70	0xbcaa37a3	-0.020778483
71	0x3bfed6ec	0.0077770855
72	0x3ccff77f	0.02538657
73	0x3c2552c4	0.010090534
74	0x3ba1bd06	0.0049358634
75	0xbc5f1a4e	-0.013617111
76	0x3cbb7f37	0.02288781
77	0x3c6e862a	0.014558354
78	0x3a5762ac	0.00082163024
79	0x3bd1adcb	0.0063988916

out.weight f4 [40, 80]
0	0xbd9601aa	-0.07324536
1	0x3d283138	0.041062564
2	0x3d6f3784	0.058402553
3	0x3a92210d	0.0011148766
4	0xbd757dd3	-0.05993445
5	0xbd6c1762	-0.057639487
6	0xbc8c26a6	-0.017108273
7	0x3c8b1054	0.01697556
8	0xbddfb8c5	-0.10923914
9	0x3d52a318	0.05142507
10	0x3c39568b	0.011312137
11	0xbdd4b7df	-0.10386633
12	0x3d13b456	0.036060654
13	0xbdaf5536	-0.085611746
14	0x3c8675d9	0.016413616
15	0x3c11a4a4	0.008889351
16	0x3de3e305	0.11127285
17	0x3d22594a	0.039635934
18	0xbd85e867	-0.06538468
19	0x3cd3dc88	0.025861993
20	0xbde37a03	-0.11107256
21	0xbd1b0fb9	-0.03785679
22	0xbd007997	-0.031365957
23	0x3dd69c6c	0.10479054
24	0x3dc32ef1	0.09530438
25	0x3ddb13d9	0.10697145
26	0xbd243618	-0.04009065
27	0x3de157b7	0.110030584
28	0xbc45df5e	-0.012077181
29	0xbc214ff0	-0.009845719
30	0xbdd8eefe	-0.10592459
31	0x3ca9c140	0.020722032
32	0xbd1a9c5e	-0.03774678
33	0xbd102a3e	-0.035196535
34	0x3c867c58	0.016416714
35	0xbd8275a8	-0.063700974
36	0x3daac666	0.08338623
37	0x3d893d88	0.06701189
38	0xbd1431de	-0.03618037
39	0xbd9372c0	-0.07199621
40	0xbdbed594	-0.093180805
41	0x3c3d77d2	0.011564212
42	0x3d90e2b2	0.07074489
43	0xbccf6929	-0.025318699
44	0x3d03e634	0.03220196
45	0xbd080f54	-0.033217743
46	0x3cb01b48	0.021497384
47	0x3b70104a	0.0036630803
48	0x3d3e2e72	0.046431012
49	0xbd9adf95	-0.07562176
50	0x3d0e8bdd	0.034801353
51	0xbd1bf3d6	-0.038074337
52	0x3d49699c	0.049172983
53	0x3a083e50	0.00051972736
54	0x3ce39231	0.02777967
55	0x3dad3b10	0.08458531
56	0xbdb12262	-0.08649136
57	0xbda58242	-0.08081485
58	0x3d4b12c7	0.049578454
59	0xbd980516	-0.07422845
60	0xbd682820	-0.05667889
61	0x3dcaca84	0.09901908
62	0x3ce06bef	0.027395217
63	0x3d8481bc	0.06470057
64	0xbcbed7e0	-0.023296297
65	0x3cf2d602	0.029643063
66	0x3dbf3057	0.09335392
67	0x3d8f8c77	0.070092134
68	0x3c8202f9	0.015870558
69	0x3da9f487	0.08298593
70	0x3d1413b2	0.036151595
71	0x3db68416	0.08911912
72	0xbca76288	-0.020432726
73	0xbda0b00d	-0.07846079
74	0xbbb4d199	-0.00551815
75	0x3d48ffdd	0.049072135
76	0x3c5ddee8	0.0135419145
77	0xbd9bd6a7	-0.07609301
78	0xbd1e78e9	-0.038689528
79	0xbdcc8965	-0.099871434
80	0x3d6fd131	0.05854911
81	0xbd857ac1	-0.06517554
82	0x3dd3be80	0.10339069
83	0xbdba589e	-0.09098934
84	0x3c87516b	0.016518315
85	0xbd1ba6cb	-0.038000863
86	0x3d041c40	0.032253504
87	0x3dba15a8	0.09086162
88	0xbd9cb1ab	-0.07651075
89	0xbd05c10c	-0.032654807
90	0xbcfcef2c	-0.030875765
91	0xbd727317	-0.05919179
92	0xbda98e97	-0.0827915
93	0x3d115261	0.035478953
94	0x3d6eaf54	0.058272675
95	0x3dadd3ca	0.08487661
96	0xbd568ad3	-0.052378487
97	0x3d7a0e66	0.061048888
98	0xbdd6edce	-0.104945764
99	0xbd8ef3d8	-0.06980103
100	0xbd44d563	-0.048055064
101	0xbbb5da00	-0.0055496693
102	0xbd8e3a64	-0.06944731
103	0xbb96da20	-0.0046036392
104	0xbd3f12e1	-0.046648864
105	0x3d9ef37c	0.07761285
106	0x3de405ac	0.11133894
107	0x38702967	5.7259018e-05
108	0x3dd7dc18	0.105400264
109	0xbd7a751c	-0.06114684
110	0xbcc8b451	-0.024500044
111	0xbd26c2a3	-0.040712964
112	0x3db3a5f4	0.087718874
113	0xbd8d6bef	-0.06905352
114	0xbdbaab95	-0.09114758
115	0x3dcef81a	0.10105915
116	0xbb808db5	-0.003923143
117	0x3da9951e	0.08280395
118	0xbda43f50	-0.080198884
119	0x3d9ec512	0.07752432
120	0x3d378e51	0.044813458
121	0x3d1db041	0.038498167
122	0xbd44bb15	-0.048029978
123	0x3d4f82ae	0.050661735
124	0xbdbf5a78	-0.093434274
125	0x3cf85670	0.030314654
126	0x3db0b29c	0.08627817
127	0xbd839dda	-0.06426592
128	0x3c8d8c6c	0.017278872
129	0x3c15b092	0.009136336
130	0xbde09a71	-0.10966957
131	0xbdb11cec	-0.086480945
132	0xbd22ccdc	-0.03974615
133	0x3dc8177d	0.09770105
134	0x3c3b2a20	0.011423618
135	0xbc4157e0	-0.011800736
136	0xbd59e925	-0.05320086
137	0x3d89bcff	0.06725501
138	0xbd93e98a	-0.072222784
139	0xbddb8e91	-0.10720552
140	0xbd2370fd	-0.039902676
141	0x3ccb0948	0.0247847
142	0xbd9d9fa9	-0.076964684
143	0x3d9adf8b	0.07562169
144	0xbd243fe1	-0.040099982
145	0xbd5fcdb4	-0.054639533
146	0xbddd0eae	-0.107938156
147	0x3ccd744e	0.025079872
148	0x3d32b6c2	0.043631323
149	0x3d4c06d7	0.04981121
150	0xbd902834	-0.07038918
151	0x3c867888	0.016414896
152	0x3d038ec0	0.03211856
153	0x3d1b6469	0.037937555
154	0xbde155d6	-0.110027
155	0x3da3f3c3	0.08005478
156	0x3db5cfff	0.08877563
157	0xbd6b60e3	-0.057465445
158	0xbda4e75f	-0.08051943
159	0x3d92add1	0.07162059
160	0x3cd436b9	0.025905
161	0x3d61bd56	0.055112205
162	0x3da6b6eb	0.081403576
163	0x3b99f880	0.004698813
164	0xbca3b514	-0.019983806
165	0xbd3a0398	-0.045413584
166	0x3da2ddd7	0.07952469
167	0xbdb46903	-0.08809092
168	0x3d6acccb	0.057324212
169	0xbd8e70da	-0.069551185
170	0xbcfae62d	-0.030627334
171	0xbda38eec	-0.079862446
172	0x3d786384	0.06064178
173	0xbde2a981	-0.110674866
174	0xbd91802e	-0.071045265
175	0xbdc41b2f	-0.09575497
176	0xbd5aa6d1	-0.053381745
177	0x3c3a555f	0.011372893
178	0xbd803700	-0.062604904
179	0xbdd14411	-0.10218061
180	0xbd823ef7	-0.06359666
181	0xbd7ba022	-0.06143201
182	0x3c3dd732	0.011586951
183	0x3ccf3838	0.025295362
184	0xbd6e18a7	-0.05812898
185	0xbdc09f8a	-0.0940543
186	0xbd3d9f46	-0.046294473
187	0x3ab6798c	0.0013921722
188	0x3cfa8b21	0.03058392
189	0x3da4a2f2	0.08038892
190	0xbd883096	-0.06649892
191	0xbb92b76d	-0.0044774325
192	0x3d163961	0.036675815
193	0x3d2329fc	0.03983496
194	0xbd81c27e	-0.063359246
195	0xbda37ee4	-0.07983187
196	0x3d802982	0.06257917
197	0xbd355683	-0.044271957
198	0xbce2b6cc	-0.027675055
199	0x3b839d61	0.0040165638
200	0x3da59a7d	0.08086107
201	0xbdacc5c2	-0.08436157
202	0x3d3d5a2f	0.046228584
203	0xbd073555	-0.033009846
204	0xbcf3504c	-0.029701374
205	0x3c6bac7f	0.014384388
206	0x3d01dfeb	0.031707685
207	0xbd2a91ae	-0.041642837
208	0x3d1eb406	0.038745902
209	0xbdbd9335	-0.09256593
210	0x3c27c625	0.010240112
211	0xbd07fabd	-0.033198107
212	0x3d860644	0.06544164
213	0x3c52f994	0.012876887
214	0xbd9dc361	-0.07703281
215	0xbddcaa4b	-0.10774668
216	0xbafbfe0c	-0.0019225492
217	0xbdb00ec1	-0.08596564
218	0x3d977382	0.07395078
219	0x3dc0fe8f	0.09423553
220	0xbd9bbac0	-0.07603979
221	0xbda93c20	-0.08263421
222	0x3c9df231	0.019280525
223	0xbdc0a6e6	-0.09406833
224	0x3db60f90	0.08889687
225	0x3c9044b7	0.01761089
226	0xbdbfaf2f	-0.093595855
227	0xbcb68bc4	-0.022283442
228	0x3d4b1db4	0.049588874
229	0xbd723adc	-0.059138164
230	0x3dc8f7a8	0.09812862
231	0x3ce46fa0	0.027885258
232	0x3d952118	0.07281703
233	0xbdb7cc61	-0.08974529
234	0xbdc68b01	-0.09694482
235	0x3c9f29f3	0.019429183
236	0xbc6cd5c8	-0.014455266
237	0x3c5a7c4e	0.013335301
238	0x3d5c9812	0.053855963
239	0x3d616aa8	0.055033356
240	0x3d8bd050	0.06826842
241	0xbcfe03ee	-0.031007733
242	0xbbc424f1	-0.005985849
243	0x3dab7aa3	0.083730005
244	0x3d907ebc	0.07055423
245	0x3dc366b2	0.09541072
246	0x3dc50680	0.096203804
247	0x3d696611	0.056982104
248	0x3addb667	0.0016915322
249	0x3dbf01b1	0.093264945
250	0xbd8b0b3c	-0.06789252
251	0x3d4e7d64	0.05041255
252	0x3c98ad0f	0.018637208
253	0xbd8ec6a0	-0.069714785
254	0x3d099e8b	0.033598464
255	0x3d664f35	0.05622788

out.bias f4 [40]
0	0xbd36e144	-0.044648424
1	0x3dc587d7	0.0964505
2	0x3cbe5fb1	0.023238989
3	0xbd367b38	-0.044551104
4	0xbc5946ef	-0.013261541
5	0xbd32c261	-0.043642405
6	0x3dc15c86	0.094414756
7	0xbdba3995	-0.09093014
8	0x3cf5a1e4	0.029984422
9	0xbd82fbe7	-0.06395703
10	0x3db4824f	0.08813917
11	0x3d0f5ca3	0.035000455
12	0x3c2f477c	0.010698196
13	0xbca4cee8	-0.020118192
14	0x3d95d9af	0.073169105
15	0x3dc93b72	0.098257914
16	0x3d8b69e4	0.068073064
17	0xbd9d22cb	-0.07672652
18	0xbd050079	-0.032471154
19	0xbd60a125	-0.05484118
20	0x3d9c092a	0.076189354
21	0xbccddfcd	-0.02513113
22	0xbd4b6331	-0.049655143
23	0x3b9083ff	0.0044102664
24	0xbd0143b0	-0.031558692
25	0xbd79e70d	-0.061011363
26	0xbc7c862e	-0.01541285
27	0xbbe8bcc6	-0.0071025817
28	0xbba6ed9a	-0.0050942423
29	0xbdc96ca3	-0.09835174
30	0xbc5b355a	-0.013379419
31	0xbcdfdfc2	-0.027328376
32	0xbcb1ce7b	-0.021704903
33	0x3d2c5331	0.042071525
34	0xbdaa8188	-0.083254874
35	0xbd196daf	-0.037458118
36	0x3cfb1aad	0.030652368
37	0x3d526e22	0.051374562
38	0xbc9db3b7	-0.019250734
39	0x3dc51a26	0.09624128
