1300params3.pth (torch, 607751 bytes, 10 tensors)

conv1.0.weight f4 [32, 4, 2, 2]
00000000: 424f c5bd b696 2b3e 496f bf3d 4a10 393e
00000010: 5670 6cbe 954c 4e3d ad6b 473e b825 fdbb
00000020: d021 5dbe 03cc 65bd ce33 b63d 5288 bebd
00000030: 232a 83bd 6f76 a4bd fcf3 dc3c 0912 593b
00000040: 803b eabd 6f3c 593e f49a 8d3d 9054 a63d
00000050: 1083 76be 7fc6 28be 505f 13be b7ba 23be
00000060: 1926 fc3d d663 5d3e 7aff a5bd 6a60 5e3d
00000070: 0ab5 2ebe a3cc 023e 1183 0ebc 3ed4 db38
00000080: 1ef3 fabc 77fe 513e 6716 2cbe 3c51 5a3e
00000090: a2a4 983c c24b 5f3d e043 b13d 8525 1a3e
000000a0: da12 4dbd d683 f2bd 4d18 6a3e 541a 1a3d
000000b0: 0133 0c3e 2c02 34bd c3e9 42be b1df 92bd
000000c0: b343 49be 0b2d 7c3e 93e7 e43b b1aa 473e
000000d0: c4e2 573e 9103 0fbd 8d98 813d aee3 dfbc
000000e0: 880e 66be 39ea 153e 2fcc b1bd 619b 5b3e
000000f0: c0a7 e63d ea45 95bc 36d8 243e 9787 d63d
00000100: ec85 623e 3bde ca3a ca5e bdbd db0d 2dbd
00000110: eb05 6e3e c133 493e fb60 4c3e bed0 20bd
00000120: 6826 b3bd a542 9e3c 1032 1bbe b975 c3bd
00000130: 412c 7e3e 0539 e83c 1436 e23d 5a5c a2bd
00000140: 210e 9e3d 48a9 b83d 568a 30be 75a5 763e
00000150: 4c5f e3bc 1092 18be e808 b2bd 566d 4e3e
00000160: c080 2abe ee30 6cbe 8f3e 78be e69a 543e
00000170: abb2 30bd 2732 dbbc b704 f1bd 9724 ca3d
00000180: 698d 4a3e 74f1 153e 35c0 293e bc0d 99bc
00000190: 6bff 873d d044 cabd 5575 403e d558 a2bd
000001a0: 494e aebd 9537 c03c 5e1b 3ebe 1dd6 1ebe
000001b0: 49f1 553e 11a8 c8bd d39e d7bd e70b ed3d
000001c0: 1230 88bc 0e6c 293d 4924 3e3e a58b a5bd
000001d0: db34 65bd 50bb 7dbe 284c 7a3d 87ac f5bd
000001e0: 820a 0ebe 844b 063e d88c 46bc 9e9a 4f3e
000001f0: e95a 19be eaa7 593e 38da 63bd 3e33 45bd
00000200: 71fc 38bd 9dbc 563e d871 c9bc 7489 5dbe
00000210: b147 11be b6cf 0abe 237f f5bc 5ed0 33be
00000220: d6f1 003d 95b4 ca3b 0792 ec3d 1942 4fbe
00000230: e1d1 7d3e 6528 463d aedb de3c 16e4 38be
00000240: 1f2a 2e3e d0ae 233e 4e6e c83d bc6c 1fbe
00000250: 4fd8 16be 74e5 323e a2ad 42be 15c3 003d
00000260: cca1 31bd 6bfe 463e edbe 65be 5174 dcbd
00000270: 87e4 85bd daf6 99bd 0478 3ebe fa6a c6bd
00000280: 285d 18be c54c 4c3e 09ed 12be fe4f d83b
00000290: 7470 7ebe 760a 04be 34cd 443e b395 54be
000002a0: 9b0a 30bd c5ef edbd 80b5 bcbc 6f32 3bbc
000002b0: d354 8abd 35b6 f0bd 7448 cb3d eff7 07bd
000002c0: 019c 7f3d 1395 54be d14a 32bd 09c9 bcbd
000002d0: a80b ed3d 1dbd c2bc 8c27 0dbe 78d7 71be
000002e0: 9dee a33c edb5 0dbe da69 56be 2a66 23be
000002f0: 8101 773e 4633 0abe a5ee a4bd 3c34 63be
00000300: 577e 46be ccc0 0bbe 5692 7ebe 8710 8e3d
00000310: 4282 1abd e881 d53d d18b abbd b116 02be
00000320: f794 07bd 4d36 323e 2de7 123e 943a 83bd
00000330: 4469 4d3d 9948 94bd de13 cf3b f170 3f3e
00000340: 35cb 0f3e 9c3e 0fbc 722b 953d cd99 7a3d
00000350: 2ac8 15be 3c58 5abd a80e 5a3e a715 ac3d
00000360: 9cd1 87bb 0273 733e 3ea2 90bd 3cf8 fabd
00000370: e34d e4bd 9a1d 173e 6d49 9e3d c318 233e
00000380: e9cb 1c3e 8636 cebd 6847 1bbd 0a49 3bbe
00000390: 7e8b 123e bd68 2b3e 8f1f 34be 7809 18be
000003a0: 9d14 f53c f335 963c 3e24 013e b0c7 e33d
000003b0: 01d5 54be 8b1e 063d 6e14 26bc 1e2c 183e
000003c0: ad1b 5e3e 701f 3a3e adb8 163e a1c4 19be
000003d0: 5a8b 15be b98b 30be 16fd 723e fda9 60be
000003e0: 6d10 0f3e 6924 543e afe2 7ebe 651a e33c
000003f0: b66e 17be 380e 5c3d 36c6 7e3d 4002 e3bd
-0.09634258 0.1675671 0.09347398 0.1807262 -0.23089728 0.050366003 0.19474669 -0.0077254437
-0.2159493 -0.056102764 0.088966 -0.09303345 -0.06404521 -0.08030402 0.02697181 0.0033122322
-0.1143713 0.2121446 0.069143206 0.08121598 -0.24073434 -0.1648197 -0.14391828 -0.15989195
0.12311954 0.21620116 -0.08105369 0.054291166 -0.17061248 0.12773375 -0.008698241 0.00010482267
-0.030633505 0.20507227 -0.16805421 0.21320051 0.01863319 0.054515608 0.08655524 0.15053375
-0.050066806 -0.11841552 0.22860833 0.037622765 0.13691331 -0.043947384 -0.19034486 -0.07171572
-0.19654731 0.24626558 0.0069856136 0.19498707 0.21082598 -0.03491551 0.06327925 -0.027330246
-0.2246648 0.1464013 -0.08681523 0.21445991 0.112624645 -0.018221814 0.16098103 0.104750805
0.221214 0.0015477607 -0.09246595 -0.04224954 0.23244445 0.19648649 0.1995887 -0.039261572
-0.0874756 0.019318888 -0.15155816 -0.09543938 0.24821569 0.028347502 0.11045471 -0.07927771
0.077175386 0.09016663 -0.17240271 0.24086554 -0.027755402 -0.14899468 -0.08693105 0.20158896
-0.16650677 -0.2306554 -0.24242614 0.20762214 -0.04313914 -0.026757313 -0.117684774 0.0987026
0.19780506 0.14642888 0.16577227 -0.018683307 0.06640514 -0.09876406 0.18794759 -0.079270996
-0.085110255 0.023464004 -0.18565127 -0.15511365 0.20892824 -0.09797681 -0.1052834 0.11574536
-0.016624484 0.041362815 0.18568529 -0.08083276 -0.05595861 -0.24778485 0.061107785 -0.119957976
-0.13871196 0.13114744 -0.012118541 0.20273826 -0.14976086 0.2125546 -0.05562803 -0.04814457
-0.045162622 0.20970388 -0.024590418 -0.21634465 -0.14187504 -0.13555798 -0.02996785 -0.17559955
0.031480633 0.006186078 0.1155129 -0.20240058 0.24787094 0.048378367 0.02720436 -0.18055758
0.17008255 0.15984654 0.09786664 -0.15568823 -0.14730953 0.17470342 -0.19011548 0.031436045
-0.043367192 0.1943299 -0.22436114 -0.10764373 -0.06537729 -0.07517786 -0.1860047 -0.09688373
-0.14879286 0.1995116 -0.14348234 0.0066013327 -0.24847585 -0.12894616 0.19218904 -0.2076023
-0.042978864 -0.11617998 -0.023035765 -0.0114255985 -0.0675446 -0.11753503 0.09925929 -0.033195432
0.062404636 -0.20759992 -0.04352838 -0.09218032 0.11574489 -0.023771817 -0.13784617 -0.23617351
0.02001124 -0.1383893 -0.20938817 -0.15956941 0.24121667 -0.13496122 -0.0805333 -0.22187895
-0.19384132 -0.13647765 -0.2486051 0.06936746 -0.03772188 0.10425168 -0.08376277 -0.12703969
-0.03310105 0.17403527 0.14345999 -0.06407657 0.050149217 -0.072404094 0.006319507 0.18695427
0.14042361 -0.008742955 0.07283677 0.061181832 -0.14627138 -0.053306803 0.21294653 0.08402567
-0.0041448604 0.23774341 -0.07062195 -0.12254378 -0.11147668 0.14757386 0.077288486 0.15927415
0.1531216 -0.10068993 -0.037909895 -0.18289581 0.14311025 0.16739173 -0.17590164 -0.14847362
0.029917056 0.018336272 0.12611482 0.11122072 -0.2078438 0.03274397 -0.010136707 0.1486058
0.21690245 0.18176055 0.14718886 -0.15016414 -0.1460394 -0.172408 0.23729357 -0.21939845
0.1397111 0.20717014 -0.2489116 0.027722547 -0.14788327 0.053724498 0.062200747 -0.110844135

conv1.0.bias f4 [32]
00000000: e22e 3c3d d0fb 40be 45c4 43be 4a98 66be
00000010: 3838 6ebe 707a 04be 0263 adbd b414 e43d
00000020: 5e6e 33be f9d8 c23c feb6 5c3e 898f 79bd
00000030: 40ee 0dbe 879a 593e 1d6a e8bd 14d8 c1bb
00000040: b43a 3abe 70eb e9bd 0df7 24bd 13c3 1cbe
00000050: f48d fdbc 8115 0b3e 1aab 783e 1608 95b7
00000060: fdbf c7bc 10b8 14be 49df bdbd 9486 3fbd
00000070: b2c6 413e 4afb 553e f7aa 2c3e 4bcc 693e
0.04594315 -0.18846059 -0.1911784 -0.22519031 -0.23263633 -0.12937331 -0.0846615 0.11136761
-0.1752257 0.023785101 0.21554181 -0.0609279 -0.13860416 0.21250354 -0.113483645 -0.005915651
-0.18186456 -0.11421859 -0.04027467 -0.1530879 -0.030951478 0.13582422 0.2428402 -1.776595e-05
-0.02438354 -0.1452334 -0.09271104 -0.046759203 0.18923452 0.2089664 0.16862093 0.22831838

conv2.0.weight f4 [64, 32, 4, 4]
00000000: 91c0 093d 8b18 053d 0f5e 283d 402c fabc
00000010: 7f63 013c 04ec 803c 36d5 203d 31ee 613c
00000020: 128e 1b3b 1f12 523c 16f2 333d 35c0 5a3b
00000030: 37c1 9e3c 1886 0bbd ed02 2c3c a6b6 093d
00000040: 89c5 0cbd 6f97 15bd e022 28bd 5811 babc
00000050: 6c52 00bd 0f8c 223d 1458 8d3c 993f e03c
00000060: 394d bbbc 4b7f e4bc e080 b4bc 910d f53b
00000070: 6948 16bd a5d1 9b3c d49f 6cba 4583 b2bc
00000080: debf 17bd 3480 61bb ac13 23bd 7f52 27bd
00000090: 3898 e5bc e16c bdbc 63e7 27bd d274 29bd
000000a0: 2425 023d f019 7d3c 1d66 e93c 3a48 99bc
000000b0: 88a6 04bd 4572 973b e783 0f3d 5a7d bcbc
000000c0: 38f6 6ebc b467 913c e2e1 8b3c 4927 fa3c
000000d0: ba0c 923c 96fa 84bc d5f5 c2bc f7fb 99bc
000000e0: 6d88 0b3d b71a 0e3d 9009 ecbc b513 173b
000000f0: ac1b 0dbd f1c2 93bc 74f1 7e3c a4ea b83c
00000100: a280 d43c d1ba 4c3c a3c8 70ba b94f d4bc
00000110: 41a5 cb3c d434 f33b 714f e0bc e074 da3c
00000120: f62c 053d b8a0 5e3c b71c 643a 1bd4 41bc
00000130: 4b81 1cbd 3940 1a3c 4bd4 aa3c 7ea6 ab3c
00000140: 5dda 43bc 1fa9 093d 1217 26bc 9ff7 b43c
00000150: 9100 83ba 2719 38bc 8f2c 5a3c 7911 123d
00000160: 4701 1a3d f45b 83bc 1f18 ccbc ce07 3ebc
00000170: 7c46 203d d21d e6bc 420d 02bc 5961 1cbd
00000180: 5108 4c3c ea8e dc3c 8698 f9bc 7f30 2e3d
00000190: dd5b 8cbc 2a28 303d 8553 e03c 3f41 a7bc
000001a0: 0366 86bc c8cd bebc d853 803c cb5d 0dbd
000001b0: 6501 a6bb 1010 513c e25d 73bc 8b4f 65ba
000001c0: 1a9a 29bd cb3a ef3b 255e 923c 556f a33b
000001d0: 667f 333d 418a 473c ed77 31bd ab63 2fbc
000001e0: fc38 9cbc 7775 e6bc ccd7 e4bc 2ffb 8cbb
000001f0: d99d 4cbc 3a27 bfbb 207a 083c 922c c93c
00000200: 4999 e83b c07c e7bc 91b0 e5bc cf7a 1a3d
00000210: d78c 06bd ab14 ec3c ecaf 0d3b 03a2 49bc
00000220: a7ff 30bd 6246 db3c 6f98 cdbc 06a8 3dbc
00000230: e017 113d cc59 7b3c d344 89bc 09df 41bc
00000240: 7d83 9bbc c86c 2d3d 550f 063d a505 e3bc
00000250: c038 803a 1d33 55bc d48c 223d 3088 64bc
00000260: 6808 2c3d a125 2fbd e549 fdbc 697f 09ba
00000270: 0b95 febc 2ba5 ec3c dcea 9dbc fdd6 8dbc
00000280: be3c 853c 3409 2dbd 85c0 de3c 06d7 313d
00000290: 1647 71bc 04ff e8bc 2cce 06bc faf8 1bbd
000002a0: 1f79 8abc 675c cbbc 150b f2bc 9318 0d3d
000002b0: baa4 0a3d ceee f8bc 0db5 cd3c a2f0 8f3c
000002c0: 6750 1e3d 1e76 a4bc 2801 34bd 8435 22bd
000002d0: 544c 073d a832 fc3c 2606 ebbb d7a4 a03c
000002e0: 4fd1 133d 5581 6fbc 7b3e 193d 1043 f9bc
000002f0: 00be ae3b cc17 983c 69f0 fb3c aa32 b33c
00000300: 4a5e 0a3c e84c cb3c 1ddf 1bbd 9b28 303d
00000310: ef2e babc b383 a53c 24eb 143c cac3 013d
00000320: 3710 bbbc e1fc 06ba 8cfd 013c 6d09 8f3c
00000330: 50cf c6ba 6efb 6cbc d212 c2bc ed85 3dbc
00000340: 9ae7 7f3c fe69 0a3d 687a 20bd b9ff cb3c
00000350: ece6 bd3c 45f4 323d 0fe4 58bc fdcf 3cbc
00000360: 5cd8 a43c fc23 a3bc 3b71 37bc 3eb5 103d
00000370: 465c 09bd ea55 a6bc 528d ff3c cdf7 95bc
00000380: 1320 b83c 5ca5 8fba 66f9 3b3b 1f5f 7abc
00000390: 287f e9bb 41da 4a3a e45c f13b 5934 c93c
000003a0: 43ad 3dbb 9fba 1abd eb0d e7bc d290 15bd
000003b0: 8616 083b 02c4 02bc 1423 d73c eaca 903b
000003c0: eae0 7d3c ff56 f33c 44eb 90ba f605 25bd
000003d0: c38a 26ba c3eb 263d 8184 91bc 3fc2 8bbc
000003e0: d51a ef3c 5283 b73c 20d1 08bd 8817 053b
000003f0: e132 33bd f909 9cbc 43cf de3c dd7b ff3c
0.03363091 0.03249411 0.041105326 -0.030538678 0.007897257 0.015737541 0.039265834 0.013789699
0.0023735804 0.012821703 0.043932043 0.0033378724 0.019379241 -0.03406343 0.010498744 0.033621453
-0.03436807 -0.03652137 -0.041048884 -0.022713348 -0.031328604 0.03968435 0.017253913 0.027374076
-0.022863971 -0.02789273 -0.022034109 0.007478424 -0.03669015 0.019020865 -0.0009026502 -0.02179111
-0.037048213 -0.003440869 -0.039813682 -0.04085016 -0.028026685 -0.023123207 -0.040992152 -0.041371174
0.0317737 0.0154480785 0.028491074 -0.018711198 -0.03238538 0.0046217763 0.0350379 -0.023008991
-0.01458507 0.017749645 0.017075483 0.03053631 0.017828334 -0.01623277 -0.023798862 -0.018796904
0.034065653 0.034693446 -0.028813154 0.0023052518 -0.034450218 -0.018037291 0.015560497 0.022572823
0.025940243 0.012495712 -0.00091851706 -0.025916921 0.024859073 0.007422069 -0.02738163 0.026667058
0.03251358 0.013588123 0.00087017886 -0.011830355 -0.03820924 0.009414726 0.020853182 0.020953413
-0.011953917 0.033608552 -0.010137336 0.022090731 -0.0009994676 -0.011236466 0.013316288 0.035661194
0.037598874 -0.016035058 -0.024913846 -0.0115985405 0.03912972 -0.028090391 -0.007937731 -0.038178775
0.012453155 0.026923615 -0.030468237 0.04252672 -0.017133648 0.043007053 0.027383575 -0.020416854
-0.016406065 -0.023291484 0.01566498 -0.034513276 -0.005066084 0.012760177 -0.014853926 -0.00087475096
-0.04140673 0.00730071 0.017867157 0.004987637 0.04382267 0.012178958 -0.04332726 -0.010704915
-0.019070141 -0.028132183 -0.027934931 -0.0043024044 -0.012488806 -0.0058335336 0.008329898 0.024557386
0.007098351 -0.028257728 -0.028038295 0.037714776 -0.03284916 0.028818449 0.002161975 -0.012306693
-0.04321256 0.02676696 -0.0250971 -0.011575704 0.03542316 0.015341233 -0.01675645 -0.011832961
-0.018983597 0.04234007 0.032729466 -0.027712652 0.0009782538 -0.013012675 0.039685085 -0.013948485
0.042000204 -0.042760495 -0.030919025 -0.0005245121 -0.031076929 0.028887352 -0.019277029 -0.017314428
0.016264316 -0.042245105 0.02719141 0.043417953 -0.014726421 -0.028441913 -0.008227866 -0.03807924
-0.016903458 -0.024824334 -0.0295463 0.034447264 0.0338485 -0.030387308 0.025110746 0.017570797
0.038650896 -0.020075854 -0.043946415 -0.039601818 0.033031777 0.030785874 -0.007172364 0.019609852
0.036088284 -0.0146182375 0.0374131 -0.030427486 0.0053327084 0.018566035 0.030754285 0.021874744
0.008445332 0.024816945 -0.038054574 0.043007474 -0.022727458 0.0202044 0.009089265 0.03168086
-0.02283488 -0.0005149376 0.007933985 0.01746055 -0.0015167985 -0.014464242 -0.023690615 -0.011567575
0.015619183 0.03379249 -0.039179236 0.024902212 0.023181401 0.043689985 -0.013237967 -0.011524198
0.0201227 -0.01991462 -0.01119643 0.035329096 -0.033535264 -0.020304639 0.031195316 -0.018306637
0.022476232 -0.0010959315 0.0028682589 -0.015281468 -0.007125754 0.0007738211 0.0073658098 0.024561094
-0.0028942383 -0.037775632 -0.028204879 -0.036515065 0.0020765378 -0.007981302 0.026261844 0.0044187205
0.015495518 0.029704569 -0.0011056443 -0.040288888 -0.00063530746 0.040752184 -0.017763378 -0.017060397
0.0291876 0.022401486 -0.033402562 0.0020308215 -0.043749694 -0.019047724 0.02719844 0.031186992

conv2.0.bias f4 [64]
00000000: 5aab 8cbb 04b3 b2bc 1f7d e7bc ce92 75b9
00000010: 1567 a4bc e586 053d cc1a 1a3d 4d10 91bc
00000020: 98b4 223d a21e fd3b da1a e0bc 5508 153d
00000030: f670 14bd 1a5d dabc f078 173d 58ec f8bc
00000040: 3edb 793c 978b 9a3c d9a0 093d e12f 2fbd
00000050: fbab 2cbd 30eb 2abd 6224 d13a 66d1 e73c
00000060: e1bf 77bc a606 e53b 8eb5 66bc 3a11 673c
00000070: 994e 163d ec34 2d3d 08ec 323d 2f2b 48bc
00000080: a4bc 92bc 8a3b 133d 5d25 81bc a731 50bc
00000090: 2a8d 79bc a449 ea3c a60b efbc 52a4 363a
000000a0: ccc9 9b3c 0cab 3fbc 56c7 44bc d7a2 90bc
000000b0: d94b 1dbd 1113 b53c dd20 003d 70e8 bb3b
000000c0: c1d2 743c 0e17 0a3d 4b4d 223d bb2c 80bc
000000d0: ed40 043d 97e4 183d 29ec 223c a4fe 843c
000000e0: 8bff 9bbc 43a0 7f3c 1344 02bd 46e2 0d3d
000000f0: 3cb6 d53c f585 1e3d 3b18 7b3c b239 0ebd
-0.0042928876 -0.021813877 -0.028257905 -0.0002341971 -0.020068685 0.03259935 0.03762321 -0.017707968
0.03972301 0.007724599 -0.027356554 0.0363849 -0.03624054 -0.026655722 0.03698057 -0.030386135
0.015250025 0.01886539 0.033600662 -0.04277027 -0.0421562 -0.0417282 0.0015956277 0.028298091
-0.015121431 0.006989318 -0.014081372 0.014103228 0.03669605 0.0422868 0.04368213 -0.012217327
-0.017912216 0.035945453 -0.015764887 -0.012707151 -0.01523141 0.028599568 -0.02918036 0.00069672347
0.019017123 -0.011698496 -0.012010416 -0.017655773 -0.038402412 0.022103818 0.03128134 0.005734496
0.014942826 0.033713393 0.039624494 -0.01564633 0.03228848 0.037327375 0.009944 0.016234703
-0.01904275 0.015602174 -0.031803202 0.03463962 0.026087873 0.03870197 0.015325601 -0.03472299

conv3.0.weight f4 [64, 64, 3, 3]
00000000: 0228 e0bc ef87 093c 83f5 123d 5dd5 9bba
00000010: 93e6 eabb 9135 be3c cf59 db3c a7dc b93a
00000020: ae75 783b 6a41 923c 06bf 0c3d 53a5 343c
00000030: 103a 78bc 1eb2 183d d0d1 0abd 7e45 ffbc
00000040: 1d17 32bc b1a6 dabc d19b 92bb 5d6a 17bd
00000050: 661f c83b cf5f 68bc 3194 bd3b 296f 923c
00000060: 93a1 07bc d639 a43c bf98 6abc 7b5e 0d3c
00000070: d8e3 8c3c f5bf 09bc c373 48bc 1b6a 89ba
00000080: 2beb 62bc cd73 e13c eba3 36bc 286c 33bc
00000090: 1622 f83c 95c5 083d 6048 88bc 0f07 11bd
000000a0: 3757 a63b 64cc dfbc 1c40 25bc 2713 13bd
000000b0: 0abe ad3c 6580 01bc a977 27bb 2119 c83b
000000c0: ec90 1c3d d27e c43c a42d d7bc cab6 913c
000000d0: 7087 11bd 3c0f da3c e213 d7bc 0e7a b63c
000000e0: 5f39 20bd c296 09bc cad1 28bd e0ee 98bc
000000f0: 5211 333b b8bc 94bb 649a 493c 3883 0ebd
00000100: 4d0c d93c 955b 24bd cfe6 0f3c 9220 0f3c
00000110: 002f 813c 36ce fe3b 1a1e 9b3b 474f d2bc
00000120: 06ad be3b e019 df3c 4090 9abc 5662 21bd
00000130: a16c c33c 363d 31bc 4b29 033d 4f3a d5bc
00000140: 4ac9 a7bc 5fc9 c5bc c7d2 e3bc de85 0f3d
00000150: 5905 9a3c 885a d2bc 84f2 273d 3882 0b3d
00000160: e8b9 0d3d 3ed0 453c 945e 85bc d94a b63c
00000170: 5b1d ca39 cd91 1a3d ba08 043d 9cb1 44bc
00000180: 7606 b3bc ae08 803c e04e 1a3c 45d7 d939
00000190: dd1f 98bc d2bc a53c abcd b93c 14be af3c
000001a0: 6e92 803c c2be 28bd c37a ecbc a5df fe3c
000001b0: 61c6 13bd dce5 413c 7549 883c 7a89 1b3c
000001c0: bd71 e4bc 1117 ea3b 6542 1f3d 731b 9cbc
000001d0: 999f 0abd c2c5 a5bb 6597 ddbc 21c5 19bb
000001e0: 4010 c03c be61 1f3d b420 993c 51e1 e5bc
000001f0: 036f 9d3c a76c a53c 343d 9c3c a836 263d
00000200: 239a 4cbc a8cc fc3c f1ca 3bbc 9de8 853c
00000210: 931f d53b a165 0cbb d169 f13c 317a 0dbd
00000220: 7a5e d3bc dc58 fcbc 865e 80bb 4f76 84bb
00000230: a60d 86bc 4851 cabc c457 19bd 1faf 853c
00000240: 5aef 41bc 63e9 90bc f985 6c3c b5ac 2bbc
00000250: a38f ac3b 9143 eebc 8517 753c 2bcb c3bc
00000260: df9a b33b 764d 893c b1c0 8ebc 98a8 063d
00000270: 1c52 7737 fb7a b4bc 96ef 273d 2cdc 6fbb
00000280: f5e8 073d 42d2 9dbc f48e 03bd ad0e c23b
00000290: db4a bb3b 4129 b2bc aca9 6ebc af3b 74bc
000002a0: a909 9f3c 9bd4 633a dc3a 003d 538e fbbc
000002b0: a077 64bc 5a96 29bd ccbd f6bc 4a6b 6a3c
000002c0: 9e1e 91bc 2017 b9ba ae16 1c3d c789 9a3c
000002d0: 39e4 14bc cafe 013d bb58 873c 23ea 37bc
000002e0: 9a31 653c 0547 cabc ec67 21bd 2e75 a6bb
000002f0: ce5b 8dbb f414 3f3c ed5e 013d cada 103d
00000300: 2924 45bc c360 8c3c e3ea 26bc a5ab cbbc
00000310: 7392 24bc ac96 f03a 277c ac3c b5f1 80bc
00000320: c90c de3b 5a96 e0bc 8b0a 263d 6ac9 0b3d
00000330: 80c5 d93c 9e10 033b e319 853a 32f7 a83b
00000340: e235 163d e678 273d db45 183d 4f02 ba3c
00000350: efcc 023d e713 e6bc 89a7 18bc ce7c dcbc
00000360: f241 133d 5128 20bd 93a9 16bc 6ca8 9ebc
00000370: e993 1d3d b156 80bc af72 26bd fd83 92bc
00000380: 48fe 3a3b a005 313b 0419 903c bfd2 013c
00000390: 9d63 13bd dd8c 1abd a095 743c b92a bd3c
000003a0: a4d7 19bd 577e 133b 98f0 b3bc 6289 c3bc
000003b0: c589 103d 5abf 22bd 4095 a3bc 6f48 843c
000003c0: 97f2 50bb b247 5e3c 3e98 4e3c c339 ffbc
000003d0: d427 0b3d 1dfe cdbc 4d7b a03c 121b c9bb
000003e0: 4e16 b83c 176c 173c b575 f83c 91a8 bfbc
000003f0: 65e0 0bbd bf84 e93c 5703 3bbb 7903 3fbc
-0.027362827 0.0083942255 0.03587867 -0.0011889149 -0.0071686 0.023218902 0.026776223 0.0014180139
0.003791194 0.017853457 0.03436186 0.0110257445 -0.015150562 0.03727924 -0.0338915 -0.031161066
-0.010869768 -0.026690813 -0.004474141 -0.03696667 0.0061072586 -0.014182999 0.005785488 0.01787527
-0.008278268 0.02004711 -0.014318644 0.008628483 0.017198488 -0.0084075825 -0.012234631 -0.0010483892
-0.013850014 0.027521038 -0.0111474795 -0.010951079 0.030289691 0.033391554 -0.016636074 -0.035407122
0.005076315 -0.02731914 -0.010086086 -0.035906937 0.021208782 -0.007904147 -0.00255535 0.006106511
0.038224146 0.023986254 -0.02626688 0.017787356 -0.035529554 0.026618592 -0.026254598 0.022274997
-0.039117213 -0.00839776 -0.041215695 -0.018668592 0.0027323556 -0.0045390986 0.012304876 -0.03479311
0.026495123 -0.040126402 0.008783056 0.008735793 0.015769482 0.007776047 0.004733813 -0.025672568
0.005818966 0.027234018 -0.018867612 -0.03940042 0.02385551 -0.0108178165 0.032021802 -0.02602878
-0.020481724 -0.024143873 -0.027810467 0.035039775 0.018801378 -0.025677934 0.041002765 0.034059733
0.034601122 0.012073575 -0.01628045 0.022252487 0.00038550314 0.037736703 0.032234885 -0.012005236
-0.021853667 0.015629139 0.009418219 0.00041549854 -0.018569881 0.020231638 0.022681078 0.021452941
0.015694823 -0.041197546 -0.028867131 0.031112501 -0.03607786 0.011834588 0.01663659 0.009493226
-0.027886266 0.007143863 0.038881678 -0.019056058 -0.03384361 -0.005058975 -0.02704973 -0.0023463445
0.023445249 0.038911574 0.018692352 -0.02806154 0.019217974 0.020193411 0.019072153 0.040579468
-0.012487921 0.030859306 -0.011461959 0.01634627 0.006504008 -0.002142288 0.029469403 -0.03454036
-0.025801886 -0.03080409 -0.003917518 -0.004042424 -0.01636393 -0.024696961 -0.037437215 0.016318856
-0.011836851 -0.017689412 0.014436238 -0.010478188 0.0052661463 -0.029084953 0.014959221 -0.023900589
0.0054811086 0.016760569 -0.017425867 0.032875627 1.4741465e-05 -0.022031298 0.04099997 -0.0036599739
0.03318115 -0.019265298 -0.032118753 0.0059221596 0.0057157106 -0.021748187 -0.01456682 -0.014906808
0.019413786 0.00086910435 0.031306133 -0.030707514 -0.013944536 -0.041403152 -0.0301198 0.014307806
-0.017714795 -0.0014121272 0.038107567 0.018864525 -0.009087616 0.031737126 0.016521802 -0.011225256
0.013988877 -0.024692068 -0.03940575 -0.005079887 -0.0043139225 0.01166271 0.03158467 0.035364904
-0.012032547 0.017135983 -0.010187837 -0.02486212 -0.010044682 0.0018355451 0.021055294 -0.015740255
0.0067764265 -0.027415443 0.0405374 0.03412763 0.026583433 0.0019998918 0.001015481 0.005156421
0.03667248 0.040886782 0.037175994 0.022706179 0.03193372 -0.028085662 -0.009317287 -0.02691498
0.035951562 -0.03910095 -0.009195703 -0.01936742 0.038471136 -0.015666338 -0.040636715 -0.017885203
0.002853291 0.002701141 0.017590053 0.007923781 -0.03598367 -0.037731994 0.0149282515 0.02309166
-0.037559167 0.0022505724 -0.02196531 -0.02386922 0.035287637 -0.03973327 -0.019968629 0.01614782
-0.0031882876 0.013566898 0.01260954 -0.031155473 0.03397353 -0.025145585 0.019590044 -0.0061372602
0.022471573 0.009242079 0.030329565 -0.023395808 -0.034149546 0.028505681 -0.0028535926 -0.011658543

conv3.0.bias f4 [64]
00000000: e21c 1e3d 55e2 af3b fccd 3bbc a574 263c
00000010: c21f ebbc 5a36 b93c 2b19 c5bc 3839 68bc
00000020: c6fb 123d fdb7 54bc 69bf febc 2350 083d
00000030: c6c5 103c 2b2f 0abd 10d4 8f3b 396a 04bb
00000040: cdad cc3b dbc2 de3c 57df 0e3c 3ca3 00bd
00000050: a0f0 0d3d 2d0c 12bd 3aef 1a3d 76b6 27bd
00000060: 6250 0a3d 241d a33c 7ee2 98bc 1591 f83c
00000070: f550 083b 2d55 0b3d 4dbe 613c 8616 243c
00000080: 727e 84bc f2ab 68bc 5b1a 1e3d 9a1d 1f3d
00000090: 501c f2bc 1bca 873c 5eab 39bc ce5a dabc
000000a0: c984 ce3b 3f1c 293d 89f7 f3bc 5f26 c4bc
000000b0: 1ab7 94bc d417 d2bc 8e28 67bc 1898 cd3b
000000c0: d7a6 1eba be66 a23c cbab 12bd e40f 2a3d
000000d0: 0a9c f53c b16a 123d 5489 20bb d9d5 c0bc
000000e0: ad86 f23c ea37 fbbc 65e2 92bc aaa5 0fbb
000000f0: 4454 733c 41c2 cbbc b544 7b3b ac50 dfbc
0.038601764 0.005367557 -0.011462685 0.010159646 -0.028701667 0.022608925 -0.024059853 -0.014173798
0.03588464 -0.012983319 -0.03109713 0.03327955 0.008836215 -0.03373639 0.0043892935 -0.0020204915
0.0062463046 0.027192524 0.008720241 -0.031405672 0.034653306 -0.035656143 0.0378258 -0.040945493
0.033768065 0.019911356 -0.018662687 0.030342618 0.0020800207 0.034016777 0.013778281 0.010015136
-0.016173575 -0.014201151 0.038599353 0.03884659 -0.029554516 0.016575864 -0.011332361 -0.026654627
0.0063024503 0.041286703 -0.02978112 -0.023944078 -0.018153716 -0.025646128 -0.01410879 0.0062742345
-0.0006052083 0.019824382 -0.035808366 0.04151906 0.029981632 0.03574628 -0.0024495916 -0.02353947
0.029605234 -0.03066631 -0.017930219 -0.0021918812 0.014851633 -0.0248729 0.0038340513 -0.027260147

fc1.0.weight f4 [80, 970]
00000000: 9481 6dbc 9b18 b2bc e6b9 41bc 84eb c13c
00000010: 2838 983c 8cd3 813c 819e 783b e984 323c
00000020: 91b4 ba3c 5702 de3c e221 56bb 0f0c 96bc
00000030: 79f2 143c b848 88bc 8346 ee3b d005 1938
00000040: 1e94 883c 0f12 83bc 9675 aa3b d665 c2ba
00000050: ba8e 763c 7d97 ba3c a15c c23c d78f 82bc
00000060: 7ae3 a03a 8906 5dbc 967f 00bd 1ded bd3c
00000070: 2b20 eb3c 9a71 023d f30c 233c 561e 3dbc
00000080: 4a2d d63b f689 16bc 7525 fd3c 5e3b dabc
00000090: 66ee 95bc 272a fc3c 652e 963c ef5c 7c3c
000000a0: 6f1c a53b 83dd 8cba 89b3 ab3c 1d46 07bc
000000b0: 9333 8c3c 16a0 06bc 551a ab3a d520 c03c
000000c0: 9522 e1bb 44a0 e0bc f900 9ebc 72a5 aabc
000000d0: 087f 493c a382 89bc e2f6 96bc 3b36 5d3b
000000e0: b699 033d 7aee b5bc cfc6 be3c f9a2 91bb
000000f0: bc6a ec3c 0c20 e0bc e749 9b3c f402 e3bc
00000100: 19bd db3c 7591 c83c 8367 d83c 0b65 c53c
00000110: 4f92 193c 1ad2 d93c 498b 98bc 60fb c43b
00000120: 58fc 6abc 7686 0b3c 7975 fb3b bdd3 17b9
00000130: ef18 3bbc face febc 6bd3 01bd 8ed6 68bc
00000140: f7e9 1c3c 59c8 95bb 6bc6 8c3c cb1a 1d3c
00000150: 8c29 9d3c dfcd 83bc 1b5d b63c 4749 d23b
00000160: 3f2e febc e9d0 9abc 94ae d13c 543a 92bc
00000170: 4ab7 273c acb0 693c c259 073c 077c f63c
00000180: 0333 ddbb 55b6 e5bc 8f9b fabc cbc7 ddbc
00000190: c256 1abc 319d d9bc d1c2 fe3c 4324 13bc
000001a0: 2eb4 743c 5726 cdbc 9fe7 4f3c b539 d1bb
000001b0: af98 5fbc eacf ab3c 7f32 bc39 226d b13c
000001c0: 0d18 d2bc ef21 ce3b 610a aa3c f67e b1bc
000001d0: 7252 57bc a78b 25bc cb4c 0fbc c2d5 c0bb
000001e0: 81fb 2e3c 333f 1a3c 3b36 473c cbc0 9abb
000001f0: b9ab 7fbc 29f6 903c 1ba5 dd3b 1a23 c0bc
00000200: 5b28 a53c 6889 fb3c 384b c03b 8af7 99bc
00000210: 0332 6bbc cb89 a8bc b6db 01bc 82ca 9fbc
00000220: 4012 91bc 5ecf c3bc e2f3 60bc 7f7d d73c
00000230: 669a 5bbc eed0 85bc 7b29 333c 6839 c83c
00000240: ac67 683c 51d2 dcbb 05de 383c a96a 95bc
00000250: eab9 cb3b 74da 3739 cab2 6dba c97a 833c
00000260: 6684 b03c b999 8abb f698 a8bc 829d 4dbc
00000270: 4f4b d53c 4ffe b03c 7485 473b 5373 e73c
00000280: 6c99 533c 7c96 cbbc f020 9aba 3c75 5bbc
00000290: 1ff0 8abc 00da b8bb b7c0 333b a850 f63c
000002a0: 771d 193c be14 adbc 69f0 8d3c 21ef 6a3c
000002b0: 0601 b2bb 69e2 303c 9472 73ba 0fc7 383c
000002c0: 366c e3bc 4fe5 2d3b 5a4c ecbb 38b2 d0bc
000002d0: 3cd6 eebc 26a5 c43c 2bda b9bc 67f8 dbbb
000002e0: b935 d6bc 4160 353c b955 fcbc bcb0 a5bc
000002f0: 95c3 60bc 7b0a b4bc 71f1 dd3a bc6d d63c
00000300: 4713 473a 73ac 9a3c 7ba6 003d 6768 d1bb
00000310: ab2e c43b 7765 d6bc 9a83 753a 2f8d 30bc
00000320: 7ec8 e2bc eed1 e43c 63b8 eabc d70c adbc
00000330: fb17 69bc e8bc 893a 3dc8 67bc 03f2 9dbc
00000340: ffdc 95bc a0c9 d53a ba2d d5bc 8af6 453b
00000350: 3d2b 383c 3d34 4c3c 2964 0cbb c410 9a3c
00000360: bc1d d9bc ebf3 ab3c 25fa 583c 8f75 023b
00000370: 3586 993c 04b4 d53b c5e8 09bc bad6 36bc
00000380: d8f4 843c df11 063c d035 1a3c 6f89 a53c
00000390: 9566 48bc dc2e bb3c d3e4 2bbc db51 21bb
000003a0: 94c5 cfbc 0c44 a3bc e2b1 e13c ea81 debc
000003b0: 2927 88bc b00b 743c 4e9d 9b3c 8073 d93c
000003c0: e000 cfbb 5be4 ed3c d509 c23c 48b6 c23c
000003d0: 9513 4abc 83f3 d5bc 376d 293c c031 17bc
000003e0: 60f2 f63c 93ae b73c 820a 1ebb df26 933b
000003f0: 81d0 c33c e7e1 1839 ee9a 813c fa87 33bb
-0.014496226 -0.021740248 -0.011824107 0.023671873 0.018581465 0.015847944 0.0037936273 0.010895946
0.022791179 0.027100725 -0.0032674004 -0.018316297 0.009091013 -0.016636238 0.0072715892 3.6483456e-05
0.01667219 -0.015999822 0.0052020056 -0.0014831375 0.015048677 0.022777313 0.02372581 -0.015937729
0.0012274825 -0.013490328 -0.031371675 0.023184353 0.028701862 0.03184662 0.009951818 -0.011542877
0.0065361606 -0.009188166 0.03090165 -0.026639637 -0.018302154 0.030781819 0.01833267 0.0154030165
0.00503879 -0.0010747168 0.020959632 -0.008256462 0.017114436 -0.008216878 0.0013054112 0.023453156
-0.0068705776 -0.02742017 -0.019287573 -0.020830844 0.012298353 -0.016785925 -0.01842827 0.0033754248
0.032129012 -0.022208441 0.023288159 -0.0044444767 0.028859489 -0.027359031 0.018956138 -0.02771137
0.026823567 0.024483422 0.026416546 0.024096033 0.009373262 0.026589442 -0.018621104 0.0060114115
-0.01434239 0.008515945 0.007673916 -0.00014479361 -0.011419519 -0.031104553 -0.031695765 -0.01421131
0.009577266 -0.0045710024 0.017184457 0.0095889075 0.01918485 -0.016089378 0.022261193 0.0064174267
-0.031027911 -0.018898444 0.02559594 -0.017850079 0.010236571 0.014263313 0.008261146 0.030088438
-0.006750466 -0.028041044 -0.030591754 -0.027072808 -0.009420099 -0.026564213 0.031098755 -0.008980813
0.014935536 -0.025042696 0.0126895 -0.006385053 -0.013647242 0.020973165 0.00035895777 0.021658484
-0.025646234 0.0062906663 0.020756902 -0.021666985 -0.013142215 -0.0101040965 -0.008746336 -0.005884857
0.01068008 0.009414482 0.012158926 -0.0047226897 -0.015604907 0.017695503 0.006764067 -0.023454238
0.020160845 0.030705169 0.005868342 -0.018794794 -0.014355185 -0.020573517 -0.007925918 -0.019505743
-0.017708898 -0.023902591 -0.013730021 0.026304958 -0.013403511 -0.016334977 0.010935183 0.024441436
0.014184874 -0.006738939 0.011283402 -0.018239336 0.006217231 0.0001753362 -0.0009067474 0.01604976
0.021547507 -0.004229751 -0.02058075 -0.01254976 0.026036886 0.021605639 0.0030444534 0.028253233
0.012914997 -0.02485203 -0.0011759084 -0.01339465 -0.016960202 -0.005641222 0.00274281 0.030067757
0.009345404 -0.021128055 0.01732655 0.014339239 -0.005432251 0.010796168 -0.0009286788 0.011277928
-0.02776156 0.0026534384 -0.0072112503 -0.025475606 -0.02915489 0.02400453 -0.022687038 -0.0067129615
-0.026148664 0.011070312 -0.030802594 -0.020225875 -0.013718505 -0.021977654 0.0016932917 0.026175372
0.000759412 0.018881058 0.03140877 -0.0063906196 0.0059870086 -0.02617143 0.00093656185 -0.010775848
-0.027683493 0.027932134 -0.028652376 -0.021124287 -0.014226909 0.0010508569 -0.014146862 -0.01928044
-0.018293856 0.0016310699 -0.02602278 0.0030206763 0.011240778 0.012463626 -0.0021422005 0.018806823
-0.026503436 0.020990333 0.013243233 0.0019906496 0.018740753 0.0065217037 -0.008417313 -0.011159593
0.016230032 0.008182972 0.009412244 0.020207135 -0.012231489 0.022849493 -0.010491568 -0.002461544
-0.025362767 -0.019929908 0.027550641 -0.027161557 -0.016620236 0.014895365 0.018995907 0.026544333
-0.006317243 0.029039552 0.023686329 0.02376856 -0.01233377 -0.026117092 0.01034098 -0.00922817
0.03014487 0.02242211 -0.002411515 0.004490718 0.023903133 0.00014580005 0.015820947 -0.002739428

fc1.0.bias f4 [80]
00000000: dd8d f93c b0e8 bc3c 019f d2bc 96bd 583c
00000010: 3414 203c 86d3 a6bc 37bf b3bc c15b b3bc
00000020: fc2f efbc 0c6b b2bc d626 3cbc 3a05 3fbc
00000030: 0c32 a6bc 25ab ed3c 3c55 1a3c ddb2 803b
00000040: 30dd ffbc 7064 59bc 404a 37bc 6fa4 63bc
00000050: 4e37 b2bc 1acf 8d3b af46 58bc dec0 cf3b
00000060: 28bf 68bc 90fb 363b a20b e23c 57c9 103a
00000070: a92a aa3b d953 eebb 1051 02bc 542b 7cbc
00000080: 17e8 e6bc 4702 ebbc e762 03bd e358 f6bc
00000090: 624d 013d ecb0 9dbc af9a 243c 5ab3 95bc
000000a0: fe3d f3bc 6079 eebb 702c eabb b3e3 41bc
000000b0: 8553 9abb f706 033c d11e 833c 35bb 8e3b
000000c0: 84d1 0f3c 0c29 7f3c a4a6 4e3c 0d88 643c
000000d0: 0252 f03c f362 403a 502e 92bc bfb6 edbb
000000e0: 598b fbbc 75b8 b03c b1fe 02bd a645 02bd
000000f0: c9b6 b8bc b2ff 3bbc a159 e23c 9ec3 5f3c
00000100: c3ac b2bb 32db c13c 1520 7abc 0299 2d3c
00000110: cd77 7ebc c9a0 2abc 5f89 aabc 7437 003c
00000120: 32a6 d03c 9aca 233c d119 9f3b 8783 60bc
00000130: 89ca ba3c d24d 6d3c 14d3 6f3a b0ad ce3b
0.030463153 0.023060173 -0.025710585 0.013228795 0.009770442 -0.020364534 -0.021941764 -0.021894338
-0.029197685 -0.02177956 -0.011483869 -0.011658961 -0.020287536 0.029012272 0.0094197355 0.003927572
-0.0312334 -0.013268575 -0.011187136 -0.0138941845 -0.021754887 0.004327667 -0.013200446 0.00634013
-0.014205731 0.002792094 0.027593438 0.0005523166 0.005193074 -0.007273179 -0.007953897 -0.01539119
-0.028186841 -0.02868761 -0.032076743 -0.030071681 0.03156794 -0.019249402 0.010046645 -0.018273998
-0.029692646 -0.0072776526 -0.0071464106 -0.011834073 -0.0047096633 0.007997266 0.016005905 0.004355813
0.00877798 0.015573751 0.012612972 0.013948453 0.02933598 0.00073389633 -0.01784435 -0.007254451
-0.030706095 0.021572331 -0.031981174 -0.031804703 -0.022548096 -0.011474537 0.027630629 0.013657479
-0.0054527237 0.02366409 -0.015266438 0.010595562 -0.015531492 -0.010414311 -0.020817457 0.007825721
0.025469873 0.009997034 0.0048553725 -0.013703234 0.022801654 0.014483886 0.00091485796 0.0063073263

out.weight f4 [40, 80]
00000000: e8f6 95bd e840 283d 6f50 6f3d 7383 983a
00000010: 396a 75bd 180b 6cbd 84fb 8bbc e71c 8b3c
00000020: 8bad dfbd 18a3 523d cad5 393c 47b5 d4bd
00000030: 92c2 133d ed48 afbd c0b1 863c 470e 123c
00000040: 39ec e33d c764 223d b4df 85bd 30e3 d33c
00000050: 9a6f e3bd 78fb 1abd 2365 00bd 6c9c d63d
00000060: 853b c33d 3816 db3d 1836 24bd af65 e13d
00000070: 6985 45bc f04f 21bc ece3 d8bd 0b0e aa3c
00000080: 1695 1abd 3e2a 10bd faa6 863c d66b 82bd
00000090: 66c6 aa3d 5946 893d de31 14bd c072 93bd
000000a0: 65cc bebd d4c4 3d3c f5f4 903d 9842 cfbc
000000b0: 34e6 033d 9e05 08bd 481b b03c 2646 703b
000000c0: aa50 3e3d f9cc 9abd 539d 0e3d d5f3 1bbd
000000d0: 1d81 493d 3649 0e3a e1a8 e33c 0544 ad3d
000000e0: 2917 b1bd 0880 a5bd 5325 4b3d bef8 97bd
000000f0: 4ff3 67bd 84ca ca3d 6d9d e03c a78a 843d
00000100: e0d7 bebc d5ef f23c 603e bf3d 6796 8f3d
00000110: aa2a 823c 43fd a93d ba55 143d 1684 b63d
00000120: 8862 a7bc 62a6 a0bd 8f1c b4bb 5d19 493d
00000130: fd2b 5e3c a7d6 9bbd 5862 1ebd f281 ccbd
00000140: 2b7c 6f3d 27a6 85bd fb97 d33d ef7e babd
00000150: d8e3 863c 8dd4 1bbd ebd3 033d d5f2 b93d
00000160: 8fc0 9cbd 0cc1 05bd a01c fdbc 3670 72bd
00000170: 86bd a9bd 76fd 103d 6055 6e3d 14a6 ad3d
00000180: 8be4 56bd 101a 7a3d f110 d7bd ea1e 8fbd
00000190: b31b 45bd 7d9a b8bb c060 8ebd 20da 96bb
000001a0: c368 3fbd d0ce 9e3d ede3 e33d c8ab 7b38
000001b0: e7b1 d73d 1c75 7abd 6463 c9bc 90ee 26bd
000001c0: f5a9 b33d 1357 8dbd 67c5 babd 79cb ce3d
000001d0: 9301 7fbb d067 a93d 503f a4bd e6ab 9e3d
000001e0: cb37 373d 745c 1d3d 2b15 45bd d640 4f3d
000001f0: 785a bfbd ddb2 f73c 9cb2 b03d eca0 83bd
00000200: a2fa 8c3c 8c67 143c 8bbf e0bd dd36 b1bd
00000210: 7426 23bd a5f1 c73d 202a 3b3c 6cd9 42bc
00000220: 25e9 59bd 3f95 893d c610 94bd feb3 dbbd
00000230: 12b6 23bd 4809 cb3c 3bc8 9dbd 1cb4 9a3d
00000240: 5483 24bd 4d2a 60bd 5a31 ddbd f5c5 cc3c
00000250: fa66 323d d4e4 4b3d 3428 90bd 8878 863c
00000260: c08e 033d 3c0f 1b3d b572 e1bd f5cd a33d
00000270: fba5 b53d 6040 6bbd 8313 a5bd c6a4 923d
00000280: 57b9 d43c 88fc 613d 04c9 a63d 80f8 993b
00000290: 14b5 a3bc debc 39bd 2eec a23d 6f51 b4bd
000002a0: 410a 6b3d da70 8ebd a973 fabc 6f76 a3bd
000002b0: 178e 783d 3782 e2bd ec67 91bd 26f5 c3bd
000002c0: 7559 5abd 2a91 3b3c 7e13 80bd 2730 d1bd
000002d0: de2c 82bd b651 7bbd 680d 3f3c 3838 cf3c
000002e0: 80d9 6dbd 587c c0bd ed80 3dbd 6a43 bd3a
000002f0: b800 fb3c f2a2 a43d 0e0a 88bd 5ca8 91bb
00000300: d986 163d fc29 233d 839c 81bd 8957 a3bd
00000310: 8229 803d 221a 35bd ccb6 e2bc 1f59 843b
00000320: ccb7 a53d 569e acbd c87a 3d3d 0c10 07bd
00000330: 4c50 f3bc dc4d 6c3c 27f6 013d 525b 2abd
00000340: 89f6 1e3d b26f bdbd c4f7 283c fa98 07bd
00000350: 2f30 863d 1e2f 543c e2a5 9dbd 6a83 dcbd
00000360: 65d8 f2ba 63f9 afbd 129b 973d 2723 c13d
00000370: 34a0 9bbd 203c a9bd 7982 9e3c b492 c0bd
00000380: 8f20 b63d 82c5 903c b893 bfbd f9ea b5bc
00000390: 8f3e 4b3d 3df0 71bd a8f7 c83d a06f e43c
000003a0: 1821 953d 74a4 b7bd b96e c6bd 0481 9f3c
000003b0: 675b 6cbc 6df2 5a3c 06e5 5c3d f7b0 613d
000003c0: 44a3 8b3d 45b7 febc ff39 c4bb 147a ab3d
000003d0: bc7e 903d b266 c33d 4006 c53d 910b 693d
000003e0: 7e5f da3a 2d17 bf3d be26 8bbd a021 4e3d
000003f0: 94f6 973c 62e0 8ebd fe61 093d e9f2 653d
-0.07322484 0.041077524 0.058426317 0.0011635855 -0.059915755 -0.057627767 -0.017087705 0.016981555
-0.109217726 0.05142507 0.011342475 -0.103861384 0.03607423 -0.08558831 0.01644218 0.008914537
0.1112904 0.03964689 -0.065368086 0.025865167 -0.11105271 -0.037837476 -0.03134645 0.10479054
0.09532837 0.10697597 -0.04009065 0.11005723 -0.012055733 -0.009845719 -0.10590348 0.02075865
-0.037739836 -0.035196535 0.016437043 -0.06368224 0.08338623 0.06702871 -0.03618037 -0.07199621
-0.09316329 0.011582572 0.07077972 -0.025300309 0.03220196 -0.033208482 0.021497384 0.0036662905
0.046463646 -0.07558627 0.034818005 -0.038074333 0.049195398 0.00054277794 0.027790489 0.08460239
-0.086469956 -0.08081061 0.049596142 -0.07420491 -0.05662852 0.09901908 0.027418816 0.06471758
-0.023296297 0.029655376 0.09338069 0.07011109 0.015889484 0.08300259 0.036214568 0.08911912
-0.020432726 -0.07844235 -0.0054965685 0.049096454 0.013560292 -0.07609301 -0.038668007 -0.099857226
0.058468025 -0.06525832 0.10331722 -0.09106242 0.016466066 -0.0380445 0.032184523 0.0907952
-0.07653915 -0.032654807 -0.030897439 -0.059189044 -0.08288102 0.03539797 0.05818689 0.084789425
-0.05246405 0.06106001 -0.10501278 -0.06988318 -0.04812212 -0.005633651 -0.06952047 -0.0046036392
-0.046730768 0.0775429 0.11127458 6.0003047e-05 0.10531979 -0.06114684 -0.024583526 -0.040754855
0.08772651 -0.06901374 -0.09119683 0.10097403 -0.003891085 0.08271754 -0.080198884 0.07747631
0.044730943 0.03841825 -0.04811589 0.05059894 -0.093434274 0.030236656 0.08627817 -0.06427178
0.017209355 0.009057891 -0.10974034 -0.086530425 -0.039831594 0.09762887 0.011423618 -0.011892658
-0.05320086 0.067179196 -0.07229762 -0.1072769 -0.039968558 0.0247847 -0.077042066 0.075538844
-0.040164307 -0.05472784 -0.10800429 0.024996737 0.043555237 0.049778774 -0.07038918 0.016414896
0.03211856 0.037856326 -0.11008207 0.079982676 0.08869549 -0.05743444 -0.08060362 0.07160334
0.025967283 0.055172473 0.081438094 0.004698813 -0.019983806 -0.045346133 0.07955204 -0.08804595
0.057382826 -0.069551185 -0.03057273 -0.07981574 0.060682382 -0.11059993 -0.070999 -0.09568243
-0.05330797 0.011448184 -0.06253718 -0.102142625 -0.06356214 -0.061357222 0.011660911 0.025295362
-0.058068752 -0.09398717 -0.04626553 0.0014439647 0.030639991 0.08038892 -0.06642543 -0.004445119
0.036749694 0.03983496 -0.0632868 -0.079756804 0.06257917 -0.044214375 -0.027675055 0.0040389444
0.08091697 -0.08428638 0.04625967 -0.032974288 -0.029701374 0.01442286 0.03172889 -0.041590996
0.038809333 -0.0924982 0.010312978 -0.033104874 0.06552159 0.012950687 -0.07697655 -0.10767253
-0.0018527625 -0.085924886 0.07402624 0.09430533 -0.07598916 -0.08263421 0.019349324 -0.094029814
0.08892929 0.017672304 -0.09354347 -0.02220677 0.049620207 -0.059067 0.09812862 0.027885258
0.07281703 -0.08966914 -0.096890874 0.0194707 -0.014426089 0.013363463 0.05392935 0.055100407
0.0681825 -0.03109325 -0.005988359 0.08372894 0.07055423 0.09541072 0.09620333 0.056895796
0.0016660539 0.09330592 -0.06794499 0.050325036 0.018550195 -0.069763914 0.03354072 0.05613986

out.bias f4 [40]
00000000: 2fc6 36bd fb5c c53d 38f8 be3c 8dd2 36bd
00000010: e26c 58bc 8bfa 32bd ae81 c13d 6769 babd
00000020: 024c f53c 20f9 82bd 6579 b43d f8f9 0e3d
00000030: 6a7a 2e3c 6b40 a5bc 4802 963d dc0d c93d
00000040: 7487 8b3d 904a 9dbd c0d6 04bd fb9e 60bd
00000050: 3228 9c3d 9882 cebc e7a1 4bbd 0d92 8d3b
00000060: 9367 01bd a743 7abd 48f2 7dbc 6682 eabb
00000070: a731 a8bb 4081 c9bd fc9e 5abc e051 e0bc
00000080: 9e3c b1bc ac36 2c3d f060 aabd 1bb2 19bd
00000090: b6fd fa3c 4443 523d f443 9dbc baeb c43d
-0.044622596 0.09636875 0.02331172 -0.04463439 -0.013209553 -0.043695968 0.094485626 -0.09102135
0.02994347 -0.06395173 0.08812217 0.034906358 0.010649303 -0.020172318 0.07324654 0.098170966
0.06812945 -0.07680237 -0.032431364 -0.054839116 0.07624854 -0.025208756 -0.04971495 0.004320389
-0.031592917 -0.061099675 -0.015499659 -0.007156658 -0.005132872 -0.098391056 -0.013343569 -0.027382791
-0.02163535 0.042044327 -0.083192706 -0.03752337 0.030638557 0.05133368 -0.019197442 0.09615274
