1400params3.pth (torch, 607751 bytes, 10 tensors)

conv1.0.weight f4 [32, 4, 2, 2]
0	0xbdc533db	-0.09629031
1	0x3e2ba1e3	0.16760974
2	0x3dbf8f63	0.09353521
3	0x3e391d1e	0.18077514
4	0xbe6c8e2e	-0.23101112
5	0x3d4dd276	0.05024954
6	0x3e474de9	0.19463314
7	0xbc00821b	-0.00784352
8	0xbe5d4123	-0.21606879
9	0xbd664d0c	-0.05622582
10	0x3db5f478	0.08884519
11	0xbdbeca7e	-0.09315966
12	0xbd835cae	-0.064141616
13	0xbda4aae4	-0.08040407
14	0x3cdc2fbb	0.026878228
15	0x3b52a814	0.003214364
16	0xbdea449e	-0.11438869
17	0x3e593d03	0.2121468
18	0x3d8d8e3f	0.06911897
19	0x3da6518e	0.08121024
20	0xbe76a8a9	-0.24087776
21	0xbe28ecb5	-0.16496547
22	0xbe13857f	-0.14406393
23	0xbe23e18f	-0.16004013
24	0x3dfbdd76	0.122981
25	0x3e5d3f4a	0.21606174
26	0xbda64b64	-0.08119848
27	0x3d5dc7cc	0.05414562
28	0xbe2ed552	-0.17073563
29	0x3e02ab95	0.12760766
30	0xbc107bdd	-0.008818594
31	0xb7927491	-1.7458837e-05
32	0xbcfa81cc	-0.03057947
33	0x3e520c1b	0.2051243
34	0xbe2c0a5f	-0.16800831
35	0x3e5a5d08	0.21324551
36	0x3c991119	0.01868491
37	0x3d5f7ac6	0.054560445
38	0x3db1314f	0.08651983
39	0x3e1a1a21	0.1504903
40	0xbd4d090f	-0.050057467
41	0xbdf28005	-0.11840824
42	0x3e6a2181	0.22864343
43	0x3d1a486e	0.03766673
44	0x3e0c2dd3	0.13689356
45	0xbd34142c	-0.04396455
46	0xbe42f900	-0.19040298
47	0xbd92fe18	-0.07177371
48	0xbe4937e2	-0.19650224
49	0x3e7c2f43	0.24627404
50	0x3be61af9	0.0070222584
51	0x3e47ab62	0.19498971
52	0x3e57dc65	0.21080168
53	0xbd0f4254	-0.034975365
54	0x3d817ba8	0.06322414
55	0xbce07cd2	-0.027403269
56	0xbe660fa5	-0.22466905
57	0x3e15eda4	0.14641434
58	0xbdb1d220	-0.08682656
59	0x3e5b9a94	0.21445686
60	0x3de67e2f	0.11254536
61	0xbc959e93	-0.01826409
62	0x3e24c0d7	0.16089188
63	0x3dd6682e	0.104690894
64	0x3e628e4f	0.22124599
65	0x3ad2c39c	0.0016080025
66	0xbdbd4f9e	-0.092437014
67	0xbd2cd21b	-0.04219256
68	0x3e6e15d5	0.23250516
69	0x3e49474e	0.19656107
70	0x3e4c664f	0.19960903
71	0xbd20b66a	-0.039236464
72	0xbdb309e6	-0.08742122
73	0x3c9ea342	0.019364957
74	0xbe1b269a	-0.15151444
75	0xbdc36374	-0.095404536
76	0x3e7e3c0d	0.24827595
77	0x3ce8733d	0.028375262
78	0x3de24df5	0.110500254
79	0xbda25640	-0.07926607
80	0x3d9e2ee8	0.077237904
81	0x3db8c293	0.09021487
82	0xbe307eb4	-0.17235833
83	0x3e76afb1	0.24090458
84	0xbce46205	-0.02787877
85	0xbe18b198	-0.14911497
86	0xbdb246f1	-0.08704937
87	0x3e4e4f04	0.2014733
88	0xbe2aa2d3	-0.16663675
89	0xbe6c51c6	-0.23078069
90	0xbe785fc4	-0.24255282
91	0x3e547b03	0.2075005
92	0xbd31117c	-0.043229565
93	0xbcdbf2fc	-0.026849262
94	0xbdf12b4a	-0.11775835
95	0x3dc9f982	0.09862043
96	0x3e4a989b	0.19784777
97	0x3e15f29f	0.14643334
98	0x3e29c5a5	0.16579302
99	0xbc9928e0	-0.018696249
100	0x3d87c7df	0.06629919
101	0xbdca7adb	-0.09886714
102	0x3e405c93	0.18785314
103	0xbda27ab9	-0.07933564
104	0xbdae85ef	-0.085216396
105	0x3cbf59ab	0.023358187
106	0xbe3e354e	-0.18575022
107	0xbe1eeac2	-0.1551924
108	0x3e55dff5	0.20886214
109	0xbdc8c3b1	-0.0980295
110	0xbdd7be07	-0.10534292
111	0x3decf97c	0.11571023
112	0xbc87e58c	-0.016588949
113	0x3d299239	0.041399214
114	0x3e3e2188	0.18567479
115	0xbda593e6	-0.0808485
116	0xbd65aba0	-0.056071877
117	0xbe7dd525	-0.2478834
118	0x3d7a4aa3	0.061106335
119	0xbdf5aa5c	-0.11995384
120	0xbe0dfab6	-0.1386517
121	0x3e065b0c	0.13120669
122	0xbc453146	-0.0120356735
123	0x3e4fafd7	0.20281921
124	0xbe194ecb	-0.14971463
125	0x3e59b9c1	0.21262266
126	0xbd639525	-0.055562157
127	0xbd44e5b3	-0.04807062
128	0xbd393bd0	-0.045223057
129	0x3e56b115	0.20965989
130	0xbcca0ca5	-0.024664233
131	0xbe5d9af8	-0.21641147
132	0xbe112b17	-0.14176594
133	0xbe0ab4ac	-0.13545483
134	0xbcf4addf	-0.029868064
135	0xbe33b6f3	-0.17550258
136	0x3d016c68	0.031597525
137	0x3bce161d	0.006289257
138	0x3deccc34	0.11562386
139	0xbe4f26f3	-0.20229702
140	0x3e7df16c	0.24799126
141	0x3d469c0a	0.048488654
142	0x3cdfb81d	0.027309472
143	0xbe38c93e	-0.18045518
144	0x3e2e2229	0.17005219
145	0x3e23aa19	0.15982856
146	0x3dc8521b	0.097812854
147	0xbe1f776e	-0.15572903
148	0xbe16e652	-0.14736298
149	0x3e32c1bf	0.17456721
150	0xbe42aeaa	-0.19011942
151	0x3d007bbf	0.031368013
152	0xbd31b975	-0.043389756
153	0x3e46ed57	0.19426475
154	0xbe65c31b	-0.22437708
155	0xbddc9048	-0.10769707
156	0xbd861550	-0.06547034
157	0xbd9a4407	-0.075325064
158	0xbe3e8020	-0.18603563
159	0xbdc6a03d	-0.09698532
160	0xbe18550d	-0.14876194
161	0x3e4c5ae6	0.1995655
162	0xbe12e203	-0.14344029
163	0x3bda46a7	0.0066612544
164	0xbe7e9428	-0.24861205
165	0xbe042d80	-0.12907982
166	0x3e44a516	0.192036
167	0xbe54bcbc	-0.20775121
168	0xbd308f00	-0.043105125
169	0xbdee3167	-0.116305165
170	0xbcbdd2ed	-0.023171866
171	0xbc3d6440	-0.011559546
172	0xbd8a93a9	-0.06766445
173	0xbdf0f522	-0.117655054
174	0x3dcb0e03	0.09914782
175	0xbd087695	-0.033316214
176	0x3d7fe5f7	0.06247517
177	0xbe5485ba	-0.20754138
178	0xbd32151b	-0.04347716
179	0xbdbcbda9	-0.09215862
180	0x3decca39	0.115620084
181	0xbcc3c244	-0.023896344
182	0xbe0d49d5	-0.13797696
183	0xbe71f987	-0.23630343
184	0x3ca2f2d4	0.01989118
185	0xbe0dd58d	-0.13850994
186	0xbe568b61	-0.20951606
187	0xbe2387b3	-0.15969734
188	0x3e76e546	0.24110898
189	0xbe0a4fd6	-0.13507017
190	0xbda52f51	-0.080656655
191	0xbe6354ff	-0.22200392
192	0xbe468709	-0.1938745
193	0xbe0bcad6	-0.13651595
194	0xbe7ea1fa	-0.24866477
195	0x3d8df51d	0.06931517
196	0xbd1acc24	-0.03779234
197	0x3dd55e36	0.1041836
198	0xbdab9d2b	-0.08379587
199	0xbe021ce5	-0.12706335
200	0xbd0738b0	-0.033013046
201	0x3e324beb	0.17411773
202	0x3e12f9f1	0.14353158
203	0xbd83175d	-0.064009406
204	0x3d4d56e5	0.050131697
205	0xbd944bb4	-0.07241002
206	0x3bcd9dd1	0.0062749167
207	0x3e3f67e7	0.1869198
208	0x3e0fd84a	0.14047351
209	0xbc0eb54a	-0.008710215
210	0x3d954153	0.0728785
211	0x3d7ab6be	0.061209433
212	0xbe15e7b4	-0.14639169
213	0xbd5adf96	-0.053435884
214	0x3e5a12db	0.21296255
215	0x3dac2ef2	0.084073916
216	0xbb8b3b14	-0.004248986
217	0x3e73573b	0.23763745
218	0xbd90aefe	-0.07064627
219	0xbdfae6ac	-0.122510284
220	0xbde47ab4	-0.11156216
221	0x3e1708a1	0.14749385
222	0x3d9e5e22	0.07732798
223	0x3e23247a	0.15931883
224	0x3e1cdb10	0.1531794
225	0xbdce1e4b	-0.10064372
226	0xbd1b0f0d	-0.03785615
227	0xbe3b4090	-0.18286347
228	0x3e127c8f	0.14305328
229	0x3e2b562a	0.16732088
230	0xbe3418c3	-0.17587571
231	0xbe181507	-0.14851771
232	0x3cf5a87e	0.02998757
233	0x3c96c43d	0.01840412
234	0x3e0130c5	0.1261626
235	0x3de3d9b0	0.11125505
236	0xbe54e66d	-0.20791025
237	0x3d05c724	0.03266062
238	0xbc266b1e	-0.010157375
239	0x3e181ef5	0.14855559
240	0x3e5e200f	0.21691917
241	0x3e3a29a6	0.1817995
242	0x3e16bffb	0.14721672
243	0xbe19b743	-0.15011315
244	0xbe156aa5	-0.14591463
245	0xbe306c49	-0.17228808
246	0x3e731ed9	0.23742236
247	0xbe6089f1	-0.2192762
248	0x3e0f3135	0.13983615
249	0x3e5443d2	0.20728996
250	0xbe7ec0e9	-0.24878277
251	0x3ce41a83	0.027844673
252	0xbe174ea4	-0.14776093
253	0x3d5c8071	0.05383343
254	0x3d7f463a	0.062322833
255	0xbde2c933	-0.11073532

conv1.0.bias f4 [32]
0	0x3d3cb2d7	0.046068992
1	0xbe40d423	-0.18830924
2	0xbe43b3bc	-0.19111532
3	0xbe66a84b	-0.22525136
4	0xbe6e355e	-0.23262545
5	0xbe045a7d	-0.12925144
6	0xbdad3f0b	-0.0845929
7	0x3de4529f	0.11148571
8	0xbe3387cf	-0.17532276
9	0x3cc314a5	0.023813555
10	0x3e5cdac2	0.21567824
11	0xbd790929	-0.06079975
12	0xbe0ddc2b	-0.13853519
13	0x3e59bbc4	0.21263033
14	0xbde84f1d	-0.11343215
15	0xbbc61155	-0.0060445466
16	0xbe3a229a	-0.18177262
17	0xbde9c01e	-0.114135966
18	0xbd24ee77	-0.04026648
19	0xbe1cd2c6	-0.15314779
20	0xbcfcbe5e	-0.030852493
21	0x3e0b26fc	0.1358909
22	0x3e78cc27	0.24296628
23	0xb81495a6	-3.542532e-05
24	0xbcc688f6	-0.02423523
25	0xbe14a789	-0.14517035
26	0xbdbe1a1c	-0.09282324
27	0xbd3f6f1b	-0.046736818
28	0x3e41e5aa	0.18935266
29	0x3e561d69	0.20909657
30	0x3e2cc31a	0.168713
31	0x3e69ec0c	0.22843951

conv2.0.weight f4 [64, 32, 4, 4]
0	0x3d099b5a	0.03359542
1	0x3d051ebd	0.032500017
2	0x3d28830a	0.041140594
3	0xbcf9e540	-0.030504823
4	0x3c00c578	0.00785958
5	0x3c80c3dc	0.015718393
6	0x3d20ed66	0.0392889
7	0x3c624402	0.01381016
8	0x3b1a460c	0.0023540286
9	0x3c51e53b	0.012811
10	0x3d33fad3	0.043940376
11	0x3b5b3888	0.0033450443
12	0x3c9e0142	0.01928771
13	0xbd0be29e	-0.034151666
14	0x3c2a9ab2	0.010412859
15	0x3d095c05	0.033535022
16	0xbd0d070b	-0.034430545
17	0xbd15cf6d	-0.03657477
18	0xbd28178d	-0.041038085
19	0xbcba05ee	-0.022707906
20	0xbd009882	-0.031395443
21	0x3d224bb2	0.03962297
22	0x3c8d1c20	0.017225325
23	0x3cdfffc2	0.027343635
24	0xbcbbe205	-0.022934923
25	0xbce50e68	-0.027960971
26	0xbcb4ea89	-0.022084491
27	0x3bf37269	0.0074294102
28	0xbd16a3d8	-0.036777347
29	0x3c9b1b86	0.018934023
30	0xba8114f3	-0.0009848162
31	0xbcb32f0e	-0.021873023
32	0xbd180334	-0.03711243
33	0xbb62399f	-0.0034519208
34	0xbd22f9a1	-0.039788846
35	0xbd2721c6	-0.040803693
36	0xbce5c420	-0.028047621
37	0xbcbd44e1	-0.023104133
38	0xbd27c0c5	-0.040955324
39	0xbd29506b	-0.04133646
40	0x3d0205cd	0.031743813
41	0x3c7cbcab	0.015425841
42	0x3ce9c199	0.028534697
43	0xbc98f69f	-0.018672286
44	0xbd0497f2	-0.03237147
45	0x3b98dd27	0.0046650353
46	0x3d0fc423	0.03509916
47	0xbcbc1ea0	-0.022963822
48	0xbc7027e3	-0.014657947
49	0x3c918d1d	0.017767483
50	0x3c8c2dbd	0.017111653
51	0x3cfa702c	0.030571066
52	0x3c91a8a3	0.017780608
53	0xbc84c9d2	-0.016209517
54	0xbcc2a081	-0.023758175
55	0xbc99c277	-0.018769486
56	0x3d0b7253	0.034044575
57	0x3d0e2d39	0.034711096
58	0xbcebd2b3	-0.028786993
59	0x3b1838ba	0.002322717
60	0xbd0d28bf	-0.034462687
61	0xbc93bb42	-0.018033627
62	0x3c7f0ad9	0.015566551
63	0x3cb8c8aa	0.022556622
64	0x3cd42447	0.025896205
65	0x3c4bf18d	0.012447727
66	0xba61c87e	-0.00086129445
67	0xbcd3df57	-0.025863333
68	0x3ccb3d6f	0.024809567
69	0x3bf1877c	0.0073708873
70	0xbcdfd0f4	-0.027321316
71	0x3cdae298	0.026719376
72	0x3d050e3e	0.032484286
73	0x3c5e63da	0.013573611
74	0x3a6dbe24	0.00090691657
75	0xbc4173cc	-0.011807393
76	0xbd1c8ddc	-0.038221225
77	0x3c1a4792	0.009416478
78	0x3cab170f	0.020885019
79	0x3cabc5c2	0.020968322
80	0xbc445564	-0.011983249
81	0x3d098f44	0.033583894
82	0xbc252d58	-0.010081612
83	0x3cb51ffd	0.02210998
84	0xba86e157	-0.0010290545
85	0xbc388c9c	-0.011263993
86	0x3c5b224e	0.013374878
87	0x3d1244ec	0.03571026
88	0x3d19d792	0.0375591
89	0xbc8399da	-0.016064573
90	0xbccc4c08	-0.024938598
91	0xbc3e88e0	-0.011629313
92	0x3d1fe6f2	0.039038606
93	0xbce6dc9c	-0.028181367
94	0xbc037608	-0.008023746
95	0xbd1cbc81	-0.03826571
96	0x3c4b3fab	0.012405316
97	0x3cdcc8e4	0.02695126
98	0xbcf8f5ff	-0.030390738
99	0x3d2e8475	0.04260679
100	0xbc8cd744	-0.01719249
101	0x3d300144	0.042969957
102	0x3ce028dc	0.027363233
103	0xbca76da3	-0.020438021
104	0xbc86e040	-0.016464353
105	0xbcbf1ffd	-0.023330683
106	0x3c7ff469	0.015622237
107	0xbd0d89bb	-0.034555178
108	0xbba94373	-0.0051655113
109	0x3c4f8c51	0.012667731
110	0xbc74d31a	-0.014942909
111	0xba7d1776	-0.000965468
112	0xbd29d9bb	-0.04146741
113	0x3beeeb5d	0.007291241
114	0x3c927aa5	0.017880747
115	0x3ba323a3	0.0049786135
116	0x3d333c80	0.04375887
117	0x3c46e2f7	0.012139074
118	0xbd3192ee	-0.043353014
119	0xbc2ff79b	-0.010740186
120	0xbc9cc0a7	-0.019134833
121	0xbce6e384	-0.02818466
122	0xbce533bf	-0.027978776
123	0xbb8e794c	-0.004347956
124	0xbc4e17ba	-0.012578899
125	0xbbc20c69	-0.0059218896
126	0x3c071056	0.008243641
127	0x3cc8785c	0.024471454
128	0x3be67f66	0.00703423
129	0xbce73428	-0.028223112
130	0xbce56404	-0.028001793
131	0x3d1a981e	0.037742727
132	0xbd06dae3	-0.03292359
133	0x3cebc1dd	0.028778965
134	0x3b0aff7a	0.0021209405
135	0xbc4a5a69	-0.012350657
136	0xbd314903	-0.04328252
137	0x3cdaed50	0.026724488
138	0xbcce0d0b	-0.025152704
139	0xbc3e8c0a	-0.011630068
140	0x3d10b339	0.03532717
141	0x3c79ee7a	0.015254611
142	0xbc8a0352	-0.016847286
143	0xbc435ae4	-0.0119235255
144	0xbc9bd817	-0.019023938
145	0x3d2d4a77	0.042307343
146	0x3d062515	0.032750208
147	0xbce3085f	-0.027713953
148	0x3a71a708	0.000921831
149	0xbc5617f3	-0.013067233
150	0x3d225e42	0.039640673
151	0xbc655773	-0.0139979
152	0x3d2bc93f	0.04193997
153	0xbd2f6237	-0.042818274
154	0xbcfda5cb	-0.030962845
155	0xba155d68	-0.00056978175
156	0xbcff4a2a	-0.031163294
157	0x3cebef6f	0.028800694
158	0xbc9e97dc	-0.019359522
159	0xbc8e8498	-0.01739721
160	0x3c84d916	0.016216796
161	0xbd2cf132	-0.04222221
162	0x3cdeed4e	0.027212765
163	0x3d31ed48	0.04343918
164	0xbc721f98	-0.01477804
165	0xbce929c1	-0.028462293
166	0xbc06f47b	-0.008237
167	0xbd1c0417	-0.038089838
168	0xbc8af7da	-0.016963888
169	0xbccbba9c	-0.024869256
170	0xbcf26b2a	-0.029592115
171	0x3d0ce76e	0.034400396
172	0x3d0a447b	0.033756714
173	0xbcf9a585	-0.030474434
174	0x3cccfe13	0.025023496
175	0x3c8f38bb	0.017483106
176	0x3d1e2af7	0.038615193
177	0xbca44764	-0.020053573
178	0xbd33df5d	-0.043914188
179	0xbd2219ed	-0.039575506
180	0x3d0710d4	0.032975033
181	0x3cfbe39b	0.03074818
182	0xbbec7b6c	-0.0072168615
183	0x3ca042f5	0.019563178
184	0x3d1396f8	0.036032647
185	0xbc702507	-0.0146572655
186	0x3d1911fb	0.037370663
187	0xbcf99fd6	-0.030471724
188	0x3babc569	0.005242039
189	0x3c976454	0.018480457
190	0x3cfb3bc4	0.030668147
191	0x3cb27cdc	0.021788053
192	0x3c090c02	0.008364679
193	0x3ccafc7b	0.024778595
194	0xbd1bcf52	-0.038039513
195	0x3d303108	0.04301551
196	0xbcbaaea4	-0.022788353
197	0x3ca4d36a	0.020120341
198	0x3c14128c	0.009037625
199	0x3d018563	0.031621348
200	0xbcbbb359	-0.022912668
201	0xba1785dd	-0.000578014
202	0x3c01bffb	0.007919307
203	0x3c8f2550	0.017473847
204	0xbad0bd22	-0.0015925507
205	0xbc6e48c2	-0.014543714
206	0xbcc27e3c	-0.023741834
207	0xbc3da7f3	-0.011575687
208	0x3c7e795c	0.015531864
209	0x3d0ab6ce	0.033865742
210	0xbd2055d9	-0.03914437
211	0x3ccb87ff	0.024845121
212	0x3cbd3307	0.02309562
213	0x3d32d6b3	0.043661784
214	0xbc5a03cc	-0.013306569
215	0xbc3e39d5	-0.011610468
216	0x3ca4e491	0.02012852
217	0xbca276f8	-0.01983212
218	0xbc3605ff	-0.011109828
219	0x3d10d60a	0.035360374
220	0xbd09b8a1	-0.03362334
221	0xbca6c641	-0.020358207
222	0x3cff2452	0.031145249
223	0xbc96a165	-0.018387506
224	0x3cb77af3	0.022397494
225	0xba98a206	-0.0011644966
226	0x3b3c7930	0.0028758757
227	0xbc7aed3e	-0.015315352
228	0xbbebf7af	-0.007201157
229	0x3a38d324	0.00070505054
230	0x3bf0b737	0.0073460597
231	0x3cc8d4a7	0.024515463
232	0xbb428804	-0.0029683122
233	0xbd1b004c	-0.03784208
234	0xbce72299	-0.02821474
235	0xbd15b7f8	-0.0365524
236	0x3b0393fa	0.0020077215
237	0xbc038be8	-0.008028962
238	0x3cd75a68	0.026288226
239	0x3b900fea	0.0043964284
240	0x3c7cf92c	0.015440267
241	0x3cf356ee	0.029704537
242	0xba8ed0cf	-0.001089597
243	0xbd24f936	-0.04027673
244	0xba3727ac	-0.00069868076
245	0x3d26bcf8	0.04070756
246	0xbc91cd5a	-0.017798115
247	0xbc8c0b4c	-0.01709523
248	0x3cee8690	0.029116899
249	0x3cb70c2a	0.022344667
250	0xbd090589	-0.033452544
251	0x3b01ecdc	0.0019825017
252	0xbd338c14	-0.04383476
253	0xbc9cb727	-0.019130303
254	0x3cde257e	0.027117487
255	0x3cfed0f5	0.031105498

conv2.0.bias f4 [64]
0	0xbb8e38ee	-0.0043402826
1	0xbcb1c1a1	-0.021698775
2	0xbce70f24	-0.028205462
3	0xb9231f7f	-0.00015556625
4	0xbca46715	-0.020068685
5	0x3d05fb36	0.032710277
6	0x3d1a6543	0.037694227
7	0xbc91d68e	-0.017802503
8	0x3d230c6f	0.03980678
9	0x3c00d4b0	0.007863209
10	0xbcdf8a6b	-0.027287683
11	0x3d158f10	0.03651339
12	0xbd13fa36	-0.03612729
13	0xbcdac167	-0.02670355
14	0x3d17e171	0.037080232
15	0xbcf7e683	-0.030261284
16	0x3c7b2ce8	0.015330531
17	0x3c9a0f3c	0.018806092
18	0x3d0a18e3	0.03371514
19	0xbd2f26bb	-0.042761546
20	0xbd2cbb1c	-0.04217063
21	0xbd2a4391	-0.041568343
22	0x3ae26edb	0.0017275469
23	0x3ce8be82	0.028411154
24	0xbc78e4d9	-0.01519128
25	0x3be76462	0.007061527
26	0xbc64dc16	-0.013968488
27	0x3c68fb17	0.014220021
28	0x3d16e407	0.036838558
29	0x3d2dbcf0	0.042416513
30	0x3d32997b	0.0436034
31	0xbc47b83b	-0.01218992
32	0xbc91d123	-0.01779992
33	0x3d13a2be	0.036043875
34	0xbc80cfdb	-0.015724113
35	0xbc4efe6c	-0.012633901
36	0xbc7ad1c4	-0.015308801
37	0x3cea0110	0.02856496
38	0xbcee116c	-0.029061042
39	0x3a234502	0.00062282395
40	0x3c9c31ab	0.019066652
41	0xbc3db1c0	-0.011578023
42	0xbc420256	-0.011841377
43	0xbc91b532	-0.017786596
44	0xbd1cbc69	-0.03826562
45	0x3cb5d009	0.022193925
46	0x3cfff427	0.03124435
47	0x3bbf798a	0.005843346
48	0x3c767107	0.015041596
49	0x3d0a0763	0.03369845
50	0x3d22df82	0.039763935
51	0xbc7dd8d4	-0.01549359
52	0x3d04b4e5	0.032399077
53	0x3d190f75	0.037368257
54	0x3c24b303	0.010052445
55	0x3c85c913	0.016331231
56	0xbc9bac62	-0.019003097
57	0x3c7e3266	0.015514946
58	0xbd02161c	-0.031759366
59	0x3d0e6b3b	0.03477023
60	0x3cd69843	0.02619565
61	0x3d1ebf9d	0.038756955
62	0x3c7b0b6d	0.015322548
63	0xbd0e497c	-0.03473805

conv3.0.weight f4 [64, 64, 3, 3]
0	0xbcdf46cb	-0.027255436
1	0x3c0852a9	0.008320489
2	0x3d129c0f	0.03579336
3	0xba97113d	-0.0011525523
4	0xbbede7f0	-0.007260315
5	0x3cbd7026	0.023124766
6	0x3cdb5e90	0.02677849
7	0x3aac958b	0.0013167126
8	0x3b71753a	0.0036843554
9	0x3c927665	0.01787872
10	0x3d0c6f07	0.03428557
11	0x3c32fca1	0.010924489
12	0xbc788cd6	-0.015170297
13	0x3d185229	0.03718773
14	0xbd0b3ff1	-0.033996526
15	0xbcffc998	-0.031224057
16	0xbc33c1a3	-0.01097146
17	0xbcdb97e5	-0.026805827
18	0xbb93bc2b	-0.0045085154
19	0xbd179a6f	-0.037012514
20	0x3bc65fe1	0.00605391
21	0xbc68f96a	-0.014219621
22	0x3bbc9472	0.0057550007
23	0x3c921a52	0.017834816
24	0xbc0738a6	-0.008253252
25	0x3ca41893	0.02003125
26	0xbc6a3b0e	-0.014296306
27	0x3c0c8f28	0.008579053
28	0x3c8c9d27	0.01716478
29	0xbc0a6e14	-0.008449096
30	0xbc478c0f	-0.012179389
31	0xba93a936	-0.0011265639
32	0xbc6484e0	-0.0139476955
33	0x3ce1df89	0.02757241
34	0xbc3653f7	-0.011128417
35	0xbc3457c9	-0.011007258
36	0x3cf82216	0.030289691
37	0x3d08c595	0.033391554
38	0xbc884860	-0.016636074
39	0xbd11070f	-0.035407122
40	0x3ba65737	0.005076315
41	0xbcdfcc64	-0.02731914
42	0xbc25401c	-0.010086086
43	0xbd131327	-0.035906937
44	0x3cadbe0a	0.021208782
45	0xbc0115d0	-0.007878736
46	0xbb27e909	-0.0025621078
47	0x3bc5aad1	0.006032326
48	0x3d1c8c7d	0.038219918
49	0x3cc429c0	0.02394569
50	0xbcd8125b	-0.02637594
51	0x3c911b9c	0.01771336
52	0xbd119282	-0.03554011
53	0x3cd9e8b5	0.026600221
54	0xbcd76a27	-0.026295735
55	0x3cb63863	0.022243684
56	0xbd20a621	-0.039220933
57	0xbc0ad619	-0.008473896
58	0xbd28df2f	-0.04122847
59	0xbc99c49b	-0.018770507
60	0x3b31e015	0.002714162
61	0xbb93b10f	-0.004507191
62	0x3c4834fb	0.012219663
63	0xbd0e5dae	-0.03475731
64	0x3cd88838	0.026432142
65	0xbd24b3e9	-0.04021064
66	0x3c10fe95	0.00884976
67	0x3c0e07a4	0.008668814
68	0x3c8079d6	0.015683096
69	0x3bfe6a55	0.0077641406
70	0x3b980dc9	0.004640315
71	0xbcd32473	-0.025774216
72	0x3bbd5349	0.0057777506
73	0x3cdf39f0	0.027249306
74	0xbc9b08bc	-0.018925063
75	0xbd21832c	-0.039431736
76	0x3cc39bc2	0.023877982
77	0xbc3168d0	-0.010828212
78	0x3d0310a9	0.03199831
79	0xbcd536d3	-0.026027119
80	0xbca76e55	-0.020438353
81	0xbcc58aef	-0.0241141
82	0xbce42d77	-0.02785371
83	0x3d0f1ee5	0.034941573
84	0x3c99cd95	0.018774787
85	0xbcd2ab9f	-0.025716601
86	0x3d2774e9	0.04088298
87	0x3d0b36cd	0.03398781
88	0x3d0d9f3b	0.034575682
89	0x3c45695f	0.012049048
90	0xbc84bdc5	-0.01620377
91	0x3cb59d4b	0.02216973
92	0x39a59399	0.0003158122
93	0x3d1aa507	0.03775504
94	0x3d03aad6	0.032145344
95	0xbc4617a0	-0.012090594
96	0xbcb25b18	-0.021771953
97	0x3c80187e	0.015636679
98	0x3c1ae51d	0.009454039
99	0x39b9258e	0.0003531393
100	0xbc9812de	-0.018563684
101	0x3ca4f693	0.020137107
102	0x3cb9b28e	0.02266815
103	0x3caf88be	0.021427508
104	0x3c7f8e41	0.015597881
105	0xbd287ac5	-0.041132707
106	0xbcec52c9	-0.028848069
107	0x3cfe28a2	0.031025235
108	0xbd1399ae	-0.036035232
109	0x3c41218d	0.011787784
110	0x3c876bc4	0.016530879
111	0x3c1d5383	0.00960243
112	0xbce537f3	-0.02798078
113	0x3be663de	0.007030948
114	0x3d1fa409	0.038974795
115	0xbc9ccd15	-0.01914076
116	0xbd0b0c06	-0.033947013
117	0xbba6745f	-0.0050797905
118	0xbcdddc46	-0.027082574
119	0xbb1bd9f5	-0.0023781036
120	0x3cc042f9	0.023469435
121	0x3d1f7b1b	0.038935762
122	0x3c9945bb	0.018710008
123	0xbce57df8	-0.028014168
124	0x3c9d5d16	0.019209426
125	0x3ca563fb	0.020189276
126	0x3c9c5f31	0.01908836
127	0x3d2663d7	0.04062256
128	0xbc4de5e3	-0.012567016
129	0x3cfd1820	0.030895293
130	0xbc3b08d1	-0.011415676
131	0x3c85632e	0.016282644
132	0x3bd84cb0	0.0066009387
133	0xbb05f9ca	-0.0020443075
134	0x3cf21e3c	0.029555432
135	0xbd0d2c91	-0.03446633
136	0xbcd40f1f	-0.025886117
137	0xbcfd33de	-0.030908521
138	0xbb7b158d	-0.0038312406
139	0xbb870817	-0.0041208374
140	0xbc86dbff	-0.016462324
141	0xbcc9be74	-0.024626948
142	0xbd19a3e0	-0.0375098
143	0x3c854502	0.016268257
144	0xbc40acec	-0.011759978
145	0xbc91a0e0	-0.017776906
146	0x3c6c722b	0.014431517
147	0xbc2b8375	-0.0104683535
148	0x3ba8a2d0	0.005146362
149	0xbcef3b3b	-0.029203048
150	0x3c749f57	0.014930568
151	0xbcc4a0c0	-0.024002433
152	0x3bb12cf8	0.005406972
153	0x3c898a96	0.016789716
154	0xbc8f29d5	-0.017476002
155	0x3d068f84	0.03285171
156	0x3895cf2c	7.1434624e-05
157	0xbcb4d5f5	-0.022074679
158	0x3d280c5b	0.041027408
159	0xbb6b9769	-0.0035948402
160	0x3d07c5dc	0.033147678
161	0xbc9e069a	-0.019290257
162	0xbd03888d	-0.032112647
163	0x3bc06631	0.005871557
164	0x3bb81e84	0.005618872
165	0xbcb2816b	-0.021790227
166	0xbc6fe8cb	-0.0146429045
167	0xbc75dd07	-0.01500631
168	0x3c9f7d1b	0.019468835
169	0x3a4df3ce	0.0007856459
170	0x3cffa1da	0.031205107
171	0xbcfb75c9	-0.030695813
172	0xbc646c65	-0.013941859
173	0xbd2998c7	-0.041405465
174	0xbcf6ec57	-0.030141992
175	0x3c6a657d	0.014306423
176	0xbc90eccb	-0.017691037
177	0xbab12a17	-0.0013516572
178	0x3d1bf90f	0.038079318
179	0x3c9a9bc8	0.01887311
180	0xbc1523e2	-0.009102793
181	0x3d01c686	0.031683467
182	0x3c871d78	0.016493544
183	0xbc36ce63	-0.011157605
184	0x3c644da6	0.013934528
185	0xbccb033d	-0.024781818
186	0xbd212a18	-0.039346784
187	0xbba757a0	-0.0051068813
188	0xbb8d04d7	-0.0043035555
189	0x3c407d50	0.011748627
190	0x3d010172	0.03149552
191	0x3d1077e5	0.03527059
192	0xbc43cf6f	-0.0119513115
193	0x3c8b83b4	0.017030574
194	0xbc28a12f	-0.010292335
195	0xbccafda5	-0.02477915
196	0xbc260d7b	-0.01013505
197	0x3ae5fa29	0.0017545867
198	0x3cad4c36	0.021154504
199	0xbc818c87	-0.015814079
200	0x3bdab199	0.0066740033
201	0xbcdff779	-0.027339684
202	0x3d25b4eb	0.04045574
203	0x3d0b6501	0.03403187
204	0x3cda12e5	0.026620338
205	0x3af909c8	0.0019000107
206	0x3a6e1f8c	0.00090836803
207	0x3bab1f12	0.0052222097
208	0x3d15dc60	0.03658712
209	0x3d271e20	0.040800214
210	0x3d18b096	0.03727778
211	0x3cb97fc7	0.022643937
212	0x3d026a04	0.031839386
213	0xbce570b7	-0.028007848
214	0xbc197143	-0.009365383
215	0xbcdc0fb4	-0.026862957
216	0x3d132265	0.035921473
217	0xbd2045bb	-0.039129
218	0xbc170c74	-0.009219278
219	0xbc9f3b60	-0.019437492
220	0x3d1d4d79	0.03840396
221	0xbc813827	-0.015773846
222	0xbd26cc2d	-0.04072206
223	0xbc9203cc	-0.017824076
224	0x3b3cf104	0.002883018
225	0x3b32cad6	0.0027281544
226	0x3c8fab5d	0.017537767
227	0x3c003e99	0.007827424
228	0xbd13389d	-0.035942663
229	0xbd1a7e39	-0.03771803
230	0x3c73192b	0.0148375435
231	0x3cbda109	0.023148077
232	0xbd199631	-0.03749675
233	0x3b15be02	0.002284885
234	0xbcb4468b	-0.022006294
235	0xbcc3ad13	-0.02388624
236	0x3d1038f8	0.03521058
237	0xbd22d94a	-0.039758004
238	0xbca3ba81	-0.019986393
239	0x3c8338a6	0.016018223
240	0xbb52f0a9	-0.0032186902
241	0x3c5eee15	0.013606568
242	0x3c4df188	0.012569793
243	0xbcffed80	-0.031241179
244	0x3d0b2072	0.03396649
245	0xbcce0783	-0.025150066
246	0x3ca0fdf7	0.01965235
247	0xbbca070f	-0.006165392
248	0x3cb6fdab	0.022337755
249	0x3c1762c9	0.009239861
250	0x3cf837dd	0.030300075
251	0xbcc0172b	-0.023448547
252	0xbd0beb12	-0.034159727
253	0x3ce8f767	0.028438283
254	0xbb41288e	-0.0029473635
255	0xbc3de1c7	-0.011589474

conv3.0.bias f4 [64]
0	0x3d1dc78a	0.038520373
1	0x3bb3b502	0.0054842243
2	0xbc3cf898	-0.011533879
3	0x3c2843b4	0.010270048
4	0xbcea3915	-0.028591672
5	0x3cba0ccd	0.022711182
6	0xbcc48b45	-0.02399219
7	0xbc6679d3	-0.014067131
8	0x3d1377f4	0.036003068
9	0xbc564043	-0.013076845
10	0xbcfd95d4	-0.030955233
11	0x3d080fcf	0.0332182
12	0x3c129461	0.008946509
13	0xbd09c4b9	-0.033634875
14	0x3b93b366	0.00450747
15	0xbafb42f0	-0.0019169729
16	0x3bcfb4ef	0.0063387076
17	0x3cdfc792	0.027316842
18	0x3c10aba2	0.008829983
19	0xbd00bbe2	-0.03142918
20	0x3d0da6cf	0.03458291
21	0xbd1196c3	-0.03554417
22	0x3d1b5e9d	0.037932027
23	0xbd274789	-0.040839706
24	0x3d0aa233	0.03384609
25	0x3ca42d69	0.020041184
26	0xbc980ebf	-0.018561719
27	0x3cf99888	0.03046824
28	0x3b0a5590	0.0021108128
29	0x3d0b0a7c	0.033945546
30	0x3c60936e	0.013707025
31	0x3c22b6c7	0.009931273
32	0xbc837a14	-0.016049422
33	0xbc690227	-0.014221705
34	0x3d1e8ee1	0.03871048
35	0x3d1ec6f5	0.03876396
36	0xbcf12ede	-0.029441293
37	0x3c88bce1	0.016691627
38	0xbc37bc26	-0.011214292
39	0xbcda4ad7	-0.026647015
40	0x3bd10eb9	0.006379929
41	0x3d28e67b	0.04123543
42	0xbcf47b29	-0.029843884
43	0xbcc34638	-0.023837194
44	0xbc943688	-0.018092409
45	0xbcd1ed94	-0.025625981
46	0xbc686e50	-0.014186457
47	0x3bd0b103	0.0063687577
48	0xb9fc1a32	-0.00048084703
49	0x3ca1df8a	0.019759912
50	0xbd12566f	-0.03572696
51	0x3d2a877d	0.041633118
52	0x3cf69118	0.030098483
53	0x3d131b21	0.035914544
54	0xbb196237	-0.0023404488
55	0xbcc12a50	-0.023579746
56	0x3cf1d6ab	0.029521307
57	0xbcfb17b1	-0.030650945
58	0xbc935fe7	-0.017990066
59	0xbb113213	-0.002215509
60	0x3c752ff7	0.014965049
61	0xbccbd9dd	-0.024884159
62	0x3b81a045	0.003955873
63	0xbcdf2251	-0.027238043

fc1.0.weight f4 [80, 970]
0	0xbc6daa9b	-0.014506008
1	0xbcb221a4	-0.021744557
2	0xbc423816	-0.011854192
3	0x3cc1c505	0.023653517
4	0x3c985e0c	0.018599533
5	0x3c81db94	0.015851773
6	0x3b76884a	0.0037617856
7	0x3c31d1e9	0.010853269
8	0x3cba4e61	0.022742452
9	0x3cdd89d6	0.027043264
10	0xbb557f99	-0.0032577275
11	0xbc95f424	-0.018304892
12	0x3c14f1e7	0.009090877
13	0xbc884aad	-0.01663717
14	0x3bee3103	0.0072690262
15	0x3863a737	5.427675e-05
16	0x3c88661d	0.016650254
17	0xbc83203e	-0.016006585
18	0x3baba392	0.005238005
19	0xbac76597	-0.0015212771
20	0x3c7673ad	0.015042228
21	0x3cba5a94	0.02274827
22	0x3cc290a8	0.023750618
23	0xbc822cf0	-0.015890568
24	0x3a995d31	0.0011700747
25	0xbc5dd1bb	-0.013538773
26	0xbd009a06	-0.03139689
27	0x3cbd5b9d	0.023114974
28	0x3cea79ca	0.028622527
29	0x3d022512	0.031773634
30	0x3c23a3b2	0.0099877585
31	0xbc3bc71a	-0.011461044
32	0x3bd8bd27	0.0066143456
33	0xbc151836	-0.009100011
34	0x3cfdcb70	0.030980796
35	0xbcd9a6aa	-0.02656873
36	0xbc9524dc	-0.018206052
37	0x3cfcf547	0.030878676
38	0x3c96e89e	0.018421467
39	0x3c7d6e23	0.015468153
40	0x3ba87b82	0.0051416764
41	0xba8ba9ac	-0.0010655425
42	0x3cac0a97	0.021001143
43	0xbc06971a	-0.008214736
44	0x3c8ca7f2	0.017169926
45	0xbc058de6	-0.008151507
46	0x3ab6b1ae	0.0013938451
47	0x3cc0c843	0.023532992
48	0xbbded127	-0.0067998352
49	0xbce024ce	-0.0273613
50	0xbc9d9265	-0.019234845
51	0xbcaa1f2b	-0.020766815
52	0x3c4a6dbe	0.012355266
53	0xbc890457	-0.016725702
54	0xbc96667e	-0.018359419
55	0x3b5edf14	0.0034007477
56	0x3d03b0d3	0.032151055
57	0xbcb5b3b1	-0.02218041
58	0x3cbf1aff	0.023328302
59	0xbb91fe39	-0.0044553545
60	0x3ced0169	0.028931336
61	0xbcdf81e2	-0.027283613
62	0x3c9bd770	0.019023627
63	0xbce27b8d	-0.027646804
64	0x3cdc3175	0.026879052
65	0x3cc89a30	0.024487585
66	0x3cd8bd8b	0.026457569
67	0x3cc5dd03	0.024153238
68	0x3c1a6451	0.009423331
69	0x3cda52e1	0.026650848
70	0xbc98d194	-0.018654622
71	0x3bc3d8d4	0.0059767757
72	0xbc6ae9c6	-0.0143379625
73	0x3c0b42d0	0.008499816
74	0x3bfb2598	0.0076643936
75	0xb941b1a8	-0.00018472096
76	0xbc3b53ab	-0.011433522
77	0xbcfef9c1	-0.031124951
78	0xbd01e0a1	-0.031708363
79	0xbc69a126	-0.014259612
80	0x3c1c8d52	0.009555178
81	0xbb97e061	-0.0046349023
82	0x3c8c839e	0.017152604
83	0x3c1c5843	0.009542528
84	0x3c9cb5f2	0.019129727
85	0xbc83d956	-0.016094845
86	0x3cb62b25	0.02223737
87	0x3bd0fc71	0.0063777496
88	0xbcfeabb0	-0.031087726
89	0xbc9b4358	-0.01895301
90	0x3cd1ae94	0.02559594
91	0xbc9229dc	-0.017842226
92	0x3c27ac56	0.010233959
93	0x3c69a416	0.014260313
94	0x3c07b9aa	0.008284012
95	0x3cf7079b	0.030154994
96	0xbbdc5c8c	-0.0067248996
97	0xbce54f85	-0.02799202
98	0xbcfa3723	-0.03054387
99	0xbcdd534e	-0.027017262
100	0xbc1a494b	-0.0094168885
101	0xbcd985a0	-0.026552975
102	0x3cfecb7c	0.031102888
103	0xbc12ac50	-0.008952215
104	0x3c74b42e	0.014935536
105	0xbccdb1d1	-0.025109204
106	0x3c4f5782	0.012655141
107	0xbbd11e32	-0.0063817734
108	0xbc61441e	-0.013749151
109	0x3cabcfea	0.020973165
110	0x39a2138f	0.0003091362
111	0x3cb149e8	0.021641687
112	0xbcd28510	-0.025698215
113	0x3bcbdfbd	0.00622174
114	0x3ca950a7	0.02066834
115	0xbcb1ab12	-0.021688018
116	0xbc57dec0	-0.013175666
117	0xbc260b58	-0.0101345405
118	0xbc100148	-0.008789368
119	0xbbc2bd5b	-0.005942983
120	0x3c2e70bb	0.010646994
121	0x3c19a9f7	0.009378902
122	0x3c4705a3	0.01214734
123	0xbb9af94d	-0.004729426
124	0xbc8013fc	-0.01563453
125	0x3c911d98	0.017714307
126	0x3bdddbfc	0.006770609
127	0xbcbfe82c	-0.023426138
128	0x3ca5601f	0.020187436
129	0x3cfba6a7	0.030719114
130	0x3bc08fdc	0.0058765244
131	0xbc99cb0b	-0.018773576
132	0xbc6ad533	-0.014333057
133	0xbca84c19	-0.020544099
134	0xbc01838f	-0.007904901
135	0xbc9fbd86	-0.019499552
136	0xbc911248	-0.017708912
137	0xbcc37bd5	-0.023862759
138	0xbc605360	-0.013691753
139	0x3cd733d5	0.026269833
140	0xbc5c2ebd	-0.013438878
141	0xbc857ee4	-0.016295858
142	0x3c324f42	0.010883154
143	0x3cc7e85d	0.024402792
144	0x3c67fc03	0.014159205
145	0xbbdb4b61	-0.0066923355
146	0x3c39fa11	0.011351124
147	0xbc94ed96	-0.018179696
148	0x3bcc0617	0.006226312
149	0x393c5916	0.00017962264
150	0xba5efb13	-0.0008506041
151	0x3c830e17	0.01599793
152	0x3cb0d5c7	0.021586312
153	0xbb8b3882	-0.0042486796
154	0xbca7b322	-0.02047116
155	0xbc4e4ddf	-0.012591808
156	0x3cd4ebd0	0.02599135
157	0x3cb1be7c	0.021697275
158	0x3b4c11fa	0.0031138645
159	0x3ce7e050	0.028305203
160	0x3c53996c	0.012914997
161	0xbcca99ae	-0.024731483
162	0xba9f2489	-0.0012141626
163	0xbc5c29e4	-0.013437722
164	0xbc8b0f3f	-0.016975043
165	0xbbba6eab	-0.005689462
166	0x3b31ad1c	0.0027111238
167	0x3cf60a0e	0.030034091
168	0x3c188cef	0.009310945
169	0xbcacfc4a	-0.021116395
170	0x3c8d8cba	0.017279018
171	0x3c6a3d77	0.014296881
172	0xbbb3a38c	-0.005482143
173	0x3c2febdf	0.010737388
174	0xba7cfd71	-0.0009650803
175	0x3c38049a	0.011231566
176	0xbce38463	-0.027773088
177	0x3b2af65a	0.0026086778
178	0xbbed699f	-0.007245257
179	0xbcd0f95f	-0.025509534
180	0xbcee7f06	-0.029113304
181	0x3cc532f7	0.024072153
182	0xbcb92310	-0.022599727
183	0xbbd94d36	-0.0066315187
184	0xbcd58986	-0.026066553
185	0x3c36ade0	0.0111498535
186	0xbcfbc4cd	-0.03073349
187	0xbca50137	-0.02014218
188	0xbc5f71af	-0.013637944
189	0xbcb3856d	-0.021914208
190	0x3ae77b3f	0.0017660632
191	0x3cd6f455	0.026239553
192	0x3a576b21	0.00082175626
193	0x3c9b2f09	0.018943327
194	0x3d00d77b	0.0314555
195	0xbbd4c151	-0.0064927717
196	0x3bc4fe96	0.0060117943
197	0xbcd6b8a1	-0.026211085
198	0x3a6abe70	0.0008954769
199	0xbc317f01	-0.010833503
200	0xbce2c87e	-0.027683493
201	0x3ce56eca	0.02800693
202	0xbcea0d81	-0.028570892
203	0xbcac65ca	-0.02104463
204	0xbc68204c	-0.014167856
205	0x3a931afe	0.0011223254
206	0xbc67541d	-0.014119175
207	0xbc9e40bc	-0.019317977
208	0xbc95b528	-0.018274859
209	0x3adb6e4a	0.0016741243
210	0xbcd4d40a	-0.025980014
211	0x3b490f14	0.0030679153
212	0x3c38f47c	0.011288758
213	0x3c4d17ea	0.012517909
214	0xbb095b75	-0.0020959054
215	0x3c9ad596	0.018900674
216	0xbcd87110	-0.0264211
217	0x3caca305	0.021073828
218	0x3c5a6259	0.013329112
219	0x3b068e24	0.00205315
220	0x3c9a4bdd	0.018835003
221	0x3bd8bbc5	0.0066141807
222	0xbc086751	-0.008325414
223	0xbc356116	-0.01107051
224	0x3c856763	0.01628465
225	0x3c053474	0.008130182
226	0x3c19242c	0.009347003
227	0x3ca536a3	0.020167654
228	0xbc491dfe	-0.012275217
229	0x3cbafd91	0.022825988
230	0xbc2b01be	-0.010437427
231	0xbb1ef87f	-0.0024257002
232	0xbccf9fb8	-0.025344715
233	0xbca31dd2	-0.01991168
234	0x3ce17b34	0.027524568
235	0xbcde048f	-0.027101783
236	0xbc8790ac	-0.016548477
237	0x3c74de01	0.014945508
238	0x3c9bfdba	0.019041885
239	0x3cd9c7c6	0.026584517
240	0xbbcec8cf	-0.0063105593
241	0x3cee86d4	0.029117025
242	0x3cc2582d	0.023723686
243	0x3cc3084e	0.02380767
244	0xbc48e45c	-0.012261476
245	0xbcd5bce0	-0.02609104
246	0x3c2aa338	0.010414891
247	0xbc1612d9	-0.009159767
248	0x3cf77b54	0.030210175
249	0x3cb84705	0.022494802
250	0xbb1f19da	-0.0024276883
251	0x3b928409	0.004471306
252	0x3cc401e6	0.023926686
253	0x3934a12d	0.0001722618
254	0x3c81b95c	0.015835457
255	0xbb304794	-0.0026898133

fc1.0.bias f4 [80]
0	0x3cf9a68b	0.030474922
1	0x3cbc7914	0.023006953
2	0xbcd3593f	-0.025799392
3	0x3c5a2add	0.013315883
4	0x3c1e989f	0.009679942
5	0xbca62bc9	-0.02028455
6	0xbcb489c8	-0.022038355
7	0xbcb43608	-0.02199842
8	0xbcef9fff	-0.029251097
9	0xbcb23f83	-0.0217588
10	0xbc3d7a05	-0.011564736
11	0xbc4054f4	-0.011739004
12	0xbca56589	-0.020190017
13	0x3cee7631	0.029109092
14	0x3c1bf2a3	0.009518298
15	0x3b81d8cf	0.003962613
16	0xbd0057e0	-0.031333804
17	0xbc5833f3	-0.013195979
18	0xbc38daad	-0.011282605
19	0xbc649db4	-0.013953615
20	0xbcb2f0f9	-0.02184342
21	0x3b8e9718	0.004351508
22	0xbc59e3b7	-0.01329892
23	0x3bcfbaca	0.0063394057
24	0xbc6a5065	-0.014301394
25	0x3b306010	0.0026912726
26	0x3ce15df7	0.027510626
27	0x3a01cb02	0.000495121
28	0x3ba6e00a	0.0050926255
29	0xbbebdcaa	-0.007197936
30	0xbc00baa7	-0.007857001
31	0xbc7aea8a	-0.0153147075
32	0xbce6a667	-0.028155519
33	0xbcebafd9	-0.028770374
34	0xbd03c2eb	-0.03216831
35	0xbcf59946	-0.029980313
36	0x3d00f893	0.03148706
37	0xbc9d0950	-0.01916948
38	0x3c23fec1	0.0100094685
39	0xbc95d5bf	-0.018290399
40	0xbcf29056	-0.02960984
41	0xbbf19fac	-0.0073737707
42	0xbbe72a2b	-0.0070545874
43	0xbc43934d	-0.011936975
44	0xbb993822	-0.004675881
45	0x3c016757	0.007898173
46	0x3c826c5b	0.015920809
47	0x3b8bbdb4	0.0042645577
48	0x3c0e7465	0.008694743
49	0x3c805146	0.015663754
50	0x3c504f3c	0.012714203
51	0x3c665e29	0.0140605355
52	0x3cf0e9d7	0.029408379
53	0x3a25c7d1	0.00063240255
54	0xbc92c27e	-0.017915007
55	0xbbea5f44	-0.00715247
56	0xbcfae7f6	-0.030628186
57	0x3caff310	0.021478206
58	0xbd036599	-0.032079313
59	0xbd02a53d	-0.031895865
60	0xbcb8036c	-0.02246257
61	0xbc3b55cb	-0.011434029
62	0x3ce1aea7	0.027549101
63	0x3c5e2df7	0.013560764
64	0xbbb0d68f	-0.005396671
65	0x3cc18eeb	0.023627719
66	0xbc78aaf5	-0.015177478
67	0x3c2f1e6a	0.010688404
68	0xbc8003a0	-0.015626729
69	0xbc2c4276	-0.010513892
70	0xbcaae925	-0.020863125
71	0x3c0110e5	0.007877563
72	0x3cd1504f	0.02555099
73	0x3c224957	0.009905181
74	0x3b9c86a5	0.004776793
75	0xbc61e2a6	-0.013786947
76	0x3cba0fd0	0.022712618
77	0x3c6bed46	0.014399832
78	0x3a85718b	0.0010180933
79	0x3bcbc4a2	0.006218509

out.weight f4 [40, 80]
0	0xbd95e926	-0.0731986
1	0x3d285191	0.041093413
2	0x3d6f7177	0.058457818
3	0x3a9c2f8f	0.0011916029
4	0xbd7546e7	-0.05988207
5	0xbd6bdef1	-0.05758566
6	0xbc8bde82	-0.017073873
7	0x3c8b2f39	0.016990291
8	0xbddfa03e	-0.10919236
9	0x3d52a318	0.05142507
10	0x3c3a5869	0.011373618
11	0xbdd4b226	-0.103855416
12	0x3d13d12f	0.036088165
13	0xbdaf3362	-0.08554722
14	0x3c871e9f	0.016494093
15	0x3c12c05d	0.008956996
16	0x3de3f98b	0.11131581
17	0x3d227a56	0.03966745
18	0xbd85cad3	-0.06532826
19	0x3cd3e867	0.025867654
20	0xbde35e8f	-0.1110202
21	0xbd1ad665	-0.03780212
22	0xbd004aba	-0.031321265
23	0x3dd69c6c	0.10479054
24	0x3dc34d4a	0.09536226
25	0x3ddb199d	0.10698245
26	0xbd243618	-0.04009065
27	0x3de17815	0.11009232
28	0xbc44e3b1	-0.0120171765
29	0xbc214ff0	-0.009845719
30	0xbdd8ce3a	-0.105862096
31	0x3caa6c91	0.020803722
32	0xbd1a8a14	-0.037729338
33	0xbd102a3e	-0.035196535
34	0x3c86e3a7	0.016465975
35	0xbd825bca	-0.063651636
36	0x3daac666	0.08338623
37	0x3d8958d6	0.06706397
38	0xbd1431de	-0.03618037
39	0xbd9372c0	-0.07199621
40	0xbdbec32b	-0.09314569
41	0x3c3e5572	0.011617051
42	0x3d91033c	0.07080695
43	0xbccf0b38	-0.025273904
44	0x3d03e634	0.03220196
45	0xbd07fd27	-0.03320041
46	0x3cb01b48	0.021497384
47	0x3b7092be	0.003670856
48	0x3d3e703d	0.046493758
49	0xbd9ab414	-0.075538784
50	0x3d0ebcb9	0.03484795
51	0xbd1bf3d5	-0.038074333
52	0x3d49a671	0.049230997
53	0x3a175fef	0.0005774488
54	0x3ce3f904	0.0278287
55	0x3dad4e88	0.08462244
56	0xbdb0f378	-0.08640188
57	0xbda57cca	-0.08080442
58	0x3d4b4658	0.049627632
59	0xbd97e36f	-0.074164264
60	0xbd67ccb9	-0.056591723
61	0x3dcaca84	0.09901908
62	0x3ce0f6e7	0.027461482
63	0x3d849a6b	0.064747654
64	0xbcbed7e0	-0.023296297
65	0x3cf31507	0.029673113
66	0x3dbf55df	0.093425505
67	0x3d8fa9af	0.070147865
68	0x3c8266a5	0.015918085
69	0x3daa0ec3	0.08303597
70	0x3d146b86	0.036235355
71	0x3db68416	0.08911912
72	0xbca76288	-0.020432726
73	0xbda093e7	-0.0784071
74	0xbbb2e8ba	-0.005459872
75	0x3d493f45	0.049132604
76	0x3c5e4121	0.013565333
77	0xbd9bd6a7	-0.07609301
78	0xbd1e3a15	-0.03862961
79	0xbdcc7802	-0.09983827
80	0x3d6f32fb	0.05839823
81	0xbd85d01b	-0.065338336
82	0x3dd37235	0.10324518
83	0xbdba9cd3	-0.09111943
84	0x3c8676b9	0.016414033
85	0xbd1c05ec	-0.038091585
86	0x3d0386b5	0.03211089
87	0x3db9cd32	0.09072341
88	0xbd9cdfab	-0.07659849
89	0xbd05c10c	-0.032654807
90	0xbcfd24f6	-0.030901413
91	0xbd726cbf	-0.05918574
92	0xbda9e784	-0.08296111
93	0x3d10a8dd	0.03531729
94	0x3d6e1424	0.058124676
95	0x3dad7fbd	0.0847163
96	0xbd5729b2	-0.052529998
97	0x3d79df73	0.061004113
98	0xbdd7323c	-0.10507628
99	0xbd8f4967	-0.06996422
100	0xbd4563b9	-0.048190806
101	0xbbbb42f5	-0.005714769
102	0xbd8e8be0	-0.06960273
103	0xbb96da20	-0.0046036392
104	0xbd3fadae	-0.046796493
105	0x3d9ea6a8	0.07746631
106	0x3de3ca4d	0.1112257
107	0x387bacf7	6.000415e-05
108	0x3dd78b95	0.1052467
109	0xbd7a0d29	-0.061047707
110	0xbcca0516	-0.024660628
111	0xbd26fdb8	-0.04076931
112	0x3db380f4	0.0876483
113	0xbd8d2ee9	-0.06893713
114	0xbdbadf57	-0.0912463
115	0x3dcea011	0.10089124
116	0xbb794315	-0.0038034369
117	0x3da93e7a	0.082638696
118	0xbda43f50	-0.080198884
119	0x3d9e92d0	0.07742846
120	0x3d36dd44	0.04464461
121	0x3d1d0ce4	0.03834237
122	0xbd4561b4	-0.04818888
123	0x3d4efb5e	0.05053269
124	0xbdbf5a78	-0.093434274
125	0x3cf71656	0.030162018
126	0x3db0b29c	0.08627817
127	0xbd83bd19	-0.06432552
128	0x3c8c6b39	0.017140971
129	0x3c1333d2	0.008984523
130	0xbde0dea0	-0.10979962
131	0xbdb1643c	-0.08661696
132	0xbd238039	-0.039917205
133	0x3dc7ccb9	0.097558446
134	0x3c3a693d	0.01137763
135	0xbc444e02	-0.011981489
136	0xbd59e925	-0.05320086
137	0x3d8968f9	0.06709475
138	0xbd943aa2	-0.07237746
139	0xbddbd33f	-0.10733651
140	0xbd23eda2	-0.040021546
141	0x3ccb0948	0.0247847
142	0xbd9deb6f	-0.07710921
143	0x3d9a8c37	0.07546275
144	0xbd24bdf7	-0.040220227
145	0xbd608835	-0.054817397
146	0xbddd50b7	-0.10806411
147	0x3ccc2105	0.024918089
148	0x3d321d50	0.043484986
149	0x3d4ba0c3	0.04971386
150	0xbd902834	-0.07038918
151	0x3c867888	0.016414896
152	0x3d038ec0	0.03211856
153	0x3d1abbf2	0.037776895
154	0xbde18ec4	-0.110135585
155	0x3da3aad9	0.07991571
156	0x3db5815e	0.088625655
157	0xbd6b216e	-0.057404928
158	0xbda53c9b	-0.080682
159	0x3d929e19	0.07159061
160	0x3cd54565	0.026034066
161	0x3d624034	0.05523701
162	0x3da6dcc2	0.08147575
163	0x3b99f880	0.004698813
164	0xbca3b514	-0.019983806
165	0xbd397105	-0.0452738
166	0x3da2fa1e	0.07957862
167	0xbdb43753	-0.08799615
168	0x3d6b4af7	0.05744454
169	0xbd8e70da	-0.069551185
170	0xbcf9fc7d	-0.030515904
171	0xbda35c4c	-0.079765886
172	0x3d78c1d4	0.060731724
173	0xbde259c3	-0.11052277
174	0xbd914627	-0.070934586
175	0xbdc3ce97	-0.09560888
176	0xbd5a0b01	-0.05323315
177	0x3c3cc6a0	0.011521965
178	0xbd7fe432	-0.062473483
179	0xbdd11842	-0.10209705
180	0xbd821926	-0.06352453
181	0xbd7b0010	-0.061279356
182	0x3c40472e	0.011735721
183	0x3ccf3838	0.025295362
184	0xbd6d9658	-0.058004707
185	0xbdc059b4	-0.093921095
186	0xbd3d5c09	-0.04623035
187	0x3ac4cae9	0.0015014085
188	0x3cfb8310	0.030702144
189	0x3da4a2f2	0.08038892
190	0xbd87e1a4	-0.066348344
191	0xbb9059a6	-0.004405218
192	0x3d16d41b	0.036823373
193	0x3d2329fc	0.03983496
194	0xbd8176c6	-0.06321482
195	0xbda32e3d	-0.079678036
196	0x3d802982	0.06257917
197	0xbd34d838	-0.044151515
198	0xbce2b6cc	-0.027675055
199	0x3b85434b	0.00406686
200	0x3da5d582	0.08097364
201	0xbdac7744	-0.084211856
202	0x3d3da325	0.046298165
203	0xbd06e729	-0.032935295
204	0xbcf3504c	-0.029701374
205	0x3c6d0f26	0.014468944
206	0x3d020c3d	0.031749953
207	0xbd2a2754	-0.041541412
208	0x3d1f3df9	0.03887746
209	0xbdbd44bd	-0.092416264
210	0x3c2a323d	0.010387954
211	0xbd0745f3	-0.033025693
212	0x3d865ade	0.065603
213	0x3c556aab	0.01302592
214	0xbd9d8a4f	-0.07692396
215	0xbddc5aba	-0.10759492
216	0xbaea3f5d	-0.0017871667
217	0xbdafe012	-0.0858766
218	0x3d97c3af	0.074103706
219	0x3dc145e2	0.09437157
220	0xbd9b8533	-0.07593765
221	0xbda93c20	-0.08263421
222	0x3c9f1c70	0.01942274
223	0xbdc07a58	-0.09398335
224	0x3db63582	0.088969246
225	0x3c915117	0.017738862
226	0xbdbf72fe	-0.09348105
227	0xbcb5451c	-0.02212768
228	0x3d4b614d	0.04965334
229	0xbd71a8e5	-0.05899896
230	0x3dc8f7a8	0.09812862
231	0x3ce46fa0	0.027885258
232	0x3d952118	0.07281703
233	0xbdb77bc3	-0.089591525
234	0xbdc6583d	-0.09684799
235	0x3c9fe472	0.01951811
236	0xbc6bc6c5	-0.014390652
237	0x3c5b680a	0.013391504
238	0x3d5d33db	0.05400453
239	0x3d61f99c	0.055169687
240	0x3d8b773d	0.06809852
241	0xbcff6317	-0.03117518
242	0xbbc42c54	-0.0059867296
243	0x3dab813b	0.08374258
244	0x3d907ebc	0.07055423
245	0x3dc38c0f	0.095481984
246	0x3dc50821	0.09620691
247	0x3d68b33a	0.05681155
248	0x3ad6bd33	0.001638329
249	0x3dbf37a1	0.09336782
250	0xbd8b3735	-0.06797639
251	0x3d4dc873	0.05023999
252	0x3c974808	0.018466964
253	0xbd8ef7ba	-0.06980844
254	0x3d092de7	0.03349104
255	0x3d659b0e	0.056056075

out.bias f4 [40]
0	0xbd369f06	-0.04458525
1	0x3dc53410	0.09629071
2	0x3cbf9b0a	0.023389358
3	0xbd3729a8	-0.04471746
4	0xbc57d3ed	-0.013173086
5	0xbd333055	-0.043747265
6	0x3dc197d6	0.094527885
7	0xbdba90d8	-0.09109658
8	0x3cf51f09	0.029922025
9	0xbd82f46a	-0.063942745
10	0x3db46e27	0.088100724
11	0x3d0e90a5	0.034805913
12	0x3c2dc62c	0.01060633
13	0xbca5b47d	-0.020227665
14	0x3d962733	0.073316954
15	0x3dc8e4cb	0.09809264
16	0x3d8baaa1	0.06819654
17	0xbd9d6def	-0.07686984
18	0xbd049fad	-0.03237884
19	0xbd6077ee	-0.054801874
20	0x3d9bf745	0.07615522
21	0xbccf4dde	-0.025305685
22	0xbd4bd7e9	-0.049766455
23	0x3b8b26bf	0.0042465623
24	0xbd019644	-0.031637445
25	0xbd7aa3d8	-0.06119141
26	0xbc7f5464	-0.015584085
27	0xbbec2750	-0.007206835
28	0xbba91e5c	-0.00516109
29	0xbdc9904f	-0.09841978
30	0xbc597b81	-0.0132740745
31	0xbce08fe4	-0.027412362
32	0xbcb0cce9	-0.021582084
33	0x3d2c1712	0.04201419
34	0xbdaa4cc2	-0.08315422
35	0xbd19f3b5	-0.037585933
36	0x3cfaf72d	0.03063544
37	0x3d521e01	0.051298145
38	0xbc9cd5ad	-0.019144857
39	0x3dc4bdb9	0.09606499
