1500params3.pth (torch, 607751 bytes, 10 tensors)

conv1.0.weight f4 [32, 4, 2, 2]
-0.096262895 0.16762327 0.09357603 0.18079698 -0.23113021 0.05012741 0.19451264 -0.007968532
-0.21619162 -0.056351893 0.08871885 -0.093291305 -0.06424296 -0.08050802 0.026779415 0.0031132798
-0.11439827 0.21216844 0.06910345 0.08122032 -0.24103487 -0.16512385 -0.14422563 -0.16020331
0.122837506 0.21591905 -0.081354156 0.053991552 -0.17089775 0.12744416 -0.008985178 -0.00018594362
-0.030524889 0.20517579 -0.1679445 0.21330944 0.018737452 0.054604534 0.086474985 0.15043803
-0.05001508 -0.11836673 0.22872236 0.037751704 0.13686395 -0.043984365 -0.19047637 -0.07184197
-0.19646887 0.24626118 0.0070583965 0.19498326 0.21078011 -0.035017513 0.06317524 -0.027461575
-0.2246657 0.14643614 -0.08682666 0.2144682 0.11246166 -0.018302057 0.16079843 0.10463895
0.22128133 0.001657134 -0.09241525 -0.042158242 0.23254791 0.19661048 0.1996186 -0.039230473
-0.08736761 0.01941099 -0.15147473 -0.09537073 0.24835217 0.028430391 0.11056141 -0.079235226
0.07729503 0.09026897 -0.17230311 0.24095027 -0.028001355 -0.1492363 -0.087164514 0.20135729
-0.16676347 -0.23090489 -0.2426767 0.20737877 -0.043329272 -0.026950767 -0.11783723 0.09853229
0.19789688 0.14645237 0.16582806 -0.018690178 0.06618105 -0.09899651 0.18772916 -0.07947335
-0.08533 0.023238184 -0.18587351 -0.15532835 0.20879303 -0.09810155 -0.105417706 0.11563343
-0.01659768 0.041398373 0.18562907 -0.08089794 -0.056219142 -0.24802417 0.061043963 -0.120002694
-0.13860446 0.13125174 -0.011957582 0.2028957 -0.1497119 0.21265568 -0.055525307 -0.048022717
-0.04525928 0.20966075 -0.024726234 -0.21645667 -0.14167371 -0.13537352 -0.029778741 -0.17541988
0.03171482 0.006395452 0.11573302 -0.20219557 0.24810432 0.048588734 0.027411496 -0.18036024
0.17002498 0.15981688 0.09776414 -0.15576352 -0.14748673 0.17440027 -0.19018391 0.031231914
-0.04346447 0.19415163 -0.22445036 -0.10780982 -0.065615386 -0.07548704 -0.18613559 -0.09714059
-0.14872639 0.19961834 -0.14338271 0.0067304056 -0.24874869 -0.1292142 0.19188675 -0.20789737
-0.04323033 -0.11642829 -0.023305926 -0.011690709 -0.067794695 -0.11778395 0.09901503 -0.03345099
0.06251053 -0.20751305 -0.04345017 -0.092152596 0.115495205 -0.02402152 -0.13810785 -0.2364346
0.019768039 -0.13863221 -0.20964614 -0.15982673 0.24099626 -0.13518474 -0.08078361 -0.22213316
-0.19391026 -0.13655865 -0.24871594 0.06927767 -0.037856042 0.10412049 -0.08381604 -0.12707698
-0.032945976 0.17418075 0.14355987 -0.063980795 0.050108075 -0.07242097 0.006224072 0.18688264
0.14053524 -0.00866255 0.07293506 0.06125788 -0.14652206 -0.05357046 0.21292204 0.08409624
-0.004360693 0.2375261 -0.07071581 -0.12250363 -0.11165938 0.14740868 0.0773765 0.15940057
0.1532518 -0.100579135 -0.03778699 -0.18281092 0.14298071 0.1672297 -0.17586131 -0.14857657
0.030054692 0.018468387 0.12621637 0.11129648 -0.20798935 0.03256099 -0.010183791 0.14849928
0.21696164 0.18186386 0.14725937 -0.15004873 -0.14578673 -0.17216861 0.2375529 -0.21915461
0.13996235 0.20741057 -0.24865487 0.027965823 -0.1476324 0.05395071 0.062455583 -0.11061432
00000000: 7b25 c5bd 6fa5 2b3e caa4 bf3d d822 393e
00000010: 66ad 6cbe 6652 4d3d 522e 473e 728e 02bc
00000020: 5661 5dbe 3ed1 66bd 3ab2 b53d 830f bfbd
00000030: d091 83bd 64e1 a4bd 8160 db3c 2b08 4c3b
00000040: a449 eabd af42 593e 1c86 8d3d d756 a63d
00000050: d8d1 76be 3a16 29be e2af 13be 560c 24be
00000060: 3b92 fb3d e219 5d3e 029d a6bd 3f26 5d3d
00000070: d2ff 2ebe b980 023e 9136 13bc dcf9 42b9
00000080: 550f fabc 9a19 523e a5f9 2bbe ca6d 5a3e
00000090: 497f 993c 01a9 5f3d cc19 b13d 6d0c 1a3e
000000a0: 9ddc 4cbd 426a f2bd 3236 6a3e 88a1 1a3d
000000b0: 1026 0c3e f328 34bd 3d0c 43be e221 93bd
000000c0: 232f 49be e42b 7c3e 1f4a e73b b1a9 473e
000000d0: bed6 573e 866e 0fbd 0562 813d 19f7 e0bc
000000e0: c40e 66be 5bf3 153e 2dd2 b1bd 8d9d 5b3e
000000f0: 4c52 e63d 32ee 95bc 58a8 243e f24c d63d
00000100: 9397 623e 3134 d93a 3544 bdbd 1fae 2cbd
00000110: 0a21 6e3e 4254 493e d168 4c3e 22b0 20bd
00000120: caed b2bd cc03 9f3c 311c 1bbe bb51 c3bd
00000130: 0850 7e3e dae6 e83c 056e e23d 1446 a2bd
00000140: db4c 9e3d f0de b83d 3a70 30be abbb 763e
00000150: 1963 e5bc 67d1 18be 4f83 b2bd 9b30 4e3e
00000160: 0bc4 2abe 5572 6cbe 3e80 78be 1a5b 543e
00000170: 097a 31bd dbc7 dcbc a554 f1bd 4ccb c93d
00000180: 7ba5 4a3e 9cf7 153e d5ce 293e 251c 99bc
00000190: ee89 873d afbe cabd 133c 403e ecc2 a2bd
000001a0: 7fc1 aebd 015e be3c a055 3ebe 650e 1fbe
000001b0: d7cd 553e 77e9 c8bd 3de5 d7bd 38d1 ec3d
000001c0: dcf7 87bc 5791 293d 8c15 3e3e d2ad a5bd
000001d0: 0b46 66bd 0cfa 7dbe 3c09 7a3d f9c3 f5bd
000001e0: 54ee 0dbe db66 063e bce9 43bc e4c3 4f3e
000001f0: 144e 19be 69c2 593e 816e 63bd 78b3 44bd
00000200: cb61 39bd 4fb1 563e ac8e cabc d1a6 5dbe
00000210: ea12 11be 5b9f 0abe 8cf2 f3bc 45a1 33be
00000220: 66e7 013d f190 d13b 6f05 ed3d 5b0c 4fbe
00000230: 0f0f 7e3e fb04 473d 138e e03c 5bb0 38be
00000240: 071b 2e3e 09a7 233e 9138 c83d 7980 1fbe
00000250: c306 17be fc95 323e 92bf 42be 12da ff3c
00000260: cd07 32bd afcf 463e 51d6 65be 65cb dcbd
00000270: 5c61 86bd f398 9abd 549a 3ebe a5f1 c6bd
00000280: bb4b 18be c068 4c3e ebd2 12be bc8a dc3b
00000290: fab7 7ebe ba50 04be f67d 443e 0ce3 54be
000002a0: 4912 31bd f571 eebd 12ec bebc 638a 3fbc
000002b0: f2d7 8abd b638 f1bd 64c8 ca3d e803 09bd
000002c0: 8505 803d 4d7e 54be cef8 31bd 80ba bcbd
000002d0: c088 ec3d c7c8 c4bc 256c 0dbe e91b 72be
000002e0: 95f0 a13c 9af5 0dbe 7aad 56be 9ea9 23be
000002f0: b9c7 763e de6d 0abe e171 a5bd e076 63be
00000300: 6990 46be 08d6 0bbe 64af 7ebe 73e1 8d3d
00000310: f00e 1bbd 203d d53d bea7 abbd 7820 02be
00000320: 5cf2 06bd 705c 323e 5c01 133e 5d08 83bd
00000330: 203e 4d3d 7251 94bd 4df3 cb3b 2a5e 3f3e
00000340: 78e8 0f3e 5eed 0dbc fa5e 953d 8be9 7a3d
00000350: e109 16be b36c 5bbd 3c08 5a3e a63a ac3d
00000360: 25e4 8ebb 0b3a 733e 73d3 90bd 2fe3 fabd
00000370: acad e4bd 4df2 163e 9277 9e3d e739 233e
00000380: 0aee 1c3e 6ffc cdbd 88c6 1abd c932 3bbe
00000390: 8969 123e 433e 2b3e fd14 34be 7524 18be
000003a0: 4235 f63c 044b 973c dd3e 013e 69ef e33d
000003b0: 29fb 54be ac5e 053d ead9 26bc 3210 183e
000003c0: 312b 5e3e 853a 3a3e 29cb 163e 60a6 19be
000003d0: 1e49 15be f84c 30be 1141 733e 116a 60be
000003e0: 4a52 0f3e 7063 543e 629f 7ebe 9518 e53c
000003f0: f32c 17be 6bfb 5c3d 6dd1 7f3d c389 e2bd

conv1.0.bias f4 [32]
0.046196647 -0.18814401 -0.19103876 -0.22531004 -0.23261608 -0.12912868 -0.084466435 0.1116222
-0.17540492 0.023917394 0.21581818 -0.06066963 -0.13847946 0.21279061 -0.11339345 -0.0061692554
-0.18166535 -0.114061855 -0.040225755 -0.15320519 -0.030738287 0.13598776 0.24310789 -6.150798e-05
-0.02408454 -0.14512388 -0.09293144 -0.04665315 0.18951423 0.20924205 0.16883405 0.22856957
00000000: b238 3d3d d3a8 40be aa9f 43be adb7 66be
00000010: e932 6ebe 4f3a 04be bdfc acbd 2e9a e43d
00000020: 599d 33be 69ee c33c 71ff 5c3e b880 78bd
00000030: 8fcd 0dbe c8e5 593e d33a e8bd 7727 cabb
00000040: 7b06 3abe 4399 e9bd c3c3 24bd d2e1 1cbe
00000050: dcce fbbc 6040 0b3e 46f1 783e d8fd 80b8
00000060: f14c c5bc 5b9b 14be d752 bebd 6017 3fbd
00000070: 0510 423e 8c43 563e d5e2 2c3e 240e 6a3e

conv2.0.weight f4 [64, 32, 4, 4]
0.033595894 0.032568824 0.041248046 -0.030396743 0.007858381 0.015752459 0.0393785 0.01389957
0.0023843683 0.012859017 0.044021428 0.0034275139 0.01921118 -0.034223255 0.010345033 0.033466924
-0.034492616 -0.036625877 -0.040989745 -0.022665989 -0.03146022 0.039564796 0.017224861 0.02734116
-0.023002706 -0.028025512 -0.022115702 0.0074003665 -0.036866482 0.018845787 -0.0010635767 -0.021951389
-0.037169736 -0.0034599192 -0.039773863 -0.040759187 -0.028052801 -0.0230734 -0.040911198 -0.041287407
0.03171944 0.015398233 0.028576668 -0.018626392 -0.03235912 0.004700589 0.035153955 -0.022924239
-0.014735539 0.017774295 0.01713187 0.030578263 0.01772677 -0.016200034 -0.023740947 -0.018778361
0.034041706 0.03472348 -0.028779149 0.0023028976 -0.034456484 -0.018027151 0.015551786 0.022514129
0.025838993 0.012389563 -0.0008197686 -0.02582005 0.024754351 0.0073224124 -0.027269576 0.026768344
0.03246551 0.013567056 0.00092984166 -0.011798828 -0.03821406 0.009435993 0.02090632 0.020966027
-0.011971225 0.03360223 -0.009953017 0.02219833 -0.001018348 -0.011255482 0.013504883 0.03582633
0.037561513 -0.016043475 -0.024902148 -0.011605897 0.03896535 -0.028254656 -0.008087757 -0.038333256
0.012378102 0.02703866 -0.030282782 0.042722832 -0.017224958 0.042990196 0.027392495 -0.02040458
-0.0164927 -0.023311192 0.015620943 -0.034551617 -0.005244124 0.012601303 -0.01501054 -0.0010366391
-0.04151903 0.007316831 0.017947087 0.0050103264 0.04370696 0.012124694 -0.04333659 -0.010742936
-0.019186985 -0.02821473 -0.027987553 -0.0043643033 -0.012666928 -0.0060048243 0.008166117 0.02439368
0.006997138 -0.028098827 -0.027888767 0.037848767 -0.03297599 0.028798457 0.0021272548 -0.01234511
-0.04333048 0.026736282 -0.0251691 -0.011640861 0.035240453 0.015185383 -0.01692347 -0.011998806
-0.019039713 0.042303618 0.032837126 -0.02765631 0.0008874722 -0.013098665 0.039636314 -0.014012168
0.041900925 -0.0428539 -0.030966721 -0.0005789646 -0.031240555 0.028724216 -0.019427143 -0.01746677
0.016194427 -0.04212694 0.027305834 0.043532196 -0.014803444 -0.028424757 -0.008182287 -0.03803674
-0.017000817 -0.024873184 -0.029595966 0.03439628 0.033674918 -0.030547652 0.02495076 0.017410094
0.038617752 -0.019951018 -0.0438059 -0.039472654 0.03294834 0.030763451 -0.0072166445 0.019560907
0.03600682 -0.014646614 0.037374686 -0.030468486 0.0051640244 0.018412389 0.030599121 0.021718962
0.0082980525 0.02473837 -0.0380061 0.043035846 -0.022832174 0.020041404 0.009000609 0.031580936
-0.022986203 -0.0006503856 0.007899285 0.017468413 -0.001681549 -0.014647565 -0.023812756 -0.011626188
0.015455046 0.033952497 -0.039110377 0.024774099 0.023037316 0.043679893 -0.013361562 -0.0116933305
0.020175476 -0.01971957 -0.011007996 0.035413675 -0.033689648 -0.020380177 0.03110485 -0.018467419
0.022327276 -0.0012299418 0.0028943156 -0.015355196 -0.0072774924 0.0006300215 0.0073331255 0.024459256
-0.0030366853 -0.03790145 -0.02820102 -0.036583357 0.0019247173 -0.0080996305 0.026302196 0.004344923
0.015391394 0.029742574 -0.0010293437 -0.040223964 -0.00075161655 0.040687658 -0.017799484 -0.017096473
0.029054083 0.022307487 -0.033477973 0.001956409 -0.04391755 -0.019206 0.027044894 0.031031676
00000000: d99b 093d e366 053d b6f3 283d 9702 f9bc
00000010: 70c0 003c 4d0b 813c 5a4b 213d 06bb 633c
00000020: 1043 1c3b a0ae 523c d04f 343d 24a0 603b
00000030: c460 9d3c af2d 0cbd 377e 293c 9d14 093d
00000040: 2148 0dbd 0405 16bd dde4 27bd 06ae b9bc
00000050: 6fdc 00bd b20e 223d 271b 8d3c 92fa df3c
00000060: 2c70 bcbc c295 e5bc fd2b b5bc c67e f23b
00000070: 4f01 17bd 7b62 9a3c b667 8bba 66d3 b3bc
00000080: 4b3f 18bd d0bf 62bb ebe9 22bd 1bf3 26bd
00000090: fdce e5bc 6d04 bdbc 8092 27bd fc1c 29bd
000000a0: 3eec 013d df48 7c3c 9e19 ea3c 6096 98bc
000000b0: ff8a 04bd 6607 9a3b 98fd 0f3d 9dcb bbbc
000000c0: 556d 71bc 669b 913c 2358 8c3c 447f fa3c
000000d0: bb37 913c efb5 84bc 607c c2bc 14d5 99bc
000000e0: 516f 0b3d 353a 0e3d 40c2 ebbc 36ec 163b
000000f0: 3e22 0dbd adad 93bc ebcc 7e3c 8d6f b83c
00000100: 4cac d33c 98fd 4a3c bde5 56ba 9284 d3bc
00000110: a3c9 ca3c d9f0 ef3b 7264 dfbc 4949 db3c
00000120: 8efa 043d 5b48 5e3c 9ec0 733a df4f 41bc
00000130: 5986 1cbd 6c99 1a3c bb43 ab3c f2c0 ab3c
00000140: f522 44bc 7ea2 093d fb11 23bc 46d9 b53c
00000150: 177a 85ba ea68 38bc 9643 5d3c a1be 123d
00000160: 1ada 193d 9b6d 83bc 97ff cbbc a926 3ebc
00000170: 219a 1f3d 4f76 e7bc 8382 04bc 5503 1dbd
00000180: 86cd 4a3c 2e80 dd3c 9913 f8bc 23fe 2e3d
00000190: 5b1b 8dbc 7d16 303d 3a66 e03c 8127 a7bc
000001a0: b31b 87bc 1df7 bebc fcee 7f3c ff85 0dbd
000001b0: e7d6 abbb b275 4e3c c5ee 75bc d6df 87ba
000001c0: dc0f 2abd 07c2 ef3b c505 933c aa2d a43b
000001d0: 1206 333d a7a6 463c b581 31bd 2403 30bc
000001e0: 062e 9dbc 9422 e7bc 2746 e5bc 6e02 8fbb
000001f0: f288 4fbc 1ec4 c4bb 2dcb 053c 41d5 c73c
00000200: 3f48 e53b 832f e6bc fc76 e4bc 4f07 1b3d
00000210: d511 07bd beea eb3c 6a69 0b3b 2543 4abc
00000220: 4d7b 31bd 0c06 db3c 6e2f cebc 4fb9 3ebc
00000230: 4b58 103d 1dcc 783c 17a3 8abc a496 44bc
00000240: 2cf9 9bbc 8f46 2d3d 3980 063d 7c8f e2bc
00000250: 40a5 683a c89b 56bc b059 223d 4b93 65bc
00000260: 4ea0 2b3d 9287 2fbd ecad fdbc a8c5 17ba
00000270: 31ec ffbc 0c4f eb3c ac25 9fbc 7916 8fbc
00000280: 2daa 843c 4c8d 2cbd 7cb0 df3c d14e 323d
00000290: 258a 72bc 09db e8bc 000f 06bc 6acc 1bbd
000002a0: 4c45 8bbc d9c2 cbbc 3d73 f2bc 1de3 0c3d
000002b0: b6ee 093d 123f fabc 8965 cc3c 9d9f 8e3c
000002c0: a62d 1e3d 5170 a3bc d16d 33bd 14ae 21bd
000002d0: d7f4 063d a203 fc3c 9a79 ecbb 323e a03c
000002e0: e37b 133d 5af8 6fbc 3316 193d 0c99 f9bc
000002f0: fa36 a93b 94d5 963c 02ab fa3c f7eb b13c
00000300: 8ef4 073c 1fa8 ca3c 49ac 1bbd 5b46 303d
00000310: 8a0a bbbc df2d a43c 4a77 133c 035b 013d
00000320: 904d bcbc a47e 2aba 016c 013c eb19 8f3c
00000330: 6c67 dcba 57fc 6fbc f812 c3bc c47b 3ebc
00000340: 2937 7d3c c611 0b3d 3432 20bd 0df3 ca3c
00000350: c1b8 bc3c b0e9 323d 74ea 5abc 6295 3fbc
00000360: 0a47 a53c f08a a1bc e25a 34bc ee0d 113d
00000370: 28fe 09bd 54f4 a6bc 99cf fe3c fc48 97bc
00000380: b1e7 b63c 0036 a1ba 8fae 3d3b 5c94 7bbc
00000390: 0878 eebb 0728 253a b74a f03b c75e c83c
000003a0: 2003 47bb 8d3e 1bbd d305 e7bc 6ed8 15bd
000003b0: cc46 fc3a 50b4 04bc b477 d73c db5f 8e3b
000003c0: 2f2c 7c3c b3a6 f33c 0beb 86ba e2c1 24bd
000003d0: 2208 45ba 1aa8 263d 39d0 91bc e70d 8cbc
000003e0: d402 ee3c 31be b63c 3320 09bd 1937 003b
000003f0: e4e2 33bd e755 9dbc 418d dd3c 2436 fe3c

conv2.0.bias f4 [64]
-0.004347165 -0.021580974 -0.028122542 -6.143238e-05 -0.020068685 0.032829434 0.037767746 -0.017906029
0.03990081 0.008010656 -0.027211882 0.036647994 -0.036026705 -0.026741154 0.037204534 -0.03012815
0.015395126 0.018755771 0.033827182 -0.04278461 -0.042188913 -0.041429486 0.0018717545 0.028558161
-0.015295459 0.0071543306 -0.013876452 0.014335962 0.036998183 0.042554695 0.043537382 -0.012169175
-0.017686455 0.036131613 -0.015706392 -0.012574903 -0.015380285 0.028529648 -0.028922735 0.00054195436
0.019159308 -0.011454891 -0.011693105 -0.01789509 -0.038132645 0.022309236 0.031227576 0.005950811
0.015203723 0.033718456 0.039895978 -0.015344302 0.0325283 0.037441887 0.010159963 0.016436394
-0.018966677 0.015441534 -0.031723436 0.034901492 0.02631379 0.038814843 0.015301608 -0.03469884
00000000: aa72 8ebb 95ca b0bc 3f61 e6bc 42d5 80b8
00000010: 1567 a4bc 2878 063d 5ab2 1a3d aaaf 92bc
00000020: 086f 233d 203f 033c 74eb debc 351c 163d
00000030: bd90 13bd 4410 dbbc c863 183d 4fcf f6bc
00000040: d73b 7c3c b4a5 993c 5f8e 0a3d ea3e 2fbd
00000050: 48ce 2cbd f7b1 29bd a955 f53a cef2 e93c
00000060: ce99 7abc e06e ea3b 0f5a 63bc 62e1 6a3c
00000070: 688b 173d d54d 2e3d 4154 323d 3861 47bc
00000080: 2fe3 90bc befe 133d b1aa 80bc f706 4ebc
00000090: 97fd 7bbc 02b7 e93c 5fef ecbc f111 0e3a
000000a0: fbf3 9c3c 4cad 3bbc 7094 3fbc b998 92bc
000000b0: fa30 1cbd dcc1 b63c f9d0 ff3c 05ff c23b
000000c0: 0919 793c 5d1c 0a3d f769 233d ab66 7bbc
000000d0: 653c 053d aa5c 193d f975 263c 9ea5 863c
000000e0: 0160 9bbc 7dfe 7c3c 6ff0 01bd def4 0e3d
000000f0: 0490 d73c 50fc 1e3d 98b3 7a3c 5f20 0ebd

conv3.0.weight f4 [64, 64, 3, 3]
-0.027147368 0.0082513355 0.035712004 -0.0010890495 -0.007340601 0.02303873 0.02679906 0.0012269313
0.0035919328 0.017942274 0.03422368 0.010826076 -0.015160843 0.037105117 -0.034098357 -0.031254034
-0.011050745 -0.02690174 -0.004535951 -0.03705006 0.006035839 -0.014250327 0.0057086474 0.017807344
-0.0081884395 0.02002089 -0.014240964 0.008541719 0.017165525 -0.008471118 -0.012117598 -0.001165242
-0.0140141575 0.02763564 -0.011095581 -0.01101237 0.030289691 0.033391554 -0.016636074 -0.035407122
0.005076315 -0.02731914 -0.010086086 -0.035906937 0.021208782 -0.007829249 -0.0025311667 0.005998976
0.038245298 0.023912564 -0.026482036 0.017668141 -0.03552218 0.026590629 -0.026321093 0.022214673
-0.039327797 -0.008532156 -0.041216355 -0.018873503 0.0027456784 -0.004430079 0.012146148 -0.034707602
0.026374198 -0.040288314 0.008927593 0.008610748 0.015604868 0.007770017 0.004560135 -0.025863834
0.0057478873 0.027291117 -0.018945625 -0.039434284 0.023934921 -0.0107895555 0.032000124 -0.026011834
-0.020383708 -0.02416615 -0.028007878 0.03471931 0.01875714 -0.025738021 0.040756762 0.03393359
0.034557622 0.011946011 -0.016116913 0.02208821 0.00024006245 0.03780293 0.032063738 -0.012168459
-0.02167867 0.015655618 0.009491966 0.0003032657 -0.018548112 0.020040138 0.02269646 0.021425558
0.015500803 -0.041048523 -0.028808301 0.03094172 -0.03598549 0.011735326 0.016415454 0.009705319
-0.028073039 0.006920114 0.03906625 -0.019228974 -0.034064837 -0.0050899093 -0.027091851 -0.0023777667
0.023514355 0.038988512 0.018735714 -0.027996467 0.019218903 0.02020192 0.019103955 0.040670265
-0.01265472 0.030944431 -0.011355018 0.016224833 0.0067102616 -0.0019362891 0.029629942 -0.03439125
-0.025979199 -0.031029467 -0.0037268798 -0.0041928617 -0.016563138 -0.02452997 -0.037563622 0.016232029
-0.011674717 -0.017862242 0.014432906 -0.010437188 0.0050417995 -0.029308604 0.014926253 -0.024098942
0.0053613675 0.01684407 -0.01749471 0.03284581 0.00013074958 -0.022134392 0.041056626 -0.0035029533
0.03311835 -0.019298501 -0.03208788 0.005820353 0.0055202073 -0.021788148 -0.014698546 -0.015104429
0.019544626 0.00072788034 0.031111918 -0.030674556 -0.013930771 -0.04138922 -0.030148542 0.0142959645
-0.01766906 -0.0013253605 0.038067143 0.018876161 -0.009093553 0.031646155 0.016495336 -0.011084076
0.013872367 -0.024877768 -0.03930944 -0.0051577254 -0.004326217 0.011841344 0.031408608 0.035166662
-0.01184636 0.016932894 -0.010404986 -0.024684053 -0.01022236 0.0016618251 0.021247145 -0.015888534
0.0065695657 -0.027249867 0.04038073 0.033937298 0.026684733 0.0018110212 0.00080893334 0.00530828
0.036516275 0.04072114 0.037385695 0.022576524 0.031727318 -0.027900416 -0.009388413 -0.02678504
0.03590751 -0.039111104 -0.0091939075 -0.019493245 0.038331892 -0.015868165 -0.040783007 -0.017752057
0.002935499 0.0027757385 0.017521616 0.007736556 -0.035871685 -0.037659235 0.014745483 0.023237983
-0.037396483 0.0023412912 -0.022006717 -0.023903333 0.035106957 -0.039778817 -0.019998524 0.015905049
-0.0032459819 0.013669905 0.012541492 -0.031313755 0.03401802 -0.025134377 0.019738924 -0.0061618276
0.022215351 0.009272996 0.030301616 -0.02352368 -0.034148976 0.028375907 -0.0030435484 -0.011480943
00000000: 2864 debc 9c30 073c c046 123d 70be 8eba
00000010: 6d89 f0bb b8bb bc3c b489 db3c fcd0 a03a
00000020: a266 6b3b adfb 923c 212e 0c3d db5f 313c
00000030: 2f65 78bc 89fb 173d b8aa 0bbd 3b04 00bd
00000040: 2f0e 35bc 0a61 dcbc 51a2 94bb cec1 17bd
00000050: 4ac8 c53b 347a 69bc 9b0f bb3b b5e0 913c
00000060: ce28 06bc d902 a43c ef52 69bc 91f2 0b3c
00000070: b79e 8c3c 72ca 0abc e488 46bc 09bb 98ba
00000080: a39b 65bc 2364 e23c 3dca 35bc 3a6d 34bc
00000090: 1622 f83c 95c5 083d 6048 88bc 0f07 11bd
000000a0: 3757 a63b 64cc dfbc 1c40 25bc 2713 13bd
000000b0: 0abe ad3c 4046 00bc eee1 25bb 0f93 c43b
000000c0: 1aa7 1c3d 48e4 c33c dbf0 d8bc c7bc 903c
000000d0: b57f 11bd 97d4 d93c 559f d7bc 8cfb b53c
000000e0: 2f16 21bd 75ca 0bbc 7bd2 28bd 9b9c 9abc
000000f0: d7f0 333b 322a 91bb a300 473c 8f29 0ebd
00000100: b40e d83c 5c05 25bd 0a45 123c 1814 0d3c
00000110: 8fab 7f3c a09b fe3b 2f6d 953b 64e0 d3bc
00000120: c658 bc3b 9f91 df3c db33 9bbc d885 21bd
00000130: 2b13 c43c adc6 30bc 9012 033d c516 d5bc
00000140: bcfb a6bc 17f8 c5bc c770 e5bc d635 0e3d
00000150: 93a8 993c 8bd8 d2bc 90f0 263d f3fd 0a3d
00000160: 4b8c 0d3d 34b9 433c 9e07 84bc 55f2 b43c
00000170: 46b9 7b39 3fd7 1a3d 4455 033d 375e 47bc
00000180: 7797 b1bc 3640 803c 3184 1b3c a2ff 9e39
00000190: 36f2 97bc 372b a43c eded b93c a784 af3c
000001a0: 14f7 7d3c 7f22 28bd 63ff ebbc 7d79 fd3c
000001b0: 8565 13bd 8645 403c b479 863c 0f03 1f3c
000001c0: 6ef9 e5bc 20c2 e23b ef03 203d 1586 9dbc
000001d0: 9287 0bbd 41c9 a6bb bbef ddbc 4ed4 1bbb
000001e0: 2da1 c03c 6bb2 1f3d a47b 993c d958 e5bc
000001f0: f670 9d3c 7f7e a53c e67f 9c3c dd95 263d
00000200: be55 4fbc 2d7f fd3c 660a 3abc f1e9 843c
00000210: c1e1 db3b 15cb fdba 7eba f23c d7dd 0cbd
00000220: 54d2 d4bc 8231 febc ab3e 74bb 4664 89bb
00000230: 6baf 87bc 13f3 c8bc 50dc 19bd 08f9 843c
00000240: 5047 3fbc d653 92bc ff77 6c3c bd00 2bbc
00000250: ae35 a53b 9918 f0bc 3e8d 743c 256b c5bc
00000260: 69ae af3b 93fc 893c 1151 8fbc 5489 063d
00000270: d319 0939 2f53 b5bc fe2a 283d ce91 65bb
00000280: 1ba7 073d e417 9ebc 956e 03bd a9b8 be3b
00000290: dbe2 b43b 0f7d b2bc 2cd2 70bc 9178 77bc
000002a0: 0d1c a03c 39cf 3e3a 6cde fe3c 3549 fbbc
000002b0: e33d 64bc be87 29bd 13fa f6bc 9f39 6a3c
000002c0: b4be 90bc b8b7 adba 4bec 1b3d 2ea2 9a3c
000002d0: 20fd 14bc 669f 013d 3a21 873c fc99 35bc
000002e0: ed48 633c 76cc cbbc ef02 21bd 2302 a9bb
000002f0: f0c2 8dbb 3202 423c 50a6 003d eb0a 103d
00000300: 3c17 42bc dab6 8a3c ad79 2abc 3636 cabc
00000310: af7b 27bc 99d1 d93a 7e0e ae3c ac28 82bc
00000320: 8345 d73b 1d3b dfbc 4466 253d d601 0b3d
00000330: f199 da3c ca5f ed3a 990e 543a 14f1 ad3b
00000340: 1792 153d 36cb 263d be21 193d 67f2 b83c
00000350: 81f4 013d 6a8f e4bc dcd1 19bc 4d6c dbbc
00000360: c113 133d f732 20bd 0ba2 16bc 4cb0 9fbc
00000370: e701 1d3d f4fd 81bc 150c 27bd c36c 91bc
00000380: 8061 403b 2ae9 353b 7e89 8f3c f082 fd3b
00000390: 30ee 12bd 9240 1abd 0a97 713c 955d be3c
000003a0: 0e2d 19bd 5970 193b 6e47 b4bc ecd0 c3bc
000003b0: 50cc 0f3d 1def 22bd f2d3 a3bc 4e4b 823c
000003c0: 8aba 54bb bdf7 5f3c d47a 4d3c da42 00bd
000003d0: 7b56 0b3d 9ce6 cdbc 86b3 a13c 28e9 c9bb
000003e0: f8fc b53c c4ed 173c 183b f83c bcb4 c0bc
000003f0: ccdf 0bbd 9774 e83c 4576 47bb 911a 3cbc

conv3.0.bias f4 [64]
0.0384529 0.0056031058 -0.011593181 0.010381302 -0.02847567 0.022809442 -0.02393654 -0.013954932
0.036128398 -0.01315888 -0.030831335 0.033178337 0.009070379 -0.033535555 0.004621004 -0.0018033646
0.006456399 0.027448583 0.008945374 -0.031446554 0.034539584 -0.035437394 0.03804028 -0.0407293
0.033949867 0.020173497 -0.018450173 0.030614512 0.002191698 0.033877533 0.013644252 0.009851394
-0.01593074 -0.014193208 0.038825564 0.038693037 -0.029337082 0.01680418 -0.011089548 -0.0266283
0.00646529 0.04121109 -0.02988717 -0.023720292 -0.018030962 -0.025571778 -0.014255562 0.006476015
-0.0003513332 0.019722492 -0.035649367 0.041743528 0.030209845 0.036065675 -0.0022330284 -0.023607336
0.029456582 -0.030624926 -0.01803883 -0.0022634969 0.015082625 -0.024881871 0.004087395 -0.027184615
00000000: ca80 1d3d 429a b73b 53f1 3dbc 5616 2a3c
00000010: cf45 e9bc deda ba3c 9016 c4bc 3aa3 64bc
00000020: 5ffb 133d 5898 57bc ff91 fcbc 02e6 073d
00000030: ed9b 143c 945c 09bd cb6b 973b e05e ecba
00000040: 3390 d33b dadb e03c 9e8f 123c 1ace 00bd
00000050: 6179 0d3d cd26 11bd 20d0 1b3d c4d3 26bd
00000060: 040f 0b3d e442 a53c d124 97bc 49cb fa3c
00000070: 97a2 0f3b 2bc3 0a3d 248c 5f3c be67 213c
00000080: 2f81 82bc a18a 68bc 8e07 1f3d 977c 1e3d
00000090: 5254 f0bc eba8 893c efb0 35bc 9823 dabc
000000a0: c9da d33b f6cc 283d f0d5 f4bc 0f51 c2bc
000000b0: abb5 93bc e87b d1bc 2990 69bc c034 d43b
000000c0: 2533 b8b9 1091 a13c 1205 12bd 43fb 2a3d
000000d0: a37a f73c 9ab9 133d 0058 12bb 2c64 c1bc
000000e0: ee4e f13c 20e1 fabc 2bc6 93bc 2d57 14bb
000000f0: 1d1d 773c 11d5 cbbc 8eef 853b 45b2 debc

fc1.0.weight f4 [80, 970]
-0.014489284 -0.02172808 -0.01186704 0.02366533 0.018632863 0.015889196 0.0037571639 0.010836318
0.022720156 0.027006937 -0.0032229887 -0.018270789 0.0091134375 -0.01661575 0.007290681 7.65245e-05
0.0166286 -0.015999995 0.0052835853 -0.0015325121 0.0150346905 0.022712555 0.023798741 -0.015842095
0.0011409668 -0.01357884 -0.03147975 0.023040317 0.028547037 0.03172459 0.010047922 -0.011374776
0.0067011295 -0.009009587 0.03106533 -0.026507236 -0.018119428 0.030979276 0.018502947 0.015542146
0.0052266773 -0.0010573649 0.021064833 -0.008175683 0.017216304 -0.008074151 0.0014877302 0.0236177
-0.0067180768 -0.027291575 -0.01916043 -0.020683954 0.01243176 -0.01664768 -0.018283384 0.0034537436
0.032196853 -0.022128744 0.023392756 -0.0044708364 0.029034572 -0.02719624 0.019102803 -0.027568886
0.026951019 0.02452089 0.026526097 0.02423044 0.009494212 0.026727412 -0.018644473 0.0059709805
-0.014307397 0.008484317 0.0077030575 -0.00021078093 -0.011432991 -0.031118678 -0.031695742 -0.014270626
0.009544079 -0.0046693333 0.017146109 0.009523448 0.01910725 -0.016075596 0.022242041 0.0063613122
-0.031121027 -0.018980647 0.02559594 -0.017824367 0.010233959 0.014260313 0.008312166 0.030211445
-0.0067233355 -0.02795584 -0.030508922 -0.026966782 -0.009400293 -0.026524857 0.031108344 -0.0089296475
0.014935536 -0.025186338 0.012658193 -0.0063520614 -0.013856181 0.020973165 0.00030123323 0.02166701
-0.025716983 0.0061847027 0.020618407 -0.021661177 -0.01316275 -0.010112236 -0.008790366 -0.00596862
0.010654428 0.009384552 0.0121749 -0.0046973214 -0.015626872 0.017760495 0.006809833 -0.023370083
0.020239318 0.03075988 0.005897131 -0.018728063 -0.014279382 -0.020487854 -0.007856023 -0.019478066
-0.017708912 -0.023821875 -0.013650185 0.026252236 -0.013464867 -0.016243953 0.010870182 0.024390034
0.014167752 -0.0066535342 0.011414912 -0.018134698 0.006231976 0.00018991895 -0.0007862563 0.015954114
0.021705093 -0.0041676597 -0.020368997 -0.012619852 0.025947575 0.021792004 0.0032137902 0.028376512
0.012914997 -0.024597308 -0.0013009466 -0.013371132 -0.01701722 -0.0057149287 0.0027050362 0.030022154
0.009290465 -0.021092243 0.017257161 0.014276953 -0.0055125216 0.010687908 -0.0010111813 0.0112026865
-0.02777075 0.0025728536 -0.0072618714 -0.025518306 -0.029057639 0.024147369 -0.022509705 -0.006553504
-0.025984837 0.011228724 -0.03066057 -0.020055706 -0.013555426 -0.021844529 0.0018475631 0.026309446
0.0008925708 0.019011848 0.031509694 -0.0065709944 0.0060534687 -0.026227515 0.0008553948 -0.010866858
-0.027774481 0.028090019 -0.02847985 -0.02095222 -0.014088633 0.0012004509 -0.014051132 -0.01930942
-0.01824746 0.0017442373 -0.025918938 0.0031407517 0.011356419 0.012588466 -0.0020307195 0.018985415
-0.02633149 0.021170111 0.013424082 0.0021354922 0.018926522 0.0067074895 -0.00822134 -0.010973287
0.016365863 0.008089336 0.009303986 0.02014406 -0.012308177 0.022808766 -0.010374202 -0.0023682802
-0.025309157 -0.019875161 0.027506202 -0.02702768 -0.016471438 0.015006579 0.019096795 0.026625348
-0.006267923 0.029217673 0.023791473 0.023876362 -0.012175182 -0.026026174 0.01050071 -0.0090696765
0.030298615 0.022580845 -0.0024246515 0.0045077316 0.024009606 0.00025724844 0.015892325 -0.002631581
00000000: 7664 6dbc 16ff b1bc f96d 42bc cbdd c13c
00000010: f2a3 983c 0f2a 823c c03a 763b d08a 313c
00000020: 9f1f ba3c a73d dd3c c738 53bb 9fac 95bc
00000030: 8750 153c c11d 88bc aae6 ee3b c77b a038
00000040: b438 883c 6c12 83bc ed21 ad3b 93de c8ba
00000050: 1054 763c ae0f ba3c 94f5 c23c 48c7 81bc
00000060: 7e8c 953a c879 5ebc e9f0 00bd 0cbf bc3c
00000070: 7adb e93c a5f1 013d 0aa0 243c 455d 3abc
00000080: 2695 db3b f29c 13bc b87c fe3c b425 d9bc
00000090: 326f 94bc 40c8 fd3c 7e93 973c 7ca4 7e3c
000000a0: 8c44 ab3b 4797 8aba 2890 ac3c 4df3 05bc
000000b0: 3509 8d3c 7249 04bc f1ff c23a e879 c13c
000000c0: 5023 dcbb 9592 dfbc 56f6 9cbc 6571 a9bc
000000d0: 95ae 4b3c b760 88bc 09c7 95bc 3458 623b
000000e0: d9e0 033d 5747 b5bc 2aa2 bf3c 1880 92bb
000000f0: e9d9 ed3c a6ca debc 7b7d 9c3c 25d8 e1bc
00000100: 62c8 dc3c 09e0 c83c 424d d93c ea7e c63c
00000110: 9d8d 1b3c 72f3 da3c 4bbc 98bc 37a8 c33b
00000120: 9369 6abc ce01 0b3c ee69 fc3b 1305 5db9
00000130: 7151 3bbc 99ec febc 65d3 01bd 58cf 69bc
00000140: c55e 1c3c 3501 99bb ff75 8c3c 3c08 1c3c
00000150: cf86 9c3c f8b0 83bc f134 b63c 8e72 d03b
00000160: 86f1 febc 4d7d 9bbc 94ae d13c 6804 92bc
00000170: 56ac 273c 16a4 693c c02f 083c fe7d f73c
00000180: 6d4f dcbb a503 e5bc d9ed f9bc 71e9 dcbc
00000190: b003 1abc a84a d9bc edd6 fe3c a84d 12bc
000001a0: 2eb4 743c 9453 cebc 4f64 4f3c f424 d0bb
000001b0: 0905 63bc eacf ab3c d7ee 9d39 037f b13c
000001c0: 6cac d2bc 0ca9 ca3b efe7 a83c c872 b1bc
000001d0: 93a8 57bc cbad 25bc 7805 10bc 6a94 c3bb
000001e0: e98f 2e3c aac1 193c 3b79 473c fdeb 99bb
000001f0: ed03 80bc 757e 913c 0525 df3b 9e72 bfbc
00000200: edcc a53c 25fc fb3c b83c c13b 986b 99bc
00000210: 12f4 69bc 25d6 a7bc 8cb6 00bc 7790 9fbc
00000220: 4812 91bc 1826 c3bc 07a5 5fbc ee0e d73c
00000230: bf9b 5cbc 0a12 85bc d918 323c 9ccd c73c
00000240: dc1f 683c e405 dabb 9c05 3b3c 388f 94bc
00000250: 9b35 cc3b fb24 4739 c41c 4eba 34b2 823c
00000260: e1ce b13c dd90 88bb e2dc a6bc 7fc3 4ebc
00000270: 0290 d43c 2585 b23c 749e 523b dc75 e83c
00000280: 6c99 533c 4b80 c9bc 8684 aaba 9812 5bbc
00000290: b267 8bbc 4c44 bbbb fa46 313b 05f1 f53c
000002a0: 0937 183c a4c9 acbc e45e 8d3c e2e9 693c
000002b0: 62a2 b4bb 561c 2f3c 9d89 84ba 798b 373c
000002c0: 7c7f e3bc 529d 283b fef4 edbb c40b d1bc
000002d0: 490a eebc b4d0 c53c 4666 b8bc c7be d6bb
000002e0: 27de d4bc aff8 373c e02b fbbc dd4b a4bc
000002f0: 9417 5ebc 4cf3 b2bc ee29 f23a e886 d73c
00000300: 6afb 693a bcbe 9b3c 4f10 013d 7f51 d7bb
00000310: 2d5c c63b 16db d6bc 933c 603a e80a 32bc
00000320: 4f87 e3bc 0a1d e63c 934e e9bc fda3 abbc
00000330: 02d4 66bc 7358 9d3a b836 66bc ca2e 9ebc
00000340: b27b 95bc e49e e43a f453 d4bc 12d5 4d3b
00000350: 4610 3a3c da3f 4e3c d215 05bb 4d87 9b3c
00000360: 23b5 d7bc f16c ad3c aef0 5b3c 9df3 0b3b
00000370: cb0b 9b3c 80ca db3b cdb2 06bc 4dc9 33bc
00000380: b411 863c 2289 043c bf6f 183c 2805 a53c
00000390: 3ca8 49bc 73d9 ba3c 8ff8 29bc 2635 1bbb
000003a0: 2655 cfbc 3cd1 a2bc b054 e13c 2769 ddbc
000003b0: 1cef 86bc 28de 753c e270 9c3c 671d da3c
000003c0: 2663 cdbb e759 ef3c 56e6 c23c 5c98 c33c
000003d0: 6a7a 47bc d834 d5bc 2c0b 2c3c fb98 14bc
000003e0: cd34 f83c 77fb b83c e7e6 1ebb 98b5 933b
000003f0: cbaf c43c 4ddf 8639 9f30 823c 9a76 2cbb

fc1.0.bias f4 [80]
0.03050937 0.022959707 -0.025891641 0.013400236 0.00959593 -0.020207187 -0.022126906 -0.022089243
-0.029320028 -0.021759158 -0.011634104 -0.011803097 -0.020083806 0.029202966 0.009617546 0.003996092
-0.031435866 -0.013127063 -0.011377267 -0.013998054 -0.021928566 0.004383362 -0.013392306 0.0063582766
-0.014393764 0.002594808 0.027427401 0.00046049716 0.0049904836 -0.007157306 -0.0077608 -0.015238267
-0.028135337 -0.02886081 -0.03226524 -0.029910237 0.031404644 -0.019085748 0.009982598 -0.01831229
-0.029552441 -0.007463629 -0.006966572 -0.012031679 -0.004647912 0.007806235 0.015832234 0.004176576
0.008612143 0.01575204 0.012816931 0.0141712185 0.029485423 0.0005347369 -0.017999949 -0.0070543936
-0.030544866 0.021389438 -0.03217556 -0.031980287 -0.02237198 -0.011388485 0.027468342 0.013466294
-0.005319628 0.023620654 -0.015095674 0.010775565 -0.015718263 -0.010608535 -0.020899892 0.007908424
0.02562957 0.009818783 0.004695073 -0.013874792 0.02262811 0.014329356 0.0011227127 0.0061271554
00000000: c9ee f93c ff15 bc3c b51a d4bc aa8c 5b3c
00000010: 3f38 1d3c 8b89 a5bc 7c43 b5bc 80f4 b4bc
00000020: 8e30 f0bc 4340 b2bc f89c 3ebc c761 41bc
00000030: cb86 a4bc 0f3b ef3c e992 1d3c a6f1 823b
00000040: e5c2 00bd e512 57bc b767 3abc 1858 65bc
00000050: 89a3 b3bc 4ea2 8f3b 676b 5bbc 1759 d03b
00000060: d2d3 6bbc a70d 2a3b 6eaf e03c e26e f139
00000070: 3687 a33b d687 eabb 4f4e febb eda9 79bc
00000080: 147c e6bc 816d ecbc 8e28 04bd 5006 f5bc
00000090: 28a2 003d b759 9cbc 0d8e 233c a803 96bc
000000a0: f617 f2bc 7591 f4bb d747 e4bb 8520 45bc
000000b0: 834d 98bb 72cb ff3b 9ab2 813c a9db 883b
000000c0: f219 0d3c 6c0a 813c 1bfe 513c 662e 683c
000000d0: 6a8b f13c 962d 0c3a a174 93bc 8b28 e7bb
000000e0: 3a39 fabc e738 af3c 85ca 03bd c3fd 02bd
000000f0: 7145 b7bc c596 3abc 4a05 e13c bba1 5c3c
00000100: 4650 aebb 1a80 c13c d953 77bc ff8b 303c
00000110: 96c3 80bc 6ccf 2dbc 4036 abbc 5692 013c
00000120: 1bf5 d13c f6de 203c 20d9 993b 1853 63bc
00000130: 965e b93c adc5 6a3c fd27 933a 4ec6 c83b

out.weight f4 [40, 80]
-0.07315452 0.04111977 0.05850733 0.001243565 -0.059832793 -0.05752699 -0.017050331 0.017004216
-0.109161474 0.05142507 0.011412406 -0.10384679 0.03611508 -0.085485235 0.01657029 0.009020006
0.1113547 0.03970271 -0.06527246 0.025872808 -0.11097076 -0.037747793 -0.031281486 0.10479054
0.09541287 0.106992565 -0.04009065 0.11014169 -0.01196116 -0.009845719 -0.105800584 0.020865664
-0.03771225 -0.035196535 0.01651142 -0.06360226 0.08338623 0.06711852 -0.03618037 -0.07199621
-0.093113706 0.011669014 0.07086488 -0.02523167 0.03220196 -0.033188593 0.021497384 0.0036778864
0.046539307 -0.07546787 0.034898683 -0.038074333 0.049286887 0.0006298555 0.027880209 0.0846574
-0.086312525 -0.08079457 0.04967537 -0.07410496 -0.05655303 0.09901908 0.02752107 0.064793125
-0.023296297 0.029701095 0.09349185 0.07020383 0.015962804 0.08308535 0.036275174 0.08911912
-0.020432726 -0.07835363 -0.0054050144 0.049186397 0.013574007 -0.07609301 -0.03857138 -0.09980994
0.058309864 -0.0654334 0.10317569 -0.09118113 0.016362783 -0.03814118 0.032039795 0.090638
-0.076667026 -0.032654807 -0.030901413 -0.05917622 -0.08306544 0.035226725 0.05805546 0.08462578
-0.052615415 0.060917545 -0.105149366 -0.07006115 -0.048270185 -0.0058094664 -0.06968757 -0.0046036392
-0.04687461 0.07737083 0.111163475 6.0165523e-05 0.10516318 -0.060938045 -0.024751825 -0.040795006
0.08756844 -0.06885514 -0.09131363 0.1007925 -0.0037647178 0.08254125 -0.08027333 0.077391304
0.044550754 0.038253274 -0.04826759 0.050443947 -0.093434274 0.03007575 0.08627817 -0.06437824
0.017065756 0.008905312 -0.109892346 -0.08670891 -0.04001706 0.09748993 0.011337915 -0.012086642
-0.05320086 0.067004554 -0.07246109 -0.10739802 -0.040109016 0.0247847 -0.07718501 0.075374134
-0.040291853 -0.054914683 -0.10813275 0.02482357 0.04340932 0.04963526 -0.07038918 0.016414896
0.03211856 0.037684124 -0.11017639 0.07984319 0.0885488 -0.057359286 -0.0807752 0.07156847
0.026091648 0.055285353 0.08151843 0.004698813 -0.019983806 -0.045226265 0.07960208 -0.08796386
0.057515703 -0.06948948 -0.030458909 -0.079731286 0.060759906 -0.11043377 -0.07081684 -0.095533445
-0.05315578 0.011603632 -0.062409036 -0.102076076 -0.06348185 -0.06120496 0.011810251 0.025295362
-0.057946797 -0.093863696 -0.046210617 0.0015465163 0.030757835 0.080450624 -0.0662607 -0.0043745213
0.036898896 0.03983496 -0.06313516 -0.07959932 0.06264061 -0.044096634 -0.02761349 0.004127362
0.081044085 -0.08413396 0.04631674 -0.032889593 -0.029701374 0.014514605 0.031809647 -0.041501112
0.03893401 -0.092336826 0.010467043 -0.032960515 0.06568697 0.0131066935 -0.07687861 -0.10751799
-0.0017294253 -0.085850865 0.07418054 0.094434254 -0.07589628 -0.08257231 0.019491924 -0.09395898
0.08897167 0.017799845 -0.09340355 -0.022050465 0.049688816 -0.05893598 0.09819019 0.027946837
0.07287863 -0.08951204 -0.09680113 0.019566443 -0.014377654 0.013421853 0.054088738 0.05523828
0.0680245 -0.03124402 -0.005984535 0.08376315 0.07055423 0.09554916 0.096211724 0.056739617
0.0016078062 0.09342124 -0.068023674 0.050166186 0.018395009 -0.069868356 0.033421416 0.055979177
00000000: 09d2 95bd 346d 283d 62a5 6f3d 1eff a23a
00000010: 3b13 75bd 6ca1 6bbd 23ad 8bbc 6d4c 8b3c
00000020: 0d90 dfbd 18a3 523d 1afb 3a3c a0ad d4bd
00000030: 68ed 133d e212 afbd 6bbe 873c a6c8 133c
00000040: ef0d e43d 4f9f 223d 91ad 85bd 36f3 d33c
00000050: a344 e3bd 6e9d 1abd 0421 00bd 6c9c d63d
00000060: d367 c33d eb1e db3d 1836 24bd f791 e13d
00000070: bef8 43bc f04f 21bc faad d8bd 78ee aa3c
00000080: 2978 1abd 3e2a 10bd f542 873c e741 82bd
00000090: 66c6 aa3d 6f75 893d de31 14bd c072 93bd
000000a0: 66b2 bebd 642f 3f3c 9b21 913d a6b2 cebc
000000b0: 34e6 033d c3f0 07bd 481b b03c b208 713b
000000c0: 00a0 3e3d e68e 9abd ecf1 0e3d d5f3 1bbd
000000d0: 0ce1 493d e31c 253a 0965 e43c dc60 ad3d
000000e0: 9fc4 b0bd a077 a5bd 6778 4b3d 57c4 97bd
000000f0: 26a4 67bd 84ca ca3d de73 e13c 42b2 843d
00000100: e0d7 bebc b64f f33c a878 bf3d 07c7 8f3d
00000110: 6dc4 823c a728 aa3d 4795 143d 1684 b63d
00000120: 8862 a7bc de77 a0bd 8c1c b1bb ad77 493d
00000130: 8365 5e3c a7d6 9bbd 06fd 1dbd 2769 ccbd
00000140: 53d6 6e3d f201 86bd c74d d33d 2cbd babd
00000150: 3e0b 863c ed39 1cbd 293c 033d 6aa0 b93d
00000160: 9a03 9dbd 0cc1 05bd f624 fdbc c462 72bd
00000170: 371e aabd e649 103d 90cb 6d3d 4850 ad3d
00000180: 4383 57bd ad84 793d 8d58 d7bd 387c 8fbd
00000190: f5b6 45bd 565d bebb 5bb8 8ebd 20da 96bb
000001a0: 97ff 3fbd 9974 9e3d ada9 e33d 3d5a 7c38
000001b0: cb5f d73d 2c9a 79bd 57c4 cabc aa18 27bd
000001c0: 1557 b33d ec03 8dbd a402 bbbd 4c6c ce3d
000001d0: 7cb9 76bb 630b a93d 5866 a4bd 557f 9e3d
000001e0: da7a 363d 77af 1c3d 3db4 45bd 509e 4e3d
000001f0: 785a bfbd 6b61 f63c 9cb2 b03d bdd8 83bd
00000200: 7ccd 8b3c 96e7 113c 3d0f e1bd 7194 b1bd
00000210: eee8 23bd cda8 c73d aac2 393c 0d07 46bc
00000220: 25e9 59bd af39 893d 7b66 94bd 7ef3 dbbd
00000230: 5a49 24bd 4809 cb3c 2d13 9ebd c15d 9a3d
00000240: 1209 25bd 38ee 60bd b474 ddbd cd5a cb3c
00000250: f9cd 313d 584e 4b3d 3428 90bd 8878 863c
00000260: c08e 033d ab5a 1a3d 29a4 e1bd d484 a33d
00000270: 1359 b53d 92f1 6abd 786d a5bd 7d92 923d
00000280: 27be d53c e572 623d 22f3 a63d 80f8 993b
00000290: 14b5 a3bc 2d3f 39bd 6a06 a33d 6526 b4bd
000002a0: 9695 6b3d 8050 8ebd f684 f9bc 284a a3bd
000002b0: 61df 783d 1a2b e2bd 6b08 91bd 0aa7 c3bd
000002c0: e0b9 59bd 291d 3e3c 9ea0 7fbd 430d d1bd
000002d0: c602 82bd 0db2 7abd c87f 413c 3838 cf3c
000002e0: 9f59 6dbd 9c3b c0bd 5847 3dbd 7ab4 ca3a
000002f0: dbf7 fb3c 4cc3 a43d b1b3 87bd 2558 8fbb
00000300: 4c23 173d fc29 233d 024d 81bd f804 a3bd
00000310: b849 803d ac9e 34bd b035 e2bc d23e 873b
00000320: 71fa a53d 6d4e acbd 9fb6 3d3d 3db7 06bd
00000330: 4c50 f3bc aace 6d3c d54a 023d 12fd 29bd
00000340: 4579 1f3d 171b bdbd f67d 2b3c 9b01 07bd
00000350: e486 863d 75bd 563c 8872 9dbd 6432 dcbd
00000360: e2ad e2ba 94d2 afbd f8eb 973d bf66 c13d
00000370: 826f 9bbd ac1b a9bd 87ad 9f3c 916d c0bd
00000380: c736 b63d fbd0 913c 5c4a bfbd 2da3 b4bc
00000390: 8086 4b3d db66 71bd f017 c93d c4f0 e43c
000003a0: 6441 953d 1752 b7bd ac3f c6bd ce49 a03c
000003b0: 4090 6bbc 55e7 5b3c 278c 5d3d 8941 623d
000003c0: 6e50 8b3d 76f3 ffbc eb19 c4bb 048c ab3d
000003d0: bc7e 903d 47af c33d a70a c53d cd67 683d
000003e0: 06bd d23a a353 bf3d ff4f 8bbd 0f7b 4d3d
000003f0: 21b1 963c 2417 8fbd e5e4 083d 6c4a 653d

out.bias f4 [40]
-0.044527475 0.09619908 0.023463642 -0.044792965 -0.013146873 -0.04378975 0.09447444 -0.09117779
0.029928442 -0.06393468 0.08808159 0.034707714 0.010552517 -0.020292405 0.073403254 0.09801212
0.068271674 -0.076941825 -0.032307737 -0.054765485 0.07610748 -0.025392374 -0.04983746 0.004166969
-0.031688016 -0.061294634 -0.01565211 -0.0072563547 -0.0051879003 -0.09843829 -0.013176702 -0.027446017
-0.021537067 0.0420207 -0.08312353 -0.037635863 0.03062083 0.05126095 -0.019124202 0.09599356
00000000: 7162 36bd 0604 c53d d336 c03c d478 37bd
00000010: fb65 57bc e25c 33bd d17b c13d 6cbb babd
00000020: 7e2c f53c 2ff0 82bd 1f64 b43d ad29 0e3d
00000030: 77e4 2c3c 423c a6bc 7254 963d 94ba c83d
00000040: 05d2 8b3d ad93 9dbd 1e55 04bd c651 60bd
00000050: 3dde 9b3d ab03 d0bc 5d22 4cbd 128b 883b
00000060: 4bcb 01bd 1510 7bbd db38 80bc b7c6 edbb
00000070: 43ff a9bb 049a c9bd 18e3 57bc 78d6 e0bc
00000080: 816e b0bc e61d 2c3d ab3c aabd 1028 1abd
00000090: 89d8 fa3c 00f7 513d 5caa 9cbc 4698 c43d
