1600params3.pth (torch, 607751 bytes, 10 tensors)

conv1.0.weight f4 [32, 4, 2, 2]
000000 c2 10 c5 bd 19 ac 2b 3e 2b c3 bf 3d 6f 2e 39 3e
       -0.09622337 0.16764869 0.09363397 0.1808412
000010 bb ce 6c be 57 ca 4c 3d e7 0b 47 3e 59 c7 04 bc
       -0.23125736 0.049997654 0.19438134 -0.008104169
000020 3c 83 5d be de 5c 67 bd c0 6b b5 3d dd 58 bf bd
       -0.21632093 -0.05648505 0.08858442 -0.09343121
000030 e5 cb 83 bd d0 1d a5 bd db 6f da 3c 10 21 44 3b
       -0.06435374 -0.08062327 0.026664665 0.0029926933
000040 b6 48 ea bd c1 49 59 3e 0e 84 8d 3d 0a 60 a6 3d
       -0.1143965 0.21219541 0.06909953 0.08123787
000050 20 fc 76 be a9 40 29 be 8b db 13 be 38 38 24 be
       -0.24119616 -0.16528572 -0.14439218 -0.16037071
000060 e2 40 fb 3d c9 f1 5c 3e f4 f5 a6 bd 2e 77 5c 3d
       0.12268235 0.21576609 -0.081523806 0.053824596
000070 52 29 2f be 23 57 02 3e 97 f1 15 bc cd 17 b9 b9
       -0.17105606 0.12728553 -0.009151838 -0.00035303683
000080 03 b1 f9 bc 9e 25 52 3e 32 ee 2b be eb 79 5a 3e
       -0.030479914 0.20522162 -0.16790083 0.2133557
000090 dc 22 9a 3c 87 00 60 3d 0e 08 b1 3d d7 04 1a 3e
       0.01881545 0.054688003 0.086441144 0.15040909
0000a0 10 d8 4c bd 93 61 f2 bd c4 43 6a 3e d7 e5 1a 3d
       -0.05001074 -0.11835017 0.22877413 0.03781685
0000b0 da 24 0c 3e 8a 2e 34 bd fe 1c 43 be 76 43 93 bd
       0.13685933 -0.043989696 -0.19054028 -0.071906015
0000c0 24 25 49 be 1e 2b 7c 3e fd 6a e8 3b 5d a8 47 3e
       -0.19643074 0.24625823 0.007092832 0.19497819
0000d0 09 d3 57 3e d1 9f 0f bd 4a 50 81 3d 5a 70 e1 bc
       0.21076597 -0.035064522 0.06314142 -0.027519394
0000e0 f3 08 66 be a5 fc 15 3e 85 c8 b1 bd 78 a4 5b 3e
       -0.22464351 0.14647157 -0.08680824 0.21449459
0000f0 d2 2b e6 3d f5 4a 96 bc d1 90 24 3e 0e 2c d6 3d
       0.11238827 -0.01834629 0.16070868 0.104576215
000100 95 9e 62 3e f5 7e dc 3a e2 3f bd bd eb ad 2c bd
       0.22130807 0.0016822504 -0.092407 -0.04215805
000110 b0 31 6e 3e ca 65 49 3e 10 73 4c 3e 4c 87 20 bd
       0.23261142 0.19667736 0.19965768 -0.03919153
000120 8a d9 b2 bd 74 3a 9f 3c 38 15 1b be 36 48 c3 bd
       -0.087328985 0.019437052 -0.15144813 -0.095352575
000130 af 66 7e 3e a9 84 e9 3c 44 94 e2 3d 1c 2a a2 bd
       0.24843858 0.02850564 0.11063436 -0.07918188
000140 e0 67 9e 3d 81 f5 b8 3d 1f 62 30 be 7f c6 76 3e
       0.07734656 0.09031201 -0.1722493 0.24099158
000150 fc 73 e6 bc 1e f3 18 be 09 c5 b2 bd f1 0f 4e 3e
       -0.028131478 -0.14936492 -0.08728988 0.20123269
000160 8a e6 2a be 69 94 6c be 80 a2 78 be 42 39 54 3e
       -0.16689506 -0.23103489 -0.24280739 0.20724967
000170 97 eb 31 bd b2 a9 dd bc 5d 82 f1 bd b1 9a c9 3d
       -0.043437567 -0.027058456 -0.11792443 0.09843958
000180 6b b8 4a 3e 09 05 16 3e 34 df 29 3e a7 c8 98 bc
       0.19796912 0.14650358 0.16589051 -0.018650366
000190 d1 48 87 3d dd 07 cb bd 99 16 40 3e 86 1b a3 bd
       0.066056855 -0.09913609 0.1875862 -0.07964234
0001a0 5f 02 af bd 35 4c bd 3c 0e 7c 3e be 2e 3a 1f be
       -0.08545374 0.023107627 -0.1860201 -0.15549538
0001b0 bb bf 55 3e b6 06 c9 bd 4f 0f d8 bd 04 a4 ec 3d
       0.2087392 -0.09815733 -0.10549795 0.11554721
0001c0 0e 0e 88 bc 71 89 29 3d 1a 0e 3e 3e 0d c3 a5 bd
       -0.016608264 0.04139084 0.18560067 -0.080938436
0001d0 9c 00 67 bd 4b 29 7e be de 88 79 3d 8f 00 f6 bd
       -0.056397066 -0.2482044 0.060921542 -0.12011825
0001e0 d9 e6 0d be d5 6e 06 3e 15 9e 42 bc cb d8 4f 3e
       -0.13857593 0.13128217 -0.01187851 0.20297544
0001f0 ff 56 19 be 54 c2 59 3e d4 57 63 bd c8 8e 44 bd
       -0.14974593 0.21265537 -0.05550368 -0.04798773
000200 94 95 39 bd 09 ab 56 3e 2c 20 cb bc 10 b7 5d be
       -0.045308664 0.20963682 -0.024795614 -0.21651864
000210 b4 05 11 be 1e 98 0a be d5 6e f3 bc df 93 33 be
       -0.14162332 -0.1353459 -0.029715935 -0.17536877
000220 00 2e 02 3d 93 f7 d2 3b c6 29 ed 3d a6 fd 4e be
       0.03178215 0.0064382046 0.11580233 -0.20213947
000230 80 26 7e 3e 7a 54 47 3d ef 47 e1 3c fa 9a 38 be
       0.24819374 0.048664548 0.02750012 -0.18027869
000240 0e 22 2e 3e 1a b3 23 3e 2c 36 c8 3d 4d 7c 1f be
       0.17005178 0.1598629 0.097759575 -0.1557476
000250 c5 34 17 be 29 66 32 3e f1 e3 42 be 8e 62 fe 3c
       -0.14766224 0.17421784 -0.19032265 0.031052854
000260 e2 99 32 bd dc a7 46 3e cb fa 65 be dc 1e dd bd
       -0.043603785 0.19399971 -0.22458951 -0.107969016
000270 da b7 86 bd 25 ef 9a bd 02 c0 3e be 87 49 c7 bd
       -0.06578036 -0.075651444 -0.18627933 -0.09730821
000280 c9 3f 18 be 0f 77 4c 3e e5 c1 12 be dd 98 de 3b
       -0.14868082 0.19967292 -0.14331777 0.006793125
000290 e3 dd 7e be a5 75 04 be a9 54 44 3e f7 0a 55 be
       -0.2488933 -0.12935503 0.1917292 -0.20804964
0002a0 5a 97 31 bd 4e b3 ee bd 55 06 c0 bc e4 b2 41 bc
       -0.04335723 -0.116552934 -0.02344052 -0.011822436
0002b0 b0 1c 8b bd 60 7c f1 bd ec 7f ca 3d 8c 94 09 bd
       -0.06792581 -0.11791301 0.098876804 -0.03358893
0002c0 44 1f 80 3d c5 70 54 be a3 c7 31 bd 06 a7 bc bd
       0.062559634 -0.20746143 -0.04340328 -0.09211545
0002d0 9c 42 ec 3d 16 e1 c5 bc b6 90 0d be 86 40 72 be
       0.11536142 -0.02415518 -0.13824734 -0.23657426
0002e0 c2 ea a0 3c 3a 16 0e be ad d0 56 be 9d cc 23 be
       0.019643191 -0.13875666 -0.20978041 -0.15996023
0002f0 e3 a6 76 3e 06 8f 0a be fa b7 a5 bd 5e 9a 63 be
       0.240871 -0.13531122 -0.08091731 -0.22226855
000300 a9 90 46 be 07 e6 0b be 2b c2 7e be 7c c0 8d 3d
       -0.19391121 -0.13661967 -0.24878757 0.06921479
000310 af 3b 1b bd 2a 27 d5 3d ef 9f ab bd 7b 1a 02 be
       -0.037898716 0.104078606 -0.08380114 -0.12705414
000320 53 ab 06 bd 9a 6c 32 3e 98 0a 13 3e 70 f9 82 bd
       -0.03287823 0.1742424 0.1435951 -0.06395233
000330 9b 26 4d 3d de 5b 94 bd 08 7b ca 3b a6 53 3f 3e
       0.050085645 -0.07244085 0.0061792172 0.18684253
000340 f5 f8 0f 3e 68 58 0d bc 3a 7e 95 3d 0f 13 7b 3d
       0.14059813 -0.008627035 0.072994664 0.061297473
000350 a3 2b 16 be 87 f9 5b bd 2d f7 59 3e f5 3b ac 3d
       -0.14665084 -0.053704765 0.21285696 0.084098734
000360 36 59 92 bb 90 1e 73 3e d2 05 91 bd e6 f1 fa bd
       -0.004466201 0.23742127 -0.07081188 -0.1225317
000370 28 dd e4 bd 8b de 16 3e 7b 8f 9e 3d fa 4f 23 3e
       -0.11174995 0.14733331 0.077422105 0.15948477
000380 1e fc 1c 3e 7b ed cd bd 40 96 1a bd c6 2c 3b be
       0.1533055 -0.100550614 -0.037740946 -0.18278798
000390 b8 51 12 3e 46 23 2b 3e b0 14 34 be e1 33 18 be
       0.14288986 0.16712674 -0.17586017 -0.1486354
0003a0 dd 0a f7 3c da 12 98 3c 9c 55 01 3e a0 16 e4 3d
       0.030156547 0.018563677 0.12630314 0.11137128
0003b0 e3 0f 55 be 13 fc 04 3d 4d 84 27 bc 7e 01 18 3e
       -0.20806842 0.03246696 -0.010224414 0.14844319
0003c0 c7 38 5e 3e 1f 53 3a 3e 7b d7 16 3e be 90 19 be
       0.21701346 0.1819577 0.14730637 -0.14996621
0003d0 47 2b 15 be 49 31 30 be b8 5f 73 3e 04 4e 60 be
       -0.1456729 -0.17206301 0.23766983 -0.2190476
0003e0 eb 70 0f 3e 1f 81 54 3e 83 80 7e be 53 06 e6 3c
       0.14007919 0.20752381 -0.24853711 0.028079187
0003f0 ba 0d 17 be d6 6c 5d 3d a5 26 80 3d 74 52 e2 bd
       -0.1475133 0.054058872 0.06257371 -0.11050883

conv1.0.bias f4 [32]
000000 e0 c7 3d 3d 6c 7c 40 be 06 89 43 be 27 c4 66 be
       0.046333194 -0.18797463 -0.19095239 -0.22535764
000010 9d 28 6e be 3b 18 04 be 2a a4 ac bd 0b f1 e4 3d
       -0.2325768 -0.12899868 -0.08429749 0.11178788
000020 b3 aa 33 be 03 3f c5 3c 3e 25 5d 3e 15 f0 77 bd
       -0.17545585 0.024077898 0.21596238 -0.060531694
000030 f9 c2 0d be ab 0e 5a 3e a6 1d e8 bd 16 a8 cd bb
       -0.13843907 0.21294658 -0.1133378 -0.006276141
000040 b4 e6 39 be 78 73 e9 bd 3f 6e 24 bd b5 f6 1c be
       -0.18154413 -0.11398977 -0.0401442 -0.15328486
000050 17 df fa bc 67 5f 0b 3e 8c 19 79 3e 5f 16 d4 b8
       -0.030623956 0.13610612 0.24326152 -0.00010113115
000060 cd 13 c4 bc fd 95 14 be 67 8f be bd 61 93 3e bd
       -0.023935223 -0.14510341 -0.093046956 -0.04652727
000070 a9 3d 42 3e 9f 6d 56 3e 02 05 2d 3e 04 32 6a 3e
       0.18968834 0.20940255 0.16896442 0.22870642

conv2.0.weight f4 [64, 32, 4, 4]
000000 f2 ca 09 3d 66 e4 05 3d ba 85 29 3d e2 e1 f7 bc
       0.03364081 0.03268852 0.041387297 -0.030259077
000010 8c 80 01 3c b6 c5 81 3c 76 d1 21 3d 4f cc 65 3c
       0.007904183 0.015841346 0.0395064 0.014025762
000020 52 a1 21 3b 22 5a 54 3c 10 d2 34 3d b4 c3 68 3b
       0.0024662805 0.012960942 0.044145644 0.0035517039
000030 bc dd 9c 3c 21 67 0c bd b7 a3 28 3c a8 dc 08 3d
       0.0191487 -0.03427804 0.010292939 0.03341356
000040 da 68 0d bd 19 0d 16 bd a0 6b 27 bd 10 c8 b8 bc
       -0.034523822 -0.036633585 -0.040874124 -0.022556335
000050 ef 01 01 bd ec f9 21 3d 30 a4 8d 3c 73 7b e0 3c
       -0.031495985 0.039544985 0.017290205 0.027402615
000060 bb c9 bc bc c0 de e5 bc 86 0c b5 bc f9 09 f3 3b
       -0.023045411 -0.028060317 -0.022100698 0.0074169603
000070 9a 53 17 bd 7b c4 99 3c f4 84 93 ba 26 54 b4 bc
       -0.036944963 0.018770447 -0.0011254833 -0.022012781
000080 c7 71 18 bd 1a 0e 62 bb 95 be 22 bd 23 be 26 bd
       -0.03721788 -0.0034493268 -0.039732534 -0.040708672
000090 63 ce e5 bc e7 a0 bc bc 60 54 27 bd 98 e2 28 bd
       -0.028052514 -0.023025943 -0.04085195 -0.04123172
0000a0 88 c7 01 3d 0c 46 7c 3c b8 6f ea 3c cf 55 98 bc
       0.03168443 0.01539756 0.028617725 -0.018595604
0000b0 d4 80 04 bd 71 e7 9b 3b e9 2c 10 3d 52 89 bb bc
       -0.032349423 0.0047578146 0.03519908 -0.022892628
0000c0 b2 69 72 bc 08 fe 91 3c 5c a3 8c 3c 53 a2 fa 3c
       -0.014795708 0.017821327 0.01716774 0.03059498
0000d0 5f df 90 3c 29 4a 84 bc e7 3d c2 bc ab ca 99 bc
       0.017684637 -0.016148644 -0.023711158 -0.018773397
0000e0 94 74 0b 3d e7 6c 0e 3d 63 af eb bc 7a aa 15 3b
       0.034046724 0.034771826 -0.028770154 0.0022837208
0000f0 a7 19 0d bd 44 5d 93 bc c5 4a 7e 3c 94 13 b8 3c
       -0.034448292 -0.017988808 0.015520756 0.022470273
000100 0a 5e d3 3c e1 9b 4a 3c fe 11 49 ba 88 1f d3 bc
       0.025801677 0.012366266 -0.00076702225 -0.025771871
000110 07 70 ca 3c 2b 74 ef 3b 39 d8 de bc 7e c4 db 3c
       0.024711622 0.0073075495 -0.027202712 0.026827093
000120 f7 e9 04 3d 14 5d 5e 3c 45 53 7b 3a f6 21 41 bc
       0.03244969 0.013571996 0.0009587298 -0.011787882
000130 0c 8f 1c bd 22 b6 1a 3c 47 3a ab 3c 43 9e ab 3c
       -0.038222358 0.009442838 0.020901812 0.020949489
000140 c8 37 43 bc fd e8 09 3d 1c ab 20 bc 8d dd b6 3c
       -0.011915155 0.03366946 -0.009806421 0.02232244
000150 98 78 7c ba 6f 90 37 bc 58 ab 5f 3c e2 4f 13 3d
       -0.0009631007 -0.011203869 0.013651691 0.035964854
000160 26 0c 1a 3d 00 d9 82 bc cc 57 cb bc 94 16 3d bc
       0.037609242 -0.015972614 -0.024822138 -0.011541028
000170 c0 5d 1f 3d 08 ee e7 bc 6f 4f 05 bc 64 3b 1d bd
       0.038907766 -0.028311744 -0.008136614 -0.038386717
000180 37 00 4b 3c a8 8b de 3c b2 f2 f6 bc 48 8e 2f 3d
       0.012390188 0.027166203 -0.030145023 0.0428603
000190 ba 12 8d bc f0 64 30 3d 8a 23 e1 3c 2a 6d a6 bc
       -0.017220844 0.04306501 0.027482767 -0.020315725
0001a0 aa 07 87 bc f2 69 be bc 9a 62 80 3c 92 4a 0d bd
       -0.016483147 -0.023243878 0.015672017 -0.034494944
0001b0 08 fe ad bb 6b a5 4d 3c 86 c1 76 bc f2 e4 8e ba
       -0.005309824 0.012551646 -0.015060788 -0.0010901971
0001c0 74 22 2a bd f7 fa f2 3b e3 10 94 3c b5 69 a7 3b
       -0.041536763 0.0074151712 0.018074458 0.005109037
0001d0 4b f1 32 3d 26 64 47 3c d7 2f 31 bd f1 19 2f bc
       0.043687146 0.012169873 -0.043258514 -0.010687337
0001e0 ba 5a 9d bc 74 f9 e6 bc 48 e7 e4 bc ec e9 8d bb
       -0.0192083 -0.02819512 -0.027942315 -0.004330864
0001f0 1d ca 50 bc 75 ea c6 bb 07 d0 04 3c 6b 55 c7 3c
       -0.0127435 -0.00607043 0.008106238 0.024332723
000200 9f 13 e5 3b fb 05 e5 bc 0c 3b e3 bc e1 a2 1b 3d
       0.0069908644 -0.027956953 -0.027738117 0.03799713
000210 0f 2d 07 bd d0 6a ec 3c 93 24 0f 3b dd 58 49 bc
       -0.033001956 0.028859526 0.0021841868 -0.012289253
000220 ef 8c 31 bd 99 77 db 3c ce ee cd bc 44 20 3e bc
       -0.043347295 0.026790427 -0.025138285 -0.011604372
000230 ec 08 10 3d 82 df 77 3c 3c 22 8b bc 9a 91 45 bc
       0.03516476 0.015128972 -0.016984098 -0.01205864
000240 3b bf 9b bc c5 75 2d 3d 8f 07 07 3d ab af e1 bc
       -0.019012084 0.042348642 0.032966193 -0.027549585
000250 1f a1 68 3a fe 8d 56 bc 71 7e 22 3d 86 37 65 bc
       0.00088741066 -0.013095377 0.039671365 -0.013990289
000260 c5 9a 2b 3d da 87 2f bd 64 5c fd bc 69 9c 0f ba
       0.041895647 -0.042854168 -0.030927844 -0.0005478324
000270 4c 38 00 bd 40 cc ea 3c 3a 8f 9f bc 0d 85 8f bc
       -0.03130369 0.028661847 -0.019477475 -0.017519498
000280 6b cd 84 3c d0 fa 2b bd e8 d0 e0 3c 04 df 32 3d
       0.016211232 -0.04198724 0.027443364 0.043669716
000290 f4 52 72 bc 33 1b e8 bc d2 49 04 bc 5f 5b 1b bd
       -0.014790285 -0.028333282 -0.008074241 -0.037928935
0002a0 00 4c 8b bc 88 6c cb bc 03 20 f2 bc ba 0c 0d 3d
       -0.017004013 -0.024832025 -0.02955628 0.034435965
0002b0 17 a6 09 3d 65 b9 fa bc 43 eb cb 3c a4 24 8e 3c
       0.03360566 -0.030605981 0.024892455 0.017351456
0002c0 25 5c 1e 3d 39 5a a2 bc df dd 32 bd fe 21 21 bd
       0.038662095 -0.019818412 -0.043668624 -0.039339058
0002d0 18 fb 06 3d 0b 76 fc 3c eb 4e eb bb 82 82 a0 3c
       0.032954305 0.030818006 -0.0071810386 0.019593481
0002e0 6a 85 13 3d ea 28 6f bc 2e 43 19 3d c7 41 f9 bc
       0.036015905 -0.014597157 0.037417583 -0.030426873
0002f0 62 12 a7 3b 9a 63 96 3c 79 37 fa 3c 31 78 b1 3c
       0.005098627 0.01835804 0.03054403 0.021663757
000300 a9 f8 06 3c 8f 69 ca 3c 43 6b 1b bd db 85 30 3d
       0.008237996 0.024708537 -0.03794409 0.043096405
000310 2d 42 bb bc 0c a8 a3 3c 25 5f 13 3c 61 55 01 3d
       -0.022858704 0.019977592 0.008994852 0.031575564
000320 ff c5 bc bc 6b 5d 37 ba 47 a3 01 3c c8 48 8f 3c
       -0.02304363 -0.00069948164 0.0079124635 0.01749076
000330 0c 30 e5 ba 5f 58 71 bc d7 6f c3 bc 07 da 3e bc
       -0.0017485633 -0.014730542 -0.02385704 -0.011648661
000340 d7 4c 7c 3c 07 87 0b 3d ac ea 1f bd c0 a6 ca 3c
       0.015399179 0.03406432 -0.03904216 0.024737716
000350 b0 6e bc 3c 31 32 33 3d 59 40 5b bc 0f 95 40 bc
       0.023001999 0.043749038 -0.013382041 -0.011754288
000360 b3 0b a6 3c 0c 65 a0 bc 10 33 32 bc 5e 7a 11 3d
       0.02026925 -0.019579433 -0.010876432 0.03551709
000370 83 3d 0a bd 1e fe a6 bc 1b 89 fe 3c fe d7 97 bc
       -0.03375007 -0.020384844 0.031071236 -0.01853561
000380 2b 8c b6 3c 83 80 a5 ba 88 74 42 3b fc 6c 7b bc
       0.022283634 -0.00126268 0.0029671509 -0.015345808
000390 bd 12 f0 bb 49 4c 1a 3a 9d 2a f1 3b 11 30 c8 3c
       -0.0073264525 0.0005886001 0.007359816 0.024436982
0003a0 c3 97 4a bb f3 64 1b bd 08 8c e6 bc d8 d8 15 bd
       -0.003091321 -0.03793807 -0.028142944 -0.03658375
0003b0 88 af f3 3a 66 a4 05 bc e1 ad d7 3c 6c f8 8c 3b
       0.0018591741 -0.008156871 0.02632803 0.004302075
0003c0 b8 f8 7b 3c 99 89 f4 3c 32 38 6e ba e3 49 24 bd
       0.015379123 0.029850768 -0.0009087353 -0.040109526
0003d0 d0 40 4a ba c8 cc 26 3d 16 57 91 bc 6c 93 8b bc
       -0.00077153463 0.04072264 -0.017741721 -0.01703807
0003e0 47 bb ed 3c 35 d1 b6 3c 40 09 09 bd 7b 7c 01 3b
       0.029019965 0.022316555 -0.033456087 0.0019758034
0003f0 7d 2c 34 bd d5 cc 9d bc d3 1d dd 3c 1e c2 fd 3c
       -0.04398774 -0.01926271 0.02699176 0.030976351

conv2.0.bias f4 [64]
000000 30 0e 8d bb a1 ca af bc 21 58 e5 bc 25 f0 f1 37
       -0.00430467 -0.021458926 -0.027996125 2.8841265e-05
000010 cc 06 a5 bc 55 fc 06 3d 26 15 1b 3d 97 88 93 bc
       -0.020144843 0.032955486 0.037861966 -0.018009467
000020 ec d3 23 3d bf 68 05 3c 2e 26 de bc b2 ac 16 3d
       0.039997026 0.008142649 -0.027117815 0.03678579
000030 8b 1c 13 bd bc 8a db bc fe f2 18 3d b5 7a f5 bc
       -0.035915893 -0.026799552 0.03734111 -0.029965738
000040 84 72 7d 3c ba 3d 99 3c 17 09 0b 3d 3e 70 2f bd
       0.015469197 0.018706191 0.033944216 -0.042831652
000050 ef d0 2c bd 02 0d 29 bd 49 b0 04 3b 64 3c eb 3c
       -0.042191442 -0.04127217 0.0020246676 0.02871532
000060 06 78 7c bc cc 99 ee 3b a8 b1 61 bc 1e d6 6c 3c
       -0.015409475 0.0072815176 -0.013775267 0.014455346
000070 5c 39 18 3d 2f e9 2e 3d e8 05 32 3d 11 d4 46 bc
       0.037164077 0.04270285 0.043462664 -0.0121355215
000080 1e d3 8f bc 03 67 14 3d 40 58 80 bc a1 2b 4d bc
       -0.017556723 0.036231052 -0.01566708 -0.012522609
000090 80 10 7d bc 32 e7 e9 3c 27 c8 eb bc df 3c f5 39
       -0.015445828 0.028552625 -0.028781964 0.00046775394
0000a0 c9 2a 9e 3c 12 8c 39 bc 9d 06 3d bc ba 54 93 bc
       0.01930751 -0.011324899 -0.011537221 -0.017984737
0000b0 43 a2 1b bd b1 d2 b7 3c 2e cb ff 3c 4e 17 c6 3b
       -0.03799654 0.022439333 0.031224813 0.0060452586
0000c0 05 a5 7b 3c b1 56 0a 3d 0d fc 23 3d 17 e6 78 bc
       0.015359168 0.03377408 0.040035296 -0.015191576
0000d0 14 c7 05 3d 49 87 19 3d bd 34 28 3c 05 c5 87 3c
       0.03266056 0.037482534 0.01026648 0.016573438
0000e0 93 14 9b bc 58 ab 7b 3c 1e e0 01 bd 2a 85 0f 3d
       -0.018930709 0.015360676 -0.031707875 0.035039105
0000f0 d7 87 d8 3c 3e 4b 1f 3d 02 9b 7a 3c 6f a5 0d bd
       0.026431961 0.038890116 0.015295746 -0.034581598

conv3.0.weight f4 [64, 64, 3, 3]
000000 a4 80 dd bc 5b 20 06 3c 2b f4 11 3d 6b 8d 85 ba
       -0.02703888 0.008186425 0.035633247 -0.001018924
000010 88 1d f3 bb 1a 0b bc 3c 63 bd db 3c 13 77 95 3a
       -0.007419292 0.022954512 0.026823705 0.0011403285
000020 d6 a0 65 3b a4 85 93 3c b1 ea 0b 3d 2d bd 2f 3c
       0.0035038493 0.01800806 0.034159366 0.010726255
000030 b3 dd 77 bc 89 ad 17 3d 58 11 0c bd 74 27 00 bd
       -0.015128541 0.03703073 -0.034196228 -0.031287625
000040 3c 5e 36 bc 03 2d dd bc b4 63 95 bb 51 de 17 bd
       -0.011130866 -0.026999002 -0.0045590047 -0.03707725
000050 44 ed c5 3b 14 9c 69 bc 26 1c b9 3b 03 d2 91 3c
       0.006040247 -0.014258403 0.0056491075 0.017800337
000060 2e 69 04 bc f4 db a3 3c ee 87 68 bc f3 66 0b 3c
       -0.008081717 0.020002343 -0.014192564 0.008508432
000070 f6 74 8c 3c 1e 98 0b bc a9 7b 45 bc 32 1e 9c ba
       0.017145615 -0.008520154 -0.012053409 -0.0011910854
000080 12 95 66 bc f7 ea e2 3c 91 51 35 bc 18 34 34 bc
       -0.014073627 0.02769993 -0.01106681 -0.010998748
000090 e7 7f f7 3c af 16 09 3d 0e a5 87 bc 46 60 11 bd
       0.030212356 0.0334689 -0.016558196 -0.035492204
0000a0 74 7d a6 3b b7 84 df bc 53 80 25 bc fd e7 12 bd
       0.005080873 -0.027284963 -0.010101396 -0.035865773
0000b0 d1 e2 ad 3c b3 be ff bb bc a8 26 bb a2 33 c2 3b
       0.021226319 -0.0078047155 -0.0025430163 0.0059265653
0000c0 8d d8 1c 3d 02 d3 c3 3c 81 c3 d9 bc 63 52 90 3c
       0.038292456 0.023904327 -0.026582481 0.01761741
0000d0 e4 78 11 bd d3 a6 d9 3c a9 a4 d7 bc 4a f4 b5 3c
       -0.03551568 0.026568806 -0.026323633 0.022211213
0000e0 c1 83 21 bd ce 99 0c bc 5b b5 28 bd 1c 6f 9b bc
       -0.03943229 -0.008581592 -0.04118858 -0.01897388
0000f0 be ac 35 3b 0c b1 8e bb 3b ce 45 3c 76 e8 0d bd
       0.002772137 -0.0043546017 0.012073095 -0.03464552
000100 ba a5 d7 3c 47 51 25 bd 99 82 13 3c 83 2c 0c 3c
       0.026324142 -0.040360715 0.009003305 0.008555534
000110 6e 83 7e 3c a7 f2 fe 3b 8c e8 92 3b 09 92 d4 bc
       0.015534265 0.0077803913 0.004483288 -0.025948541
000120 29 e5 ba 3b f9 dc df 3c 98 61 9b bc 90 85 21 bd
       0.0057035876 0.027327048 -0.018967435 -0.039434016
000130 28 99 c4 3c 19 d0 2f bc 7b 1e 03 3d b4 e9 d4 bc
       0.023998812 -0.010730767 0.03201149 -0.025990345
000140 8d 65 a6 bc ea 85 c6 bc d9 51 e6 bc 43 49 0d 3d
       -0.020312095 -0.024233777 -0.0281152 0.034493696
000150 e2 9c 99 3c f2 cb d2 bc 8a 6a 26 3d 9b bc 0a 3d
       0.018751565 -0.025732014 0.040628947 0.033871274
000160 46 50 0d 3d f6 2c 41 3c 1b 2b 83 bc 91 59 b4 3c
       0.034500383 0.011790505 -0.016011765 0.022015365
000170 3c 2c 30 39 0e 01 1b 3d 1b ff 02 3d ed d5 48 bc
       0.00016801147 0.037842803 0.03198157 -0.012258035
000180 39 e6 b0 bc b3 7b 80 3c bf 7c 1c 3c 0c eb 8c 39
       -0.021594154 0.015683984 0.009551226 0.00026878004
000190 37 a0 97 bc cf 66 a3 3c fa 52 ba 3c 45 9c af 3c
       -0.018509014 0.019946484 0.022744644 0.02143682
0001a0 a5 6c 7c 3c 11 d3 27 bd dc ca eb bc a8 ca fc 3c
       0.015406762 -0.040972773 -0.028783254 0.030858353
0001b0 6d 19 13 bd a8 d1 3f 3c 00 88 85 3c 2e 92 20 3c
       -0.03591292 0.011707701 0.016300201 0.009800477
0001c0 64 bc e6 bc 7a cd de 3b 95 56 20 3d 36 55 9e bc
       -0.028166004 0.006799397 0.03914507 -0.019327741
0001d0 f7 09 0c bd 69 d3 a6 bb 85 f8 dd bc 29 c5 1b bb
       -0.03418919 -0.00509112 -0.027096042 -0.002376864
0001e0 08 fa c0 3c cd e9 1f 3d 55 b8 99 3c 2f 76 e5 bc
       0.023556724 0.03904133 0.018764654 -0.028010456
0001f0 cd 5b 9d 3c 53 9e a5 3c 04 cb 9c 3c 61 d5 26 3d
       0.019208813 0.020217096 0.019139774 0.040730838
000200 28 d3 50 bc 22 f3 fd 3c 3c 19 39 bc 7d 53 84 3c
       -0.012745656 0.030999724 -0.01129752 0.016153092
000210 c2 30 df 3b 67 91 ef ba 99 81 f3 3c bf 6d 0c bd
       0.0068112323 -0.0018277586 0.029724883 -0.03428435
000220 07 6a d5 bc 8e 2f ff bc de 2f 6c bb ba 8d 8b bb
       -0.026051534 -0.031150606 -0.0036039273 -0.0042588385
000230 e5 83 88 bc 95 2f c8 bc 75 21 1a bd 7a 7b 84 3c
       -0.016664455 -0.024436751 -0.037629563 0.01617216
000240 0e f4 3d bc 9a 11 93 bc 5d 1b 6c 3c db 3c 2a bc
       -0.011593832 -0.017952729 0.014410821 -0.010390486
000250 aa 0a a2 3b 1c e3 f0 bc 98 65 74 3c 6f 33 c6 bc
       0.004945119 -0.02940517 0.0149168 -0.024194447
000260 5b 91 ae 3b 9d 69 8a 3c 35 ab 8f bc 87 72 06 3d
       0.0053273863 0.016896063 -0.017537693 0.032824066
000270 37 02 5f 39 78 bf b5 bc 62 6a 28 3d e8 60 60 bb
       0.00021267762 -0.022186026 0.04111708 -0.0034237448
000280 aa 80 07 3d ff 5e 9e bc 3c 32 03 bd 3b b6 bd 3b
       0.033081688 -0.019332407 -0.03203033 0.005789546
000290 c4 d0 b1 3b af 59 b2 bc 4d b2 71 bc c0 0c 79 bc
       0.005426498 -0.02177128 -0.014751983 -0.015200794
0002a0 8d bd a0 3c 66 07 30 3a 72 26 fe 3c 7a fe fa bc
       0.019621635 0.00067149696 0.031024192 -0.030638922
0002b0 95 31 64 bc bd 6e 29 bd a9 ee f6 bc 45 e8 69 3c
       -0.013927837 -0.041365374 -0.030143099 0.014276569
0002c0 f4 86 90 bc e6 0e a9 ba 80 e7 1b 3d 40 cf 9a 3c
       -0.017642476 -0.0012898117 0.038062572 0.018897653
0002d0 fa 53 15 bc 58 60 01 3d c4 e3 86 3c ac 7b 34 bc
       -0.00911426 0.03158602 0.016466029 -0.011015814
0002e0 6c 7b 62 3c 3d 71 cc bc a7 db 20 bd b8 0f aa bb
       0.013823371 -0.02495634 -0.039271977 -0.005189862
0002f0 6b 09 8d bb 7f d0 43 3c d7 4e 00 3d ac 9b 0f 3d
       -0.004304101 0.011951565 0.031325188 0.03506057
000300 7d 78 40 bc 31 ea 89 3c c4 6d 2c bc 84 7a c9 bc
       -0.011747477 0.016835304 -0.010524217 -0.024594553
000310 d8 d7 28 bc fe f4 cd 3a 5a ee ae 3c d0 a9 82 bc
       -0.010305367 0.0015713272 0.02135389 -0.015950114
000320 86 da d3 3b 60 8a de bc 71 15 25 3d 20 9a 0a 3d
       0.006465259 -0.027165592 0.04030365 0.03383839
000330 7c 1c db 3c 59 34 e2 3a 42 25 3b 3a 95 72 b0 3b
       0.02674698 0.0017258032 0.0007139036 0.005384753
000340 a7 3f 15 3d 6f 69 26 3d 17 98 19 3d 8d 8b b8 3c
       0.036437657 0.040627893 0.03749856 0.02252748
000350 71 84 01 3d 2d c4 e3 bc c9 73 1a bc 83 d8 da bc
       0.031620447 -0.027803505 -0.009427019 -0.026714569
000360 70 03 13 3d 04 24 20 bd f4 3f 16 bc 87 fe 9f bc
       0.03589195 -0.039096847 -0.009170521 -0.019530548
000370 12 c1 1c 3d f9 a3 82 bc 71 4f 27 bd 1b ff 90 bc
       0.038270064 -0.015947329 -0.040847246 -0.017699769
000380 8c 81 41 3b a2 6e 38 3b 51 50 8f 3c 35 1a fa 3b
       0.002952668 0.0028142114 0.017494353 0.0076325187
000390 e6 ad 12 bd 88 03 1a bd 51 15 70 3c e5 f6 be 3c
       -0.035810374 -0.037601024 0.01465352 0.023311088
0003a0 f5 d4 18 bd 89 39 1d 3b 98 57 b4 bc cf e6 c3 bc
       -0.037312467 0.0023990592 -0.022014424 -0.023913769
0003b0 01 7f 0f 3d ba 18 23 bd 2e e1 a3 bc d6 59 81 3c
       0.03503323 -0.039818503 -0.020004835 0.015789907
0003c0 9b c5 55 bb 51 18 61 3c 66 98 4c 3c 70 b5 00 bd
       -0.0032619003 0.013738708 0.0124875065 -0.031423032
0003d0 73 66 0b 3d 7e 47 ce bc 5a 62 a2 3c 35 dc c9 bb
       0.03403325 -0.025180575 0.019822288 -0.006160284
0003e0 a4 12 b5 3c 0c 96 18 3c 9f 6d f8 3c eb 3f c1 bc
       0.022103615 0.009313118 0.030325709 -0.023590049
0003f0 1b b1 0b bd ad 14 e8 3c b0 93 4d bb 39 67 3a bc
       -0.034104448 0.028330171 -0.0031368546 -0.011377149

conv3.0.bias f4 [64]
000000 11 40 1d 3d 43 23 bb 3b 5a b4 3e bc d7 20 2c 3c
       0.038391177 0.0057109906 -0.011639679 0.0105058765
000010 dc 55 e8 bc 8c c3 bb 3c d3 d6 c3 bc 0c 99 62 bc
       -0.028361253 0.022920392 -0.023906147 -0.0138304345
000020 8e 73 14 3d 53 0e 59 bc 6e b1 fb bc ad c0 07 3d
       0.036243014 -0.013248044 -0.030724254 0.033142734
000030 bb 9f 16 3c 6f ff 08 bd 1f 4e 9b 3b 01 ca db ba
       0.009193356 -0.033446725 0.0047395374 -0.0016768576
000040 31 50 d7 3b b8 f8 e1 3c 49 69 14 3c 58 d9 00 bd
       0.006570839 0.027584419 0.009058305 -0.031457275
000050 d3 59 0d 3d 06 b9 10 bd 59 3b 1c 3d 48 50 26 bd
       0.03450949 -0.035332702 0.038142536 -0.040603906
000060 0e 84 0b 3d 4d 72 a6 3c b8 40 96 bc 92 eb fb 3c
       0.034061484 0.020318175 -0.018341407 0.030751977
000070 2c 29 17 3b 5b 8e 0a 3d cb 9f 5e 3c a3 47 20 3c
       0.0023065312 0.033827167 0.013587902 0.0097827045
000080 41 89 81 bc 33 6f 67 bc 9b 84 1f 3d cb 32 1e 3d
       -0.015812518 -0.014125633 0.03894482 0.03862266
000090 eb 5e ef bc 9b 9d 8a 3c b0 b3 33 bc 21 f2 d9 bc
       -0.029220065 0.016920855 -0.010968134 -0.026604714
0000a0 4c 48 d7 3b 22 a8 28 3d d0 3c f5 bc f6 66 c1 bc
       0.0065698978 0.04117597 -0.029936224 -0.023608666
0000b0 14 ee 92 bc 3e db d0 bc 61 5d 6a bc ca 92 d8 3b
       -0.01793579 -0.025495168 -0.01430449 0.0066092955
0000c0 76 5b 6b b9 89 45 a1 3c 13 a1 11 bd df 71 2b 3d
       -0.00022445418 0.019686477 -0.035554003 0.041856643
0000d0 5e 64 f8 3c 0f 53 14 3d 0e b3 0a bb 3a 52 c1 bc
       0.030321296 0.036212023 -0.0021163854 -0.023598779
0000e0 d4 dc f0 3c 8f a4 fa bc b6 2d 94 bc c7 78 16 bb
       0.029402174 -0.030596046 -0.018088203 -0.0022960173
0000f0 ef e4 78 3c e1 dd cb bc 31 27 8a 3b 56 24 de bc
       0.015191301 -0.024886074 0.0042160978 -0.027116936

fc1.0.weight f4 [80, 970]
000000 d8 9a 6d bc 01 2a b2 bc c5 3d 43 bc 94 9b c1 3c
       -0.01450225 -0.021748545 -0.0119165825 0.023633756
000010 31 c2 98 3c b8 4b 82 3c 29 af 73 3b 7d 88 30 3c
       0.018647285 0.015905246 0.003718326 0.010774729
000020 fb 96 b9 3c 2b a3 dc 3c 5c ba 52 bb df a5 95 bc
       0.022655 0.026933273 -0.0032154536 -0.01826757
000030 ce 1b 15 3c 93 38 88 bc 09 7b ee 3b 2f c6 a3 38
       0.009100867 -0.01662854 0.0072778505 7.80936e-05
000040 b2 f3 87 3c 2e 17 83 bc dd 77 ad 3b 7d 1e cf ba
       0.016595695 -0.016002264 0.00529383 -0.0015801933
000050 18 61 76 3c cd ba b9 3c 46 09 c3 3c 79 ab 81 bc
       0.015037797 0.022672081 0.023808133 -0.015828835
000060 ba bb 8b 3a 9d e3 5f bc 1f 39 01 bd 89 0a bc 3c
       0.0010660805 -0.013665107 -0.031548616 0.022954242
000070 03 3e e9 3c 67 87 01 3d 5d 27 25 3c ab 1c 39 bc
       0.028471952 0.03162327 0.010080186 -0.011298339
000080 9b da dd 3b f6 49 12 bc e4 13 ff 3c b7 a0 d8 bc
       0.0067704446 -0.0089287665 0.031137414 -0.026443822
000090 3d af 93 bc 86 9a fe 3c 0f 4c 98 3c c9 98 7f 3c
       -0.018027896 0.031079542 0.018590955 0.015600392
0000a0 7f 4e ae 3b 91 a7 87 ba f5 2c ad 3c 54 fb 05 bc
       0.005319416 -0.0010349621 0.021139601 -0.008177597
0000b0 ea 45 8d 3c 58 56 03 bc f7 9a cf 3a e3 27 c2 3c
       0.017245252 -0.008016191 0.001583903 0.02370066
0000c0 25 8d d9 bb ff 0d df bc 49 86 9c bc e7 d6 a8 bc
       -0.00663914 -0.027228354 -0.019107 -0.020610286
0000d0 31 af 4c 3c 63 db 87 bc 1b 3b 95 bc da 05 64 3b
       0.012492941 -0.016584104 -0.01821666 0.0034793527
0000e0 12 f2 03 3d bc 19 b5 bc fc eb bf 3c 92 a9 93 bb
       0.032213278 -0.022106998 0.023427956 -0.0045062983
0000f0 1b 6e ef 3c a5 1f de bc e8 18 9d 3c 64 45 e1 bc
       0.029227307 -0.027114699 0.019176915 -0.027498908
000100 18 51 dd 3c 03 e7 c8 3c 49 9d d9 3c 0a fa c6 3c
       0.027016208 0.024524217 0.026564257 0.02428915
000110 9e 6d 1c 3c b6 80 db 3c a7 fa 98 bc 26 08 c3 3b
       0.009547619 0.026794773 -0.018674208 0.005951899
000120 44 16 6b bc 17 0f 0a 3c 75 59 fd 3b 75 3d 90 b9
       -0.01434857 0.008426449 0.0077316114 -0.0002751161
000130 ef 6a 3c bc 0c 5f ff bc 95 00 02 bd ea a6 6a bc
       -0.011500104 -0.031173252 -0.031738836 -0.014322022
000140 6e be 1b 3c 37 1e 9b bb d9 fe 8b 3c 09 ca 1a 3c
       0.009505851 -0.0047338265 0.017089294 0.009447583
000150 1f fe 9b 3c c3 df 83 bc 8b de b5 3c 93 11 ce 3b
       0.019042073 -0.016097909 0.022200843 0.006288716
000160 4c a2 ff bc a4 13 9c bc 94 ae d1 3c 54 eb 91 bc
       -0.031205319 -0.019052334 0.02559594 -0.017812409
000170 56 ac 27 3c 16 a4 69 3c 15 8f 08 3c bb d6 f7 3c
       0.010233959 0.014260313 0.008334895 0.030253759
000180 e8 51 dc bb 97 de e4 bc 5d cc f9 bc 5a 95 dc bc
       -0.006723631 -0.02793817 -0.030492956 -0.026926685
000190 0a 34 1a bc 6f 3b d9 bc a9 d0 fe 3c 6b c6 11 bc
       -0.009411821 -0.026517598 0.031105356 -0.008897404
0001a0 2e b4 74 3c 5f 60 cf bc cf 85 4e 3c a9 92 cf bb
       0.014935536 -0.025314508 0.012605145 -0.006334622
0001b0 ff 25 63 bc 7b 6a ab 3c 5c d7 8c 39 81 73 b1 3c
       -0.013864039 0.020924797 0.00026863336 0.021661522
0001c0 d6 1b d3 bc cd 8d c8 3b c0 38 a8 3c 6c 66 b1 bc
       -0.02577011 0.0061204196 0.020534873 -0.021655284
0001d0 89 0d 58 bc 1a 15 26 bc 79 a7 10 bc 8e b8 c5 bb
       -0.013186821 -0.010136867 -0.008828991 -0.0060339635
0001e0 62 18 2e 3c 7c 37 19 3c 0e 55 47 3c 25 0d 9a bb
       0.0106259305 0.009351607 0.012166275 -0.004701274
0001f0 fd 3a 80 bc a8 b2 91 3c cd 6e df 3b 6b 30 bf bc
       -0.015653128 0.017785385 0.0068186284 -0.023338517
000200 ad 04 a6 3c 20 15 fc 3c 45 87 c1 3b 48 53 99 bc
       0.020265901 0.030771792 0.005906018 -0.01871647
000210 f2 80 69 bc b5 97 a7 bc 87 6b 00 bc 31 6a 9f bc
       -0.014251934 -0.020458082 -0.0078381365 -0.019459816
000220 48 12 91 bc f2 d5 c2 bc ba 56 5f bc 2f c8 d6 3c
       -0.017708912 -0.023783658 -0.013631517 0.026218502
000230 b4 8f 5d bc 3d a8 84 bc 80 83 31 3c 8f 69 c7 3c
       -0.013523031 -0.016193504 0.010834575 0.024342326
000240 76 6a 67 3c 3b 4e d9 bb b9 ea 3b 3c 86 5a 94 bc
       0.014124503 -0.0066316403 0.011469536 -0.018109571
000250 e2 17 cc 3b 4e 86 4d 39 f4 f8 3b ba af 89 82 3c
       0.006228433 0.00019600356 -0.0007170581 0.015934793
000260 ec e4 b2 3c 50 bb 83 bb e1 fe a5 bc 70 4f 4f bc
       0.021837674 -0.004020132 -0.020263137 -0.012653217
000270 3b 4d d4 3c a2 55 b3 3c 7a 9b 58 3b da e8 e8 3c
       0.025915733 0.021891419 0.0033051656 0.028431345
000280 6c 99 53 3c d2 e3 c8 bc 23 6d b2 ba f7 3e 5a bc
       0.012914997 -0.024522696 -0.0013612848 -0.013320676
000290 b5 1d 8c bc 0a 5d bd bb 6a 17 2e 3b 4e 81 f5 3c
       -0.01710401 -0.0057789134 0.002656425 0.029968884
0002a0 c4 49 17 3c 7b c2 ac bc 28 d1 8c 3c f9 e0 68 3c
       0.009233896 -0.02108883 0.017189577 0.014213794
0002b0 fc 70 b6 bb 8c 1e 2e 3c cf ef 8a ba 23 af 36 3c
       -0.005567668 0.0106274 -0.0010600033 0.011150154
0002c0 7f b9 e3 bc 9a f7 25 3b 69 f2 ee bb 9d 28 d1 bc
       -0.027798412 0.0025324584 -0.007292081 -0.025532061
0002d0 8e c8 ed bc 26 4b c6 3c 25 bb b7 bc 42 25 d4 bb
       -0.029026296 0.024205755 -0.022428105 -0.006474168
0002e0 df 2d d4 bc ad 31 39 3c c4 b7 fa bc 60 ab a3 bc
       -0.02590078 0.011303348 -0.030605204 -0.019979179
0002f0 74 ce 5c bc 10 67 b2 bc 0a 68 fb 3a 83 f5 d7 3c
       -0.013476957 -0.02177766 0.0019180786 0.026362186
000300 c6 30 79 3a e4 3d 9c 3c 40 3e 01 3d 43 e0 da bb
       0.0009505864 0.01907248 0.031553507 -0.006679566
000310 8b 77 c4 3b 85 7a d7 bc 69 d9 4a 3a ea 6f 33 bc
       0.005995696 -0.026303539 0.0007738085 -0.010951975
000320 d2 39 e4 bc 95 c7 e6 3c ac 9f e8 bc ae fa aa bc
       -0.027859602 0.02817134 -0.02839645 -0.020871487
000330 4d c1 65 bc 0e 59 9d 3a 02 8a 65 bc b0 1f 9e bc
       -0.014023137 0.001200469 -0.014009954 -0.01930222
000340 e6 33 95 bc e5 86 eb 3a 7e 04 d4 bc 46 08 51 3b
       -0.018213224 0.0017969279 -0.025881048 0.00318958
000350 84 ec 3a 3c c4 23 4f 3c 5a ff 01 bb 77 1e 9c 3c
       0.011408929 0.0126428045 -0.001983604 0.019057496
000360 f2 09 d7 bc 06 2f ae 3c 8e 64 5d 3c 9c 5f 10 3b
       -0.02624986 0.021262657 0.013512744 0.0022029644
000370 74 cc 9b 3c 15 b0 de 3b 82 32 05 bc 90 60 32 bc
       0.01901839 0.006795893 -0.008129718 -0.01088728
000380 a6 81 86 3c 8e 76 03 3c 2e 43 17 3c 76 6f a4 3c
       0.016419243 0.008023871 0.0092323255 0.02007268
000390 6e dc 4a bc 07 70 ba 3c 6f 24 29 bc fd 47 18 bb
       -0.012381656 0.022758497 -0.010323628 -0.0023236268
0003a0 f9 3e cf bc 34 b8 a2 bc e6 f5 e0 3c 0a f4 dc bc
       -0.025298582 -0.019863226 0.027461004 -0.026971836
0003b0 8d 60 86 bc c8 c3 76 3c f4 ee 9c 3c 76 7f da 3c
       -0.01640346 0.015061326 0.01915691 0.026672106
0003c0 fb c2 cc bb 07 24 f0 3c b8 59 c3 3c b2 07 c4 3c
       -0.0062488294 0.029314054 0.023846492 0.02392945
0003d0 29 63 46 bc 4d cf d4 bc f9 6a 2d 3c 6a 54 13 bc
       -0.012108603 -0.025977755 0.010584586 -0.008992294
0003e0 6e d4 f8 3c 94 95 b9 3c ad f2 21 bb d6 26 94 3b
       0.030374732 0.022654332 -0.0024711296 0.004521231
0003f0 40 07 c5 3c 77 5e a1 39 f0 71 82 3c 39 2a 29 bb
       0.024051309 0.00030778695 0.01592347 -0.002581252

fc1.0.bias f4 [80]
000000 89 f2 f9 3c 91 f4 bb 3c a9 d3 d4 bc c8 04 5d 3c
       0.030511158 0.022943767 -0.025979834 0.0134899095
000010 c0 d6 1b 3c d2 e7 a4 bc 70 e6 b5 bc 65 d3 b5 bc
       0.00951165 -0.020130072 -0.022204608 -0.022195527
000020 a9 ae f0 bc e0 2d b2 bc 4d 8e 3f bc 13 ac 42 bc
       -0.02938016 -0.02175039 -0.011691642 -0.011881846
000030 69 aa a3 bc c1 f3 ef 3c 97 15 1f 3c bf 16 83 3b
       -0.019978719 0.029291036 0.009709737 0.0040005143
000040 e8 24 01 bd 94 15 56 bc 39 d6 3b bc 57 4f 66 bc
       -0.031529337 -0.013066668 -0.011464649 -0.014057002
000050 b1 4a b4 bc de 6b 91 3b 0f fc 5c bc 83 33 d1 3b
       -0.022008272 0.0044379076 -0.01348783 0.0063843145
000060 1c 45 6d bc b1 2a 24 3b 7d 0e e0 3c 9f f7 d3 39
       -0.014481809 0.002504986 0.027350659 0.00040429548
000070 34 5a a0 3b 46 5b e8 bb b0 2d fb bb 80 16 78 bc
       0.0048935656 -0.0070909588 -0.0076653585 -0.015142083
000080 54 39 e6 bc c7 0c ed bc 5f 89 04 bd 5c 6c f4 bc
       -0.028103508 -0.028936757 -0.03235757 -0.029836826
000090 28 53 00 3d 2f 9e 9b bc 5d e8 22 3c 00 e9 95 bc
       0.031329304 -0.018996326 0.009943095 -0.01829958
0000a0 74 97 f1 bc 80 d2 f7 bb a2 0c e1 bb f9 b5 46 bc
       -0.029491164 -0.0075629354 -0.006867961 -0.012128347
0000b0 3f da 97 bb 4a dd fc 3b 38 08 81 3c 7a e2 85 3b
       -0.0046341713 0.0077168094 0.01575099 0.004085836
0000c0 6c d7 0b 3c 59 be 81 3c 2b c4 53 3c 56 10 6a 3c
       0.008535247 0.015837835 0.012925188 0.014286121
0000d0 21 fc f1 3c e9 71 e4 39 01 00 94 bc 23 d5 e3 bb
       0.02953917 0.00043572419 -0.018066408 -0.006952898
0000e0 69 79 f9 bc c3 75 ae 3c 52 27 04 bd 88 50 03 bd
       -0.0304534 0.021296388 -0.03226406 -0.032059222
0000f0 89 79 b6 bc 27 59 39 bc 9c 5c e0 3c 35 10 5b 3c
       -0.02227475 -0.0113127595 0.02738791 0.013370563
000100 50 be ab bb 6c 47 c1 3c c7 e2 75 bc 66 0b 32 3c
       -0.005241193 0.023593627 -0.015007681 0.010866975
000110 11 89 81 bc 00 54 2f bc 6e 80 ab bc 06 4e 02 3c
       -0.015812429 -0.0107011795 -0.020935263 0.007953173
000120 6a a5 d2 3c 64 2e 1f 3c 54 8c 97 3b 7a ab 64 bc
       0.025713641 0.00971565 0.0046248827 -0.013956899
000130 6b ae b8 3c 55 a9 69 3c f6 b9 a0 3a b2 dc c5 3b
       0.022544106 0.014261563 0.0012262452 0.006038272

out.weight f4 [40, 80]
000000 77 be 95 bd 68 89 28 3d 96 ce 6f 3d fa 64 a9 3a
       -0.07311719 0.041146666 0.058546625 0.001292377
000010 b3 ed 74 bd 4e 76 6b bd d5 81 8b bc d1 5e 8b 3c
       -0.059797 -0.05748587 -0.017029682 0.017012985
000020 a5 59 df bd 18 a3 52 3d 41 98 3b 3c 13 a9 d4 bd
       -0.1090577 0.05142507 0.011449874 -0.10383811
000030 3d 08 14 3d 65 f8 ae bd ee 3f 88 3c 4c a9 14 3c
       0.03614067 -0.08543471 0.016632047 0.009073567
000040 93 21 e4 3d 61 ca 22 3d cb 97 85 bd fe fc d3 3c
       0.11139216 0.039743785 -0.06523093 0.025877472
000050 45 31 e3 bd 3e 6e 1a bd 43 f0 ff bc 6c 9c d6 3d
       -0.11093382 -0.03770279 -0.031242495 0.10479054
000060 43 7d c3 3d 6c 22 db 3d 18 36 24 bd e4 a9 e1 3d
       0.09545376 0.10699925 -0.04009065 0.11018732
000070 ce 47 43 bc f0 4f 21 bc 2c 94 d8 bd ef 2e ab 3c
       -0.011918975 -0.009845719 -0.105751365 0.020896403
000080 e3 67 1a bd 3e 2a 10 bd 71 a1 87 3c 97 2c 82 bd
       -0.03769673 -0.035196535 0.016556473 -0.06356161
000090 66 c6 aa 3d 58 8e 89 3d de 31 14 bd c0 72 93 bd
       0.08338623 0.06716603 -0.03618037 -0.07199621
0000a0 1c a3 be bd 5f db 3f 3c c7 41 91 3d 7f 6d ce bc
       -0.093084544 0.011710017 0.07092624 -0.025198696
0000b0 34 e6 03 3d 52 e3 07 bd 48 1b b0 3c b7 81 71 3b
       0.03220196 -0.033175774 0.021497384 0.0036850998
0000c0 fd c8 3e 3d f9 71 9a bd 0d 2d 0f 3d fb e4 1b bd
       0.046578396 -0.0754127 0.034955073 -0.03806017
0000d0 89 14 4a 3d ed ad 30 3a db ae e4 3c 35 76 ad 3d
       0.04933599 0.0006739784 0.027915409 0.08469812
0000e0 0e a3 b0 bd cb 74 a5 bd 7b a5 4b 3d 0f ac 97 bd
       -0.0862485 -0.08078917 0.04971836 -0.074058644
0000f0 4a 7b 67 bd 84 ca ca 3d 5f d4 e1 3c 3e c5 84 3d
       -0.056514062 0.09901908 0.027567087 0.064829335
000100 e0 d7 be bc a5 8b f3 3c 1d 94 bf 3d 5b de 8f 3d
       -0.023296297 0.029729674 0.09354422 0.07024833
000110 2f 0c 83 3c 53 3f aa 3d c9 ba 14 3d 16 84 b6 3d
       0.01599702 0.083128594 0.036310945 0.08911912
000120 88 62 a7 bc df 60 a0 bd a6 b7 af bb 0f a2 49 3d
       -0.020432726 -0.07830977 -0.005362469 0.049226817
000130 4c 82 5e 3c a7 d6 9b bd 0d cc 1d bd 45 52 cc bd
       0.01358087 -0.07609301 -0.038524676 -0.09976629
000140 96 7a 6e 3d 6c 33 86 bd 1c 20 d3 3d c7 de ba bd
       0.058222376 -0.06552777 0.10308859 -0.09124523
000150 a9 9b 85 3c 88 b6 1c bd 5a f4 02 3d 13 64 b9 3d
       0.016309576 -0.038260013 0.031971313 0.09052291
000160 46 49 9d bd 0c c1 05 bd 25 0b fe bc 98 92 72 bd
       -0.076799914 -0.032654807 -0.031011174 -0.059221834
000170 a4 53 aa bd 8d d2 0f 3d 3e 58 6d 3d ad 18 ad 3d
       -0.083167344 0.035112906 0.057945482 0.08451972
000180 c9 ee 57 bd 99 0a 79 3d ff 86 d7 bd 0d b0 8f bd
       -0.052717958 0.060801122 -0.10523795 -0.07016001
000190 df fe 45 bd 1f d6 c1 bb 2b ed 8e bd 20 da 96 bb
       -0.048338767 -0.005915418 -0.0697883 -0.0046036392
0001a0 2a 5d 40 bd 36 42 9e 3d d2 8d e3 3d a3 fa 68 b8
       -0.04696385 0.077274725 0.111110345 -5.5546534e-05
0001b0 79 30 d7 3d 89 52 79 bd 31 a1 cb bc 47 81 27 bd
       0.10507292 -0.060869727 -0.024857135 -0.040894773
0001c0 e7 19 b3 3d 39 ea 8c bd b0 3a bb bd 50 38 ce 3d
       0.08745175 -0.06880612 -0.09142053 0.100693345
0001d0 a8 3d 74 bb 74 d8 a8 3d 90 88 a4 bd da 62 9e 3d
       -0.0037268195 0.0824441 -0.0803386 0.07733698
0001e0 ed 0d 36 3d a6 4b 1c 3d ad 14 46 bd 1b 4c 4e 3d
       0.044446874 0.03815808 -0.04835956 0.05036555
0001f0 78 5a bf bd df a3 f5 3c 9c b2 b0 3d 59 f4 83 bd
       -0.093434274 0.029985366 0.08627817 -0.0644309
000200 7a 3c 8b 3c 34 57 10 3c 6d 4a e1 bd 47 cc b1 bd
       0.01699661 0.008809853 -0.11000524 -0.08681541
000210 fc 5e 24 bd 9a 74 c7 3d 58 17 39 3c 71 f0 47 bc
       -0.040129647 0.09739037 0.0112970695 -0.012203322
000220 c3 2f 5a bd f1 03 89 3d a3 9b 94 bd 3d 27 dc bd
       -0.053268205 0.06690205 -0.07256248 -0.107496716
000230 cf 97 24 bd c5 53 ca 3c 41 3e 9e bd 08 2d 9a 3d
       -0.04018384 0.024698148 -0.07726718 0.0752812
000240 2c 67 25 bd fe 71 61 bd 63 a8 dd bd b6 89 ca 3c
       -0.040381595 -0.055040352 -0.10823133 0.024723869
000250 32 75 31 3d 90 d0 4a 3d 34 28 90 bd 88 78 86 3c
       0.043324657 0.049515307 -0.07038918 0.016414896
000260 c0 8e 03 3d 2c f0 19 3d 9d d3 e1 bd 87 5d a3 3d
       0.03211856 0.03758256 -0.1102669 0.07976823
000270 d2 30 b5 3d c4 c9 6a bd 0d a8 a5 bd 10 75 92 3d
       0.08847202 -0.057321325 -0.08088694 0.07151234
000280 ac 11 d6 3c b6 98 62 3d 61 f3 a6 3d 80 f8 99 3b
       0.026131473 0.055321418 0.081518896 0.004698813
000290 14 b5 a3 bc 3d 27 39 bd e2 06 a3 3d 58 16 b4 bd
       -0.019983806 -0.045203436 0.07960297 -0.08793324
0002a0 dd be 6b 3d b1 24 8e bd ae 46 f9 bc bb 3a a3 bd
       0.05755507 -0.06940592 -0.03042921 -0.07970186
0002b0 01 f0 78 3d 72 0f e2 bd 31 eb 90 bd a8 8d c3 bd
       0.06077576 -0.11038102 -0.07076109 -0.09548503
0002c0 b8 86 59 bd d6 e8 3e 3c 1f 7d 7f bd 9b 01 d1 bd
       -0.053106993 0.011652192 -0.062375184 -0.10205384
0002d0 87 02 82 bd 55 7f 7a bd 62 37 42 3c 38 38 cf 3c
       -0.06348138 -0.06115659 0.011854025 0.025295362
0002e0 1d 2c 6d bd e2 25 c0 bd d1 2f 3d bd d0 cf ce 3a
       -0.057903398 -0.093822256 -0.04618818 0.0015778486
0002f0 de 42 fc 3c 12 ef a4 3d 57 95 87 bd 28 43 8e bb
       0.030793604 0.080534115 -0.06620281 -0.0043415017
000300 41 57 17 3d fc 29 23 3d f4 35 81 bd 40 f0 a2 bd
       0.036948446 0.03983496 -0.06309119 -0.0795598
000310 af 74 80 3d 7c 6e 34 bd 45 88 e1 bc f8 d5 88 3b
       0.06272256 -0.04405068 -0.027530799 0.0041758977
000320 f1 0b a6 3d 13 37 ac bd b0 cd 3d 3d bb b4 06 bd
       0.081077464 -0.08408942 0.046338737 -0.0328872
000330 4c 50 f3 bc 9e 8b 6e 3c f9 7c 02 3d a9 d8 29 bd
       -0.029701374 0.0145596545 0.031857464 -0.04146639
000340 09 9e 1f 3d ee 06 bd bd 34 60 2c 3c 2b d3 06 bd
       0.038969073 -0.09229837 0.0105209835 -0.03291623
000350 a7 a0 86 3d c1 74 57 3c 68 70 9d bd 74 18 dc bd
       0.06573611 0.013150395 -0.076874554 -0.107468516
000360 a6 c8 df ba c6 c4 af bd 45 04 98 3d bc 70 c1 3d
       -0.0017073348 -0.085824534 0.07422689 0.094453305
000370 43 5c 9b bd c1 ee a8 bd c3 fd 9f 3c 24 60 c0 bd
       -0.07585957 -0.08248664 0.019530183 -0.09393337
000380 5a 38 b6 3d 65 2e 92 3c ac 38 bf bd d5 3d b4 bc
       0.08897467 0.017844388 -0.09336981 -0.02200214
000390 e9 86 4b 3d cc 46 71 bd 4a 43 c9 3d e0 9e e5 3c
       0.049689207 -0.058905408 0.098272875 0.028029859
0003a0 cb 6c 95 3d 55 38 b7 bd e6 3b c6 bd f5 4f a0 3c
       0.07296141 -0.08946291 -0.096793935 0.019569376
0003b0 0b 51 6b bc 4e 21 5c 3c 63 b5 5d 3d ed 6f 62 3d
       -0.014362584 0.013435675 0.054128062 0.055282522
0003c0 b3 20 8b 3d 94 55 00 bd 28 0e c4 bb 44 94 ab 3d
       0.06793346 -0.031331614 -0.005983133 0.08377889
0003d0 bc 7e 90 3d f9 c3 c3 3d 6d 0d c5 3d 4b 0b 68 3d
       0.07055423 0.09558863 0.096217014 0.056651395
0003e0 3b 67 ca 3a 90 64 bf 3d 77 62 8b bd 57 1d 4d 3d
       0.0015442142 0.09345353 -0.0680589 0.05007681
0003f0 19 ec 95 3c 5d 3a 8f bd 32 a0 08 3d 35 e8 64 3d
       0.018301057 -0.06993554 0.0333559 0.055885512

out.bias f4 [40]
000000 19 30 36 bd 84 cd c4 3d b8 9a c0 3c 26 d6 37 bd
       -0.044479463 0.096095115 0.023511276 -0.044881962
000010 69 fa 56 bc a3 91 33 bd 94 7a c1 3d af ea ba bd
       -0.013121226 -0.043840062 0.09447208 -0.091267936
000020 fa 41 f5 3c 59 ed 82 bd 67 55 b4 3d 80 c4 0d 3d
       0.029938687 -0.06392927 0.08805352 0.034611225
000030 01 5e 2c 3c b9 72 a6 bc c1 82 96 3d c4 90 c8 3d
       0.010520459 -0.020318376 0.07349158 0.09793237
000040 86 f2 8b 3d 4c b1 9d bd a6 14 04 bd 6a 27 60 bd
       0.06833367 -0.07699832 -0.032246254 -0.05472509
000050 2f bd 9b 3d ed b3 d0 bc ae 4b 4c bd 08 36 86 3b
       0.07604443 -0.02547642 -0.04987686 0.0040957965
000060 22 fb 01 bd 06 84 7b bd 6c d1 80 bc 16 28 ef bb
       -0.03173364 -0.061405204 -0.01572486 -0.00729848
000070 4b 79 aa bb c5 a7 c9 bd d4 7e 56 bc d1 07 e1 bc
       -0.0052024475 -0.098464526 -0.013091762 -0.027469547
000080 ca f9 af bc 38 30 2c 3d 76 19 aa bd bd 6d 1a bd
       -0.021481413 0.042038172 -0.083056375 -0.03770231
000090 85 d1 fa 3c e9 d3 51 3d e2 6b 9c bc 22 6e c4 3d
       0.030617485 0.051227484 -0.019094411 0.09591319
