1700params3.pth (torch, 607751 bytes, 10 tensors)

conv1.0.weight f4 [32, 4, 2, 2]
000000 0f fd c4 bd 0b b3 2b 3e 7a e1 bf 3d 24 3a 39 3e
       -0.096185796 0.16767518 0.09369178 0.18088585
000010 ba f1 6c be 56 3a 4c 3d dd e7 46 3e 0e 1c 07 bc
       -0.23139086 0.04986032 0.19424386 -0.008246435
000020 39 a5 5d be 5e e9 67 bd c2 25 b5 3d 06 a2 bf bd
       -0.21645059 -0.05661904 0.08845092 -0.093570754
000030 b0 13 84 bd 9b 69 a5 bd 66 46 d9 3c 84 45 3a 3b
       -0.064490676 -0.08076783 0.026522826 0.0028422782
000040 8d 52 ea bd 94 4b 59 3e fa 75 8d 3d 3b 5a a6 3d
       -0.114415266 0.21220237 0.06907268 0.08122679
000050 b9 24 77 be 99 69 29 be 3c 05 14 be 55 62 24 be
       -0.24135102 -0.16544189 -0.14455122 -0.16053136
000060 a1 f3 fa 3d ab cb 5c 3e 27 49 a7 bd 94 d2 5b 3d
       0.122535 0.21562068 -0.081682496 0.05366762
000070 60 50 2f be a9 2f 02 3e 9e 7e 18 bc ec c7 05 ba
       -0.17120504 0.12713493 -0.009307532 -0.0005103338
000080 31 57 f9 bc ed 2f 52 3e 96 e2 2b be 5a 85 5a 3e
       -0.030437084 0.20526095 -0.16785654 0.21339932
000090 9e f6 9a 3c a4 6b 60 3d 51 0d b1 3d 1d 08 1a 3e
       0.018916424 0.054790154 0.08645118 0.15042157
0000a0 ee bc 4c bd b0 4e f2 bd 89 57 6a 3e df 3d 1b 3d
       -0.049984865 -0.11831415 0.22884955 0.0379008
0000b0 cd 15 0c 3e 7e 74 34 bd 5c 39 43 be 25 7f 93 bd
       0.13680191 -0.044056408 -0.1906485 -0.07201985
0000c0 84 13 49 be 83 33 7c 3e 7a fb e9 3b e4 ab 47 3e
       -0.19636351 0.24629025 0.007140574 0.19499165
0000d0 03 d0 57 3e 6f cb 0f bd 88 3a 81 3d b3 eb e1 bc
       0.21075444 -0.03510612 0.06309992 -0.02757821
0000e0 d7 00 66 be c2 07 16 3e 30 be b1 bd cc aa 5b 3e
       -0.22461258 0.14651397 -0.086788535 0.21451873
0000f0 aa 08 e6 3d d3 90 96 bc d1 7b 24 3e 55 12 d6 3d
       0.11232121 -0.018379604 0.16062857 0.10452715
000100 4a a4 62 3e 69 b1 de 3a 2e 39 bd bd 5f ab 2c bd
       0.22132984 0.0016990128 -0.09239422 -0.04215562
000110 61 3d 6e 3e 90 72 49 3e 04 7a 4c 3e c7 67 20 bd
       0.23265602 0.19672608 0.1996842 -0.03916147
000120 7d c5 b2 bd 38 73 9f 3c d9 0a 1b be fc 37 c3 bd
       -0.08729074 0.01946412 -0.15140857 -0.095321625
000130 fe 7c 7e 3e 0e 12 ea 3c 82 b7 e2 3d ae 16 a2 bd
       0.24852368 0.028573062 0.110701576 -0.07914482
000140 e4 8b 9e 3d 4b 1a b9 3d 2f 50 30 be a0 d7 76 3e
       0.07741526 0.09038218 -0.17218088 0.24105692
000150 9e 7f e7 bc 73 14 19 be db 02 b3 bd 60 f0 4d 3e
       -0.028259095 -0.14949207 -0.08740779 0.20111227
000160 3e 08 2b be cd b5 6c be cf c2 78 be df 18 54 3e
       -0.16702363 -0.23116226 -0.24293064 0.20712613
000170 9c 5c 32 bd 87 8c de bc 9d a9 f1 bd be 6c c9 3d
       -0.04354535 -0.027166618 -0.11799929 0.09835194
000180 bc c8 4a 3e 4f 0d 16 3e 55 ed 29 3e dc 99 98 bc
       0.19803137 0.14653514 0.16594441 -0.018628053
000190 5d fc 86 3d eb 5d cb bd f0 ea 3f 3e ce 80 a3 bd
       0.06591103 -0.09930023 0.18741965 -0.07983552
0001a0 cb 4d af bd 8f 03 bc 3c c1 a7 3e be 6b 6c 1f be
       -0.0855976 0.022950916 -0.1861868 -0.15568702
0001b0 df a5 55 3e fe 43 c9 bd d9 53 d8 bd e6 55 ec 3d
       0.20864056 -0.098274216 -0.10562868 0.11539821
0001c0 09 f5 87 bc 28 90 29 3d 4a 09 3e 3e e5 d2 a5 bd
       -0.016596334 0.041397244 0.18558231 -0.080968656
0001d0 8b dc 67 bd f9 60 7e be 20 ad 78 3d 4f 6d f6 bd
       -0.05660681 -0.2484168 0.06071198 -0.12032568
0001e0 7a f0 0d be e5 68 06 3e 4f df 41 bc 37 e6 4f 3e
       -0.13861266 0.13125952 -0.011833026 0.20302664
0001f0 3b 80 19 be 0b a2 59 3e bd c2 63 bd 48 dd 44 bd
       -0.14990322 0.2125322 -0.05560564 -0.048062593
000200 bf 98 39 bd 26 b2 56 3e d7 60 cb bc d2 bb 5d be
       -0.045311686 0.20966396 -0.02482645 -0.21653679
000210 60 0b 11 be 6d a9 0a be 07 56 f3 bc 7e 97 33 be
       -0.14164495 -0.13541193 -0.029704107 -0.17538258
000220 51 3b 02 3d 89 23 d2 3b 35 38 ed 3d 0a fc 4e be
       0.03179485 0.0064129275 0.11582986 -0.20213333
000230 9e 38 7e 3e 2a 83 47 3d 68 d1 e1 3c 33 8e 38 be
       0.24826285 0.048709072 0.027565673 -0.18022995
000240 33 1e 2e 3e 78 b2 23 3e f5 29 c8 3d cb 7e 1f be
       0.17003708 0.15986049 0.09773628 -0.15575711
000250 b2 61 17 be f9 39 32 3e 06 0e 43 be 21 f7 fc 3c
       -0.14783362 0.17404927 -0.19048318 0.030879559
000260 60 44 33 bd 05 7d 46 3e ee 25 66 be 22 78 dd bd
       -0.04376638 0.19383629 -0.22475407 -0.10813929
000270 88 0a 87 bd 8d 40 9b bd ad e7 3e be 84 9d c7 bd
       -0.065938056 -0.075806715 -0.18643065 -0.097468406
000280 46 38 18 be c8 7f 4c 3e 79 b4 12 be a7 11 e0 3b
       -0.14865217 0.1997062 -0.14326657 0.006838042
000290 9a 03 7f be 65 9a 04 be b1 2c 44 3e d0 31 55 be
       -0.24903718 -0.12949522 0.19157673 -0.20819783
0002a0 c5 1a 32 bd 0b f4 ee bd 50 13 c1 bc cd c5 43 bc
       -0.04348256 -0.11667641 -0.02356878 -0.011949015
0002b0 2e 61 8b bd 13 c1 f1 bd 3a 3b ca 3d 2d 23 0a bd
       -0.06805645 -0.11804404 0.09874578 -0.033724952
0002c0 c5 33 80 3d 22 68 54 be 0f a9 31 bd c1 a2 bc bd
       0.06259874 -0.20742849 -0.043374117 -0.0921073
0002d0 cc 01 ec 3d 59 e6 c6 bc ea b1 0d be 02 62 72 be
       0.1152378 -0.02427976 -0.138374 -0.236702
0002e0 be f1 9f 3c 4e 35 0e be f9 f0 56 be d5 ec 23 be
       0.019524451 -0.13887522 -0.20990361 -0.16008313
0002f0 de 88 76 3e 40 ae 0a be af f5 a5 bd 41 ba 63 be
       0.24075648 -0.13543034 -0.08103501 -0.22239019
000300 b5 90 46 be 3a f7 0b be 44 d2 7e be f3 9e 8d 3d
       -0.19391139 -0.13668528 -0.24884897 0.06915083
000310 bb 46 1b bd 0e 23 d5 3d 5f 85 ab bd 1d 0b 02 be
       -0.03790925 0.10407077 -0.08375048 -0.12699552
000320 c7 5f 06 bd b9 7b 32 3e 6e 17 13 3e b9 ea 82 bd
       -0.032806184 0.17430009 0.14364406 -0.06392426
000330 5b 37 4d 3d 62 5b 94 bd ba 1f ca 3b 05 4d 3f 3e
       0.05010162 -0.072439924 0.006168333 0.18681724
000340 ea 0d 10 3e 81 4d 0c bc 48 aa 95 3d 54 63 7b 3d
       0.14067808 -0.0085634 0.07307869 0.061374024
000350 fb 4d 16 be da 84 5c bd 54 de 59 3e 1c 32 ac 3d
       -0.14678185 -0.053837635 0.21276218 0.08407995
000360 dc 04 96 bb 4f 02 73 3e 94 4c 91 bd 2e 1b fb bd
       -0.004578216 0.2373135 -0.07094684 -0.122610435
000370 82 0f e5 bd 6e cb 16 3e 0c a5 9e 3d 52 68 23 3e
       -0.111845985 0.1472604 0.07746324 0.15957764
000380 95 09 1d 3e 52 e0 cd bd 33 68 1a bd 50 2a 3b be
       0.15335687 -0.10052551 -0.03769703 -0.1827786
000390 7c 35 12 3e fe 06 2b 3e d1 1a 34 be b4 46 18 be
       0.14278215 0.16701886 -0.17588355 -0.14870721
0003a0 a8 0f f8 3c 82 01 99 3c 1d 75 01 3e 06 4d e4 3d
       0.030280903 0.018677477 0.12642331 0.111475036
0003b0 7e 2d 55 be 20 8a 04 3d e0 f7 28 bc 5f eb 17 3e
       -0.20818135 0.03235829 -0.010313004 0.1483588
0003c0 43 45 5e 3e c3 68 3a 3e a7 e4 16 3e 32 7d 19 be
       0.21706109 0.18204026 0.14735661 -0.14989164
0003d0 ad 0f 15 be d1 18 30 be 1b 7c 73 3e 49 35 60 be
       -0.14556761 -0.17196967 0.23777811 -0.21895327
0003e0 09 8d 0f 3e dd 9b 54 3e dd 64 7e be 39 db e6 3c
       0.14018644 0.20762582 -0.24843164 0.028180705
0003f0 27 f1 16 be 25 d1 5d 3d 0b 62 80 3d 6d 1f e2 bd
       -0.1474043 0.054154534 0.062687 -0.1104115

conv1.0.bias f4 [32]
000000 4a 5c 3e 3d 16 52 40 be a2 69 43 be 5b d0 66 be
       0.046474732 -0.18781313 -0.19083264 -0.22540419
000010 e2 21 6e be 9d f6 03 be 5a 3f ac bd 29 61 e5 3d
       -0.23255113 -0.12887044 -0.08410521 0.112001725
000020 ed a6 33 be 4f a3 c6 3c 64 4b 5d 3e d5 68 77 bd
       -0.17544146 0.024247793 0.2161079 -0.06040271
000030 1a ba 0d be 7a 37 5a 3e af ea e7 bd c3 d3 d0 bb
       -0.13840523 0.21310225 -0.11324059 -0.0063729
000040 c5 bf 39 be 28 51 e9 bd 46 05 24 bd 2a 17 1d be
       -0.1813956 -0.113924325 -0.04004409 -0.15340868
000050 67 d6 f9 bc 89 73 0b 3e 6b 42 79 3e 01 f6 18 b9
       -0.030497743 0.13618292 0.24341743 -0.00014587493
000060 27 eb c2 bc ba 96 14 be 4e c8 be bd 11 f0 3d bd
       -0.02379377 -0.14510623 -0.09315549 -0.046371523
000070 41 6e 42 3e 24 96 56 3e 3b 2f 2d 3e 69 56 6a 3e
       0.18987371 0.20955712 0.16912548 0.22884525

conv2.0.weight f4 [64, 32, 4, 4]
000000 78 1d 0a 3d ca 72 06 3d 88 1e 2a 3d 43 ad f6 bc
       0.03371951 0.032824315 0.041533023 -0.030111915
000010 56 c9 02 3c 4b bd 82 3c 7e 66 22 3d c8 2a 68 3c
       0.007982573 0.015959403 0.039648525 0.014170356
000020 6d 2a 2a 3b 59 b3 56 3c 14 77 35 3d 4d 1e 73 3b
       0.002596523 0.013104283 0.044303015 0.0037096918
000030 ac 91 9c 3c 7f 84 0c bd 36 3b 28 3c e7 c1 08 3d
       0.01911243 -0.034306046 0.010268023 0.033388045
000040 f6 77 0d bd 4d fa 15 bd 30 e0 26 bd c6 b4 b7 bc
       -0.03453823 -0.03661566 -0.040741146 -0.022425067
000050 fe 10 01 bd bb 04 22 3d 98 86 8e 3c ef 59 e1 3c
       -0.031510346 0.039555293 0.017398164 0.027508704
000060 c9 ec bc bc b3 e7 e5 bc fb 8a b4 bc 2a 28 f5 3b
       -0.023062127 -0.028064584 -0.022038927 0.0074815946
000070 e0 95 17 bd 83 46 99 3c 8b 7c 99 ba 00 b1 b4 bc
       -0.037008166 0.01871038 -0.001171009 -0.022057056
000080 79 c2 18 bd 20 9a 62 bb 05 85 22 bd 27 7c 26 bd
       -0.03729484 -0.003457673 -0.03967764 -0.040645745
000090 eb 27 e6 bc f0 92 bc bc 2a 2a 27 bd 69 b6 28 bd
       -0.028095206 -0.023019284 -0.040811695 -0.041189585
0000a0 be 77 01 3d 42 99 7b 3c 2c 95 ea 3c 8d 32 98 bc
       0.031608336 0.015356364 0.028635584 -0.018578792
0000b0 19 99 04 bd 78 df 9c 3b 47 4c 10 3d 13 5f bb bc
       -0.032372568 0.0047873817 0.035228994 -0.022872483
0000c0 27 77 73 bc 29 5b 92 3c 7f ea 8c 3c 2d de fa 3c
       -0.014859951 0.017865734 0.01720166 0.03062352
0000d0 33 72 90 3c 99 dc 83 bc 6c 08 c2 bc a6 ba 99 bc
       0.01763258 -0.0160964 -0.023685656 -0.018765759
0000e0 71 6b 0b 3d be a5 0e 3d 56 91 eb bc 9a 2b 15 3b
       0.03403801 0.034826033 -0.028755825 0.0022761584
0000f0 75 22 0d bd fe 0b 93 bc bc d3 7d 3c 61 c5 b7 3c
       -0.03445669 -0.017950054 0.015492376 0.022432985
000100 e5 d9 d2 3c ed ad 49 3c 1a 61 3f ba 7f d3 d2 bc
       0.025738666 0.012309534 -0.0007300541 -0.025735615
000110 5c e6 c9 3c 7a ea ed 3b d3 70 de bc d2 21 dc 3c
       0.024645977 0.007260618 -0.027153408 0.026871596
000120 9a d4 04 3d 73 65 5e 3c 11 4b 81 3a 52 e7 40 bc
       0.032429315 0.013573992 0.000986429 -0.011773901
000130 7a 97 1c bd 9b e4 1a 3c 98 42 ab 3c af 8c ab 3c
       -0.038230397 0.009453918 0.020905778 0.020941107
000140 73 b3 41 bc 0e 56 0a 3d 3f 34 1e bc 68 04 b8 3c
       -0.011822569 0.033773474 -0.009656011 0.022463039
000150 af 45 64 ba 86 15 36 bc 70 28 62 3c f3 ec 13 3d
       -0.00087078934 -0.01111353 0.013803586 0.036114644
000160 0c 7b 1a 3d 24 ca 81 bc 52 43 ca bc 1c 1e 3b bc
       0.037715003 -0.015843458 -0.024690304 -0.011420753
000170 8f 42 1f 3d 43 23 e8 bc 29 9f 05 bc 40 55 1d bd
       0.038881835 -0.028337127 -0.0081556225 -0.03841138
000180 c9 98 4b 3c 33 98 df 3c 3c e6 f5 bc cd 17 30 3d
       0.012426564 0.027294254 -0.03001701 0.04299145
000190 b7 ad 8c bc 3b de 30 3d 8a 1d e2 3c 5b 6c a5 bc
       -0.017172677 0.043180685 0.027601976 -0.02019327
0001a0 ab 8d 86 bc 44 78 bd bc 98 1a 81 3c f4 e5 0c bd
       -0.016424974 -0.023128636 0.015759751 -0.034398988
0001b0 b9 2c af bb 77 44 4d 3c b2 30 77 bc 57 f9 92 ba
       -0.0053459075 0.01252853 -0.015087293 -0.0011213225
0001c0 32 20 2a bd 72 1d f7 3b 08 37 95 3c 20 7e ab 3b
       -0.04153461 0.007541352 0.018214718 0.005233541
0001d0 36 f4 32 3d 1d c3 48 3c 52 bc 30 bd b2 95 2d bc
       0.04368993 0.01225355 -0.043148346 -0.010594772
0001e0 4c 41 9d bc a0 6c e6 bc 06 23 e4 bc 00 49 8b bb
       -0.019196175 -0.028127968 -0.027848732 -0.0042506456
0001f0 12 c7 51 bc 96 81 c8 bb ed 1a 04 3c 6b f6 c6 3c
       -0.01280381 -0.0061189635 0.00806306 0.024287423
000200 3d 0f e6 3b 26 ca e3 bc 56 f3 e1 bc f8 45 1c 3d
       0.0070208595 -0.027806353 -0.027581852 0.038152665
000210 6e 17 07 bd ce 63 ed 3c 6e 9f 16 3b 5b 86 47 bc
       -0.03298133 0.028978255 0.002298321 -0.012178029
000220 d5 6d 31 bd 6b 59 dc 3c b3 41 cd bc 51 b7 3c bc
       -0.043317635 0.026898107 -0.025055742 -0.011518315
000230 6f d0 0f 3d 32 49 77 3c d0 76 8b bc 88 38 46 bc
       0.035110887 0.015093135 -0.017024428 -0.012098439
000240 b3 43 9b bc ba c6 2d 3d 62 9b 07 3d de a2 e0 bc
       -0.01895318 0.04242585 0.03310717 -0.027421411
000250 0d d7 74 3a 05 ae 55 bc e3 de 22 3d 5a f9 63 bc
       0.00093399064 -0.013041978 0.039763343 -0.0139144305
000260 5d c1 2b 3d 1f 58 2f bd dd 9a fc bc 5a 47 f3 b9
       0.041932452 -0.04280865 -0.030835563 -0.00046401733
000270 16 65 00 bd 36 77 ea 3c 2d c8 9f bc 9e c2 8f bc
       -0.031346403 0.028621297 -0.019504631 -0.017548855
000280 7e 31 85 3c 4d 5e 2b bd 36 06 e2 3c 44 7a 33 3d
       0.016258951 -0.04183798 0.027590852 0.043817773
000290 e4 88 71 bc b3 10 e7 bc 62 0e 02 bc 4f cc 1a bd
       -0.01474211 -0.028206205 -0.007937999 -0.0377925
0002a0 26 f4 8a bc 88 a3 ca bc 77 5c f1 bc 21 6e 0d 3d
       -0.016962122 -0.02473618 -0.029463036 0.034528855
0002b0 a7 72 09 3d c1 05 fb bc ba 9e cb 3c e5 d7 8d 3c
       0.033556607 -0.030642392 0.02485596 0.01731486
0002c0 55 b2 1e 3d ae 24 a1 bc 1b 42 32 bd 5d 87 20 bd
       0.03874429 -0.01967081 -0.043520074 -0.039191592
0002d0 d8 3a 07 3d 97 66 fd 3c 34 3b e8 bb 2c 40 a1 3c
       0.033015102 0.030932708 -0.0070871357 0.01968392
0002e0 29 c6 13 3d 94 67 6d bc 78 ab 19 3d 2c 75 f8 bc
       0.036077652 -0.014490027 0.03751704 -0.03032931
0002f0 ea c0 a5 3b a0 27 96 3c a6 f9 f9 3c 7a 39 b1 3c
       0.0050583975 0.018329442 0.03051455 0.021633852
000300 f4 0d 06 3c cb 49 ca 3c 17 12 1b bd 3c d2 30 3d
       0.008182038 0.02469339 -0.03785905 0.043169245
000310 12 58 bb bc 48 37 a3 3c da 98 13 3c dd 59 01 3d
       -0.022869144 0.019923821 0.009008611 0.03157984
000320 c3 26 bd bc 8f 98 40 ba 84 32 02 3c be a7 8f 3c
       -0.023089772 -0.0007346952 0.007946614 0.01753604
000330 d6 b0 eb ba a1 56 72 bc 8d 94 c3 bc 91 dd 3e bc
       -0.0017981778 -0.014791162 -0.023874545 -0.011649505
000340 2d 47 7b 3c a4 f5 0b 3d eb a7 1f bd ab 58 ca 3c
       0.015336794 0.034169808 -0.0389785 0.024700483
000350 90 52 bc 3c 4d a2 33 3d 9c 0e 5b bc fe 4c 41 bc
       0.022988588 0.043855954 -0.013370182 -0.0117981415
000360 18 d6 a6 3c c3 42 9f bc 57 08 30 bc d1 f7 11 3d
       0.02036576 -0.019441014 -0.010744176 0.035636727
000370 79 83 0a bd 06 03 a7 bc 1a 41 fe 3c a8 6c 98 bc
       -0.03381679 -0.020387184 0.031036902 -0.018606499
000380 34 23 b6 3c cf fb a8 ba 20 c2 47 3b 02 ff 7a bc
       0.022233583 -0.0012892428 0.0030480698 -0.015319588
000390 29 70 f1 bb 28 4c 11 3a 8f 6e f2 3b f6 16 c8 3c
       -0.007368107 0.0005542659 0.0073984335 0.024425011
0003a0 3d 45 4f bb 46 96 1b bd 6e 32 e6 bc 7f e1 15 bd
       -0.0031626963 -0.03798511 -0.028100219 -0.036592003
0003b0 17 43 ea 3a 77 a3 06 bc 71 af d7 3c 1f d1 8a 3b
       0.0017872778 -0.008217684 0.026328774 0.004236355
0003c0 cf 1d 7c 3c bf 9a f5 3c df 61 4b ba b5 bf 23 bd
       0.015387966 0.029981015 -0.00077584194 -0.039977748
0003d0 ae 52 47 ba cb 27 27 3d 16 76 90 bc ef ae 8a bc
       -0.0007603568 0.040809434 -0.017634433 -0.016929118
0003e0 e0 ae ed 3c 74 45 b7 3c ea bf 08 bd d7 f5 05 3b
       0.029014051 0.022371985 -0.03338615 0.0020440721
0003f0 ef 64 34 bd 02 1d 9e bc 83 d6 dc 3c 68 78 fd 3c
       -0.04404157 -0.019300941 0.026957756 0.030941203

conv2.0.bias f4 [64]
000000 86 47 8a bb 61 cd ae bc ba 2f e4 bc bb 42 45 39
       -0.004219952 -0.021338167 -0.027854789 0.00018812243
000010 92 94 a5 bc 4c 85 07 3d c1 b4 1b 3d 96 5c 94 bc
       -0.020212445 0.033086106 0.038014177 -0.018110555
000020 96 4a 24 3d a6 47 07 3c f0 72 dd bc b0 40 17 3d
       0.040110193 0.008256828 -0.027032346 0.036926925
000030 b8 9d 12 bd 4f 1a dc bc e3 9c 19 3d 7e 34 f4 bc
       -0.035794944 -0.026868014 0.037503134 -0.029810186
000040 a6 a4 7e 3c a8 b2 98 3c 82 7e 0b 3d e0 a6 2f bd
       0.015542185 0.018639877 0.034056194 -0.042883754
000050 92 ce 2c bd 03 58 28 bd 31 6c 0e 3b e7 ba ec 3c
       -0.04218919 -0.04109956 0.0021731968 0.028897716
000060 aa 2b 7e bc e4 74 f5 3b b7 d6 5f bc 20 c9 6e 3c
       -0.01551334 0.007490741 -0.013662032 0.014574319
000070 27 ee 18 3d ef 7f 2f 3d 4e ae 31 3d 72 74 46 bc
       0.037336495 0.042846616 0.04337912 -0.012112724
000080 41 a4 8e bc e2 dc 14 3d f5 2a 80 bc 8e c3 4c bc
       -0.017412307 0.036343463 -0.015645484 -0.012497796
000090 d9 10 7e bc 19 40 ea 3c 08 a5 ea bc 69 71 d6 39
       -0.0155069465 0.028595017 -0.028643146 0.00040901758
0000a0 85 64 9f 3c 8b 70 37 bc 11 4f 3a bc 64 f1 93 bc
       0.019457111 -0.011196266 -0.01137139 -0.01805944
0000b0 7f 18 1b bd c3 fa b8 3c 5c d5 ff 3c 6f 62 c9 3b
       -0.03786516 0.02258051 0.031229667 0.0061457674
0000c0 eb 86 7e 3c 8c ac 0a 3d 71 91 24 3d 70 57 76 bc
       0.015535097 0.03385596 0.040177766 -0.015035495
0000d0 ab 4a 06 3d 32 99 19 3d 7a fb 29 3c cd 1e 89 3c
       0.032786053 0.037499614 0.010374898 0.01673832
0000e0 dd cf 9a bc 94 11 7a 3c 05 ce 01 bd 1a 11 10 3d
       -0.018897945 0.01526298 -0.031690616 0.03517256
0000f0 ea 75 d9 3c 90 fb 1f 3d e9 08 7b 3c a9 f6 0c bd
       0.026545484 0.039058268 0.015321949 -0.03441492

conv3.0.weight f4 [64, 64, 3, 3]
000000 f9 88 dc bc 3a 4c 05 3c 9e a7 11 3d 94 7a 72 ba
       -0.026920782 0.00813585 0.035560243 -0.0009249833
000010 3f 32 f5 bb 48 6e bb 3c 16 30 dc 3c 7f 13 8c 3a
       -0.0074827964 0.022879735 0.026878398 0.0010686963
000020 74 b3 60 3b c0 3d 94 3c 16 b6 0b 3d bd 3b 2e 3c
       0.003428665 0.018095851 0.034109198 0.01063436
000030 ed 5f 76 bc 8c 7c 17 3d 4f 6d 0c bd 14 23 00 bd
       -0.015037519 0.03698401 -0.034283932 -0.031283453
000040 f5 3f 37 bc eb cd dd bc 71 01 95 bb 95 14 18 bd
       -0.011184682 -0.027075728 -0.004547291 -0.037129004
000050 d9 99 c6 3b 53 1a 69 bc 4c cc b6 3b 54 f2 91 3c
       0.0060608205 -0.014227468 0.0055785533 0.017815746
000060 74 49 02 bc da a2 a3 3c d5 cc 67 bc 14 f9 0a 3c
       -0.007952083 0.019975115 -0.014147957 0.008482236
000070 e5 41 8c 3c 84 9b 0c bc c6 e8 43 bc c6 e8 98 ba
       0.017121265 -0.008582 -0.011957353 -0.0011666052
000080 75 5d 67 bc 19 64 e3 3c 05 21 35 bc 44 64 34 bc
       -0.014121403 0.027757691 -0.011055236 -0.011010233
000090 f1 ef f6 3c bd 5e 09 3d b3 13 87 bc 4b a9 11 bd
       0.03014371 0.033537615 -0.016488886 -0.03556184
0000a0 84 c1 a6 3b 09 2d df bc aa d8 25 bc ed c3 12 bd
       0.005088987 -0.027243154 -0.0101224575 -0.03583138
0000b0 7d 11 ae 3c e2 0b fe bb 6c fb 26 bb 88 0d c0 3b
       0.021248573 -0.0077528814 -0.002547945 0.005860988
0000c0 b1 27 1d 3d 3f fb c3 3c 08 85 da bc 4c 2c 90 3c
       0.03836793 0.023923514 -0.026674762 0.017599247
0000d0 f5 53 11 bd 05 e4 d9 3c 29 34 d7 bc a9 47 b6 3c
       -0.03548046 0.026597986 -0.02626999 0.022250967
0000e0 ac e6 21 bd e9 d0 0c bc 10 5f 28 bd 6a 28 9c bc
       -0.039526626 -0.00859473 -0.041106284 -0.01906224
0000f0 74 66 39 3b f6 04 8b bb 18 71 45 3c bf af 0d bd
       0.0028289827 -0.0042425347 0.012050889 -0.034591433
000100 20 43 d7 3c 83 98 25 bd c3 19 15 3c b5 9b 0b 3c
       0.026277125 -0.04042865 0.00910038 0.00852101
000110 29 8d 7d 3c 9b 0a 00 3c 12 d9 90 3b 21 22 d5 bc
       0.01547555 0.007815029 0.004420408 -0.02601725
000120 0e 99 b9 3b d4 49 e0 3c 9c 84 9b bc 0b 83 21 bd
       0.0056639975 0.027378954 -0.018984132 -0.039431613
000130 01 3a c5 3c 67 89 2e bc 1e 3c 03 3d b6 7f d4 bc
       0.02407551 -0.010652876 0.032039754 -0.025939804
000140 f9 9e a5 bc f2 3a c7 bc 9c 9f e6 bc 07 83 0c 3d
       -0.020217406 -0.0243201 -0.02815228 0.034304645
000150 27 c7 99 3c e3 86 d2 bc ea e5 25 3d 21 b4 0a 3d
       0.018771721 -0.025699085 0.040502466 0.03386319
000160 7e 57 0d 3d 6a 52 3f 3c 4f 24 82 bc f5 ee b3 3c
       0.034507267 0.011677364 -0.015886454 0.02196453
000170 37 38 f7 38 06 47 1b 3d 3f b7 02 3d b1 28 4a bc
       0.00011788349 0.03790953 0.03191304 -0.012338803
000180 4a 3e b0 bc a7 e0 80 3c 23 e6 1d 3c 63 a0 90 39
       -0.021514077 0.015732123 0.009637388 0.00027585318
000190 7f 01 97 bc b8 ae a2 3c 5e 20 bb 3c c5 0d b0 3c
       -0.01843333 0.019858703 0.022842582 0.02149094
0001a0 d8 06 7b 3c 50 75 27 bd bc 60 eb bc e1 5a fc 3c
       0.015321456 -0.040883362 -0.02873265 0.030805053
0001b0 81 b8 12 bd 21 5a 3f 3c 24 93 84 3c 75 00 22 3c
       -0.035820488 0.011679203 0.016183443 0.009887804
0001c0 da 5e e7 bc 3e 3b db 3b 83 aa 20 3d 13 ed 9e bc
       -0.028243471 0.006690412 0.039225113 -0.019400155
0001d0 67 6c 0c bd cb 14 a7 bb 41 02 de bc c7 07 1c bb
       -0.034283068 -0.0050989143 -0.027100684 -0.0023808347
0001e0 ee 48 c1 3c 4c 43 20 3d 42 18 9a 3c 7f 56 e5 bc
       0.023594346 0.03912668 0.018810395 -0.027995346
0001f0 8f 65 9d 3c bb c0 a5 3c 46 5c 9d 3c 9d 3b 27 3d
       0.019213466 0.020233503 0.019209038 0.040828336
000200 ed 35 52 bc a4 6f fe 3c 83 e0 37 bc af cc 83 3c
       -0.01283024 0.031059094 -0.011222961 0.016088812
000210 2a f3 e1 3b 98 c4 e2 ba 45 56 f4 3c e1 e3 0b bd
       0.0068954425 -0.0017301021 0.029826293 -0.03415287
000220 ce d7 d5 bc 57 18 00 bd 72 21 63 bb e8 10 8d bb
       -0.02610388 -0.031273212 -0.0034657386 -0.004304994
000230 d4 50 89 bc 29 47 c7 bc 01 3a 1a bd a9 6d 84 3c
       -0.016762175 -0.024325924 -0.037652973 0.016165571
000240 ab fd 3b bc c8 89 93 bc 5c 90 6c 3c 9c 6a 29 bc
       -0.011474053 -0.018010035 0.014438715 -0.010340359
000250 94 01 9f 3b 5e a5 f1 bc b1 61 74 3c 38 ed c6 bc
       0.004852483 -0.029497799 0.01491587 -0.024283037
000260 b1 95 ae 3b 5d bb 8a 3c b7 1d 90 bc 2f 54 06 3d
       0.005327903 0.016935045 -0.017592294 0.032795127
000270 fb 1b a3 39 ec eb b5 bc aa c2 28 3d 7f 52 5c bb
       0.0003111063 -0.022207223 0.04120127 -0.0033618507
000280 41 7b 07 3d 1d 99 9e bc 5b ca 02 bd f6 91 bd 3b
       0.03307653 -0.01936012 -0.031931262 0.005785222
000290 0e f0 ae 3b 37 b7 b1 bc b0 06 72 bc 40 6c 7a bc
       0.0053386753 -0.021693809 -0.014772102 -0.015284598
0002a0 04 7a a1 3c 4c a2 28 3a ed 99 fd 3c 8c 91 fa bc
       0.019711502 0.00064328755 0.030957187 -0.03058698
0002b0 31 68 64 bc cc 5f 29 bd 16 ce f6 bc 32 49 69 3c
       -0.013940857 -0.041351125 -0.030127566 0.0142386425
0002c0 f4 44 90 bc 28 36 a2 ba a3 f9 1b 3d 00 5d 9b 3c
       -0.017611004 -0.0012375759 0.03807987 0.018965244
0002d0 40 52 15 bc 52 3b 01 3d e0 d2 86 3c c9 58 33 bc
       -0.009113848 0.031550713 0.016457975 -0.010946461
0002e0 b0 f0 61 3c 53 da cc bc e8 9e 20 bd f5 75 aa bb
       0.0137902945 -0.025006449 -0.039214045 -0.00520205
0002f0 fe 5e 8b bb 88 e8 45 3c 6b 0e 00 3d 48 2b 0f 3d
       -0.0042532673 0.012079366 0.03126375 0.034953386
000300 12 6e 3e bc 45 51 89 3c c2 45 2e bc ff ac c8 bc
       -0.0116229225 0.016762385 -0.010636749 -0.024496553
000310 f8 c6 29 bc ec 97 c4 3a 22 cf af 3c fe 0a 83 bc
       -0.010362379 0.001499889 0.021461073 -0.015996452
000320 b2 87 d0 3b f5 b0 dd bc 3e dc 24 3d 50 3d 0a 3d
       0.0063638324 -0.027061919 0.0402491 0.03374988
000330 5e d1 db 3c c1 43 da 3a e6 7f 2a 3a 4f a2 b3 3b
       0.026833232 0.0016652272 0.00065040437 0.005481995
000340 fd fa 14 3d 71 04 26 3d 85 13 1a 3d 15 63 b8 3c
       0.036372174 0.04053158 0.03761627 0.022508183
000350 de 19 01 3d aa f4 e2 bc 6a cb 1a bc 28 00 da bc
       0.03151881 -0.027704556 -0.009447912 -0.026611403
000360 92 0e 13 3d f0 0e 20 bd 9b b1 15 bc 9d 3b a0 bc
       0.035902567 -0.039076746 -0.009136583 -0.019559676
000370 b9 82 1c 3d 32 2c 83 bc 18 79 27 bd ba 58 90 bc
       0.038210604 -0.016012285 -0.04088697 -0.017620433
000380 40 6a 44 3b ba cc 3d 3b 58 6b 8f 3c 49 a7 f6 3b
       0.0029970556 0.0028961138 0.01750724 0.007527266
000390 04 61 12 bd ca 99 19 bd 66 c7 6e 3c d7 73 bf 3c
       -0.035737053 -0.03750018 0.0145739075 0.023370666
0003a0 d6 7d 18 bd 8b ae 21 3b 56 8b b4 bc 90 e8 c3 bc
       -0.03722938 0.0024670686 -0.022039097 -0.023914605
0003b0 d5 35 0f 3d 49 5a 23 bd 2e bf a3 bc bb 7c 80 3c
       0.034963448 -0.039881025 -0.019988623 0.015684476
0003c0 45 d4 56 bb e1 43 62 3c c8 37 4c 3c 79 f9 00 bd
       -0.003278033 0.013810129 0.012464471 -0.031487916
0003d0 b9 aa 0b 3d e5 88 ce bc fc 33 a3 3c 43 03 c8 bb
       0.03409836 -0.02521176 0.019922249 -0.0061039045
0003e0 d5 55 b4 3c ce fe 18 3c 8e 88 f8 3c f2 ab c1 bc
       0.022013584 0.009338094 0.030338552 -0.02364156
0003f0 bd 54 0b bd 3c e7 e7 3c 19 59 53 bb eb 50 38 bc
       -0.03401636 0.028308503 -0.0032249151 -0.011249761

conv3.0.bias f4 [64]
000000 a4 19 1d 3d b3 05 bf 3b 55 57 3f bc b4 3d 2e 3c
       0.03835453 0.005829537 -0.011678536 0.010634828
000010 2a 50 e7 bc 60 af bc 3c 27 0b c4 bc d6 7f 60 bc
       -0.028236467 0.023032844 -0.0239311 -0.013702353
000020 c1 ee 14 3d d7 7a 5a bc 73 e0 fa bc 7f a0 07 3d
       0.036360506 -0.013334951 -0.030624604 0.033112045
000030 4f 95 18 3c 0d a3 08 bd c0 1e 9f 3b 77 a8 cb ba
       0.009312942 -0.033358622 0.0048559606 -0.0015537877
000040 38 49 db 3b 31 fb e2 3c 28 2a 16 3c 0a d1 00 bd
       0.006692078 0.027707668 0.009165324 -0.031449355
000050 4a 32 0d 3d 8b 48 10 bd 59 a8 1c 3d 80 d4 25 bd
       0.034471788 -0.035225432 0.038246486 -0.04048586
000060 4b 04 0c 3d 75 8d a7 3c b6 57 95 bc f6 07 fd 3c
       0.03418378 0.020453194 -0.0182303 0.030887585
000070 12 88 1f 3b c6 6d 0a 3d dd 32 5e 3c 84 73 1f 3c
       0.0024342579 0.033796094 0.013561931 0.009732131
000080 d1 9b 80 bc 9d c9 65 bc 5b fd 1f 3d b7 f7 1d 3d
       -0.015699299 -0.014025119 0.039059978 0.038566317
000090 f9 4a ee bc f3 87 8b 3c 1f c4 31 bc b1 cc d9 bc
       -0.029088484 0.0170326 -0.010849982 -0.026586862
0000a0 5f f2 db 3b 41 71 28 3d d5 92 f5 bc b7 8b c0 bc
       0.0067122425 0.041123632 -0.029977242 -0.023504121
0000b0 aa 9f 91 bc a2 0e d0 bc 27 de 6a bc 50 97 dd 3b
       -0.01777633 -0.025397602 -0.014335192 0.0067624226
0000c0 fc c1 bb b8 7b fe a0 3c c1 38 11 bd ee e7 2b 3d
       -8.952987e-05 0.019652596 -0.035454515 0.041969232
0000d0 03 58 f9 3c e9 e5 14 3d 27 53 03 bb 81 ab c0 bc
       0.030437475 0.036352072 -0.0020038576 -0.02351928
0000e0 be 71 f0 3c 8b 36 fa bc 63 8f 94 bc 78 d1 16 bb
       0.029351112 -0.030543586 -0.018134778 -0.0023013037
0000f0 16 c2 7a 3c 6b 32 cc bc 30 56 8e 3b ac 7b dd bc
       0.015305063 -0.024926385 0.0043437704 -0.02703651

fc1.0.weight f4 [80, 970]
000000 a1 5a 6e bc 1d a9 b2 bc 97 aa 44 bc 03 fb c0 3c
       -0.014547975 -0.021809155 -0.012003562 0.023557192
000010 59 86 98 3c 48 2f 82 3c a0 e6 6e 3b 52 dc 2e 3c
       0.01861875 0.015891686 0.0036453381 0.010672646
000020 32 bd b8 3c a4 ba db 3c 34 27 54 bb 41 dd 95 bc
       0.022551153 0.026822396 -0.0032372 -0.018293979
000030 17 4b 14 3c f1 a3 88 bc 25 a0 ec 3b 32 c6 a3 38
       0.009051106 -0.016679736 0.007221239 7.8093624e-05
000040 d4 6d 87 3c f3 46 83 bc 32 b4 ac 3b 9a f5 da ba
       0.016531862 -0.016025042 0.0052705044 -0.0016705275
000050 5e 11 76 3c 40 35 b9 3c 84 66 c2 3c 2f c6 81 bc
       0.015018789 0.0226084 0.023730524 -0.015841572
000060 33 19 74 3a 83 2d 61 bc 03 af 01 bd 98 f5 ba 3c
       0.00093116163 -0.013743761 -0.031661045 0.022822186
000070 cb 73 e8 3c 36 f7 00 3d 09 ca 24 3c 93 50 38 bc
       0.028375527 0.03148576 0.010057935 -0.011249679
000080 2c fb de 3b 7b 6f 11 bc c7 64 ff 3c 17 99 d8 bc
       0.0068048444 -0.008876677 0.031175984 -0.026440186
000090 10 0a 93 bc cf 24 ff 3c b7 cc 98 3c 24 14 80 3c
       -0.017949134 0.031145481 0.018652303 0.015634604
0000a0 e7 19 b0 3b 44 2d 83 ba 7e 87 ad 3c c6 06 06 bc
       0.0053741815 -0.0010007997 0.021182772 -0.008180326
0000b0 6b 40 8d 3c 77 e5 02 bc df 72 da 3a 62 a7 c2 3c
       0.017242631 -0.007989279 0.0016666314 0.023761455
0000c0 0c ab d7 bb e0 ab de bc 45 48 9c bc 9f 65 a8 bc
       -0.0065816697 -0.027181566 -0.01907743 -0.02055627
0000d0 fd 47 4d 3c 9d 8d 87 bc 6a e0 94 bc 57 31 63 3b
       0.01252937 -0.016547019 -0.018173415 0.003466686
0000e0 f3 d8 03 3d aa 40 b5 bc 9d db bf 3c 81 db 95 bb
       0.03218932 -0.02212556 0.02342015 -0.004573286
0000f0 c7 04 f1 3c bf 96 dd bc 8c 98 9d 3c 53 d6 e0 bc
       0.029421223 -0.02704942 0.01923778 -0.027445948
000100 95 b7 dd 3c d6 65 c8 3c fa 97 d9 3c ba 37 c7 3c
       0.027065078 0.024462622 0.026561726 0.024318565
000110 76 be 1c 3c fc df db 3c 94 d7 99 bc e3 dd c1 3b
       0.009566894 0.026840203 -0.018779553 0.0059163435
000120 23 72 6c bc 9f 73 08 3c 92 01 fe 3b d8 2d be b9
       -0.014431509 0.0083283475 0.007751652 -0.0003627378
000130 23 84 3d bc 84 f5 ff bc f8 44 02 bd ab 3f 6c bc
       -0.011567148 -0.031245 -0.031804055 -0.0144194765
000140 80 6a 1a 3c 18 68 9e bb 20 32 8b 3c cc 12 19 3c
       0.009424806 -0.0048341863 0.016991675 0.00934286
000150 ed 2c 9b 3c 43 78 84 bc c6 33 b5 3c 93 74 ca 3b
       0.01894232 -0.016170627 0.022119414 0.0061784475
000160 49 4d 00 bd 5c de 9c bc 1a ac d1 3c ea db 91 bc
       -0.031323705 -0.019148998 0.02559476 -0.017805059
000170 56 ac 27 3c 16 a4 69 3c ef bc 08 3c 2a 11 f8 3c
       0.010233959 0.014260313 0.0083458265 0.030281622
000180 c6 49 dc bb d4 db e4 bc b2 c9 f9 bc 8c 52 dc bc
       -0.0067226617 -0.027936853 -0.030491684 -0.02689483
000190 a7 7d 1a bc 07 48 d9 bc 0a f0 fe 3c 75 78 11 bc
       -0.009429372 -0.026523603 0.031120319 -0.008878817
0001a0 2e b4 74 3c 12 73 d0 bc d6 5d 4c 3c 5e 90 cf bb
       0.014935536 -0.025445495 0.012473544 -0.0063343486
0001b0 17 ee 61 bc 57 f2 aa 3c d3 b2 4d 39 95 fd b0 3c
       -0.013789675 0.02086751 0.0001961694 0.021605292
0001c0 19 d2 d3 bc e7 50 c5 3b 30 08 a7 3c e5 aa b1 bc
       -0.025857018 0.006021607 0.020389646 -0.021687934
0001d0 a6 22 59 bc b7 2f 27 bc 7c df 11 bc 82 01 c9 bb
       -0.01325289 -0.010204247 -0.0089033805 -0.006134213
0001e0 0d 19 2d 3c 34 17 18 3c ee ab 46 3c d6 51 9b bb
       0.010565055 0.009282876 0.012125952 -0.00473998
0001f0 e2 c0 80 bc 4e 9e 91 3c c7 5a de 3b df 28 bf bc
       -0.015716974 0.01777568 0.006785724 -0.023334919
000200 29 fe a5 3c 42 e8 fb 3c d8 39 c0 3b 84 a6 99 bc
       0.020262795 0.030750398 0.0058662705 -0.018756159
000210 04 99 69 bc 97 a2 a7 bc a9 ac 00 bc 0c 6c 9f bc
       -0.014257673 -0.020463271 -0.007853665 -0.0194607
000220 48 12 91 bc a5 a5 c2 bc 02 18 5f bc e5 97 d6 3c
       -0.017708912 -0.023760626 -0.013616564 0.026195476
000230 b4 06 5f bc e1 46 84 bc b0 78 30 3c c2 c8 c6 3c
       -0.013612438 -0.016147079 0.010770962 0.02426565
000240 70 1e 66 3c 6e 13 d9 bb a0 a1 3c 3c 19 50 94 bc
       0.014045343 -0.0066246307 0.011513144 -0.0181046
000250 80 56 cc 3b 99 41 47 39 d8 b6 2d ba 5e 81 82 3c
       0.0062358975 0.00019002556 -0.0006626672 0.015930828
000260 13 07 b4 3c d1 0e 7c bb 93 0a a5 bc 3b 4c 50 bc
       0.02197603 -0.003846098 -0.020146644 -0.012713487
000270 f0 11 d4 3c 15 07 b4 3c ed 74 5d 3b d9 33 e9 3c
       0.02588746 0.021976033 0.0033791617 0.028467106
000280 6c 99 53 3c 39 2b c9 bc 91 27 ae ba 66 e3 5a bc
       0.012914997 -0.024556743 -0.0013286938 -0.01335988
000290 93 b4 8c bc 75 99 c0 bb 38 01 29 3b 72 d1 f4 3c
       -0.017175948 -0.0058776685 0.002578808 0.029885028
0002a0 6a ec 15 3c f0 ec ac bc 4b f6 8b 3c a1 66 67 3c
       0.009150604 -0.021109074 0.017085215 0.01412359
0002b0 54 d7 b8 bb 1e 00 2d 3c 14 f8 91 ba e3 24 35 3c
       -0.0056409035 0.01055911 -0.0011136555 0.011056158
0002c0 61 48 e4 bc 8a 03 22 3b 74 4c f0 bb c3 49 d1 bc
       -0.027866544 0.0024721348 -0.0073333327 -0.025547868
0002d0 4b ba ed bc c5 a7 c6 3c 5d 28 b7 bc c6 cd d1 bb
       -0.029019495 0.02424992 -0.022358114 -0.006402704
0002e0 d5 8b d3 bc e4 20 3a 3c b4 62 fa bc 47 28 a3 bc
       -0.025823513 0.011360381 -0.030564643 -0.019916667
0002f0 e1 af 5b bc 44 e6 b1 bc f2 8c 01 3b 28 46 d8 3c
       -0.013408632 -0.021716245 0.0019767848 0.02640064
000300 a8 ab 82 3a a3 a3 9c 3c 70 5d 01 3d 15 26 de bb
       0.000996937 0.019120997 0.03158325 -0.006779442
000310 65 4f c0 3b 06 61 d8 bc 04 ea 2f 3a 39 62 35 bc
       0.0058688396 -0.026413452 0.0006710591 -0.011070781
000320 80 17 e4 bc 22 4d e7 3c ba 16 e8 bc 05 7c aa bc
       -0.027843237 0.028235022 -0.02833115 -0.02081109
000330 9c 0c 65 bc d2 b5 97 3a d8 45 65 bc 42 64 9e bc
       -0.013980057 0.0011574572 -0.013993703 -0.019334916
000340 84 40 95 bc a1 22 ee 3a 35 f7 d3 bc d6 43 52 3b
       -0.01821924 0.0018168279 -0.025874713 0.003208389
000350 c1 53 3b 3c 18 84 4f 3c ba e6 00 bb cc 79 9c 3c
       0.011433543 0.012665771 -0.0019668774 0.019101046
000360 3d c1 d6 bc 71 b1 ae 3c 11 46 5e 3c d1 52 12 3b
       -0.02621519 0.021324845 0.01356651 0.0022327194
000370 3b 7b 9c 3c dc 8e e0 3b 1f 39 04 bc 60 77 31 bc
       0.01910173 0.0068529677 -0.008070259 -0.010831684
000380 a5 8e 86 3c 73 50 02 3c f0 b5 15 3c 12 b4 a3 3c
       0.01642544 0.007953751 0.009137616 0.019983325
000390 a2 46 4c bc 2f 17 ba 3c ca 94 28 bc eb f3 15 bb
       -0.012468012 0.022716133 -0.01028938 -0.0022880982
0003a0 4b 57 cf bc d7 ca a2 bc 5a b2 e0 3c bf ad dc bc
       -0.02531018 -0.019872112 0.027428795 -0.026938317
0003b0 68 f2 85 bc fd 53 77 3c ac 43 9d 3c ea ec da 3c
       -0.01635094 0.015095708 0.019197308 0.026724298
0003c0 49 42 cd bb 86 b3 f0 3c 1e 86 c3 3c f7 31 c4 3c
       -0.0062640053 0.029382478 0.023867663 0.023949606
0003d0 10 d4 45 bc 28 a2 d4 bc 34 77 2e 3c a0 84 12 bc
       -0.012074485 -0.025956228 0.010648537 -0.008942753
0003e0 d9 30 f9 3c 3b ee b9 3c 5a 6b 26 bb 41 4c 93 3b
       0.0304188 0.022696605 -0.0025393576 0.004495174
0003f0 fc ee c4 3c d0 22 9e 39 f4 51 82 3c df 81 27 bb
       0.024039738 0.00030162046 0.015908219 -0.0025559587

fc1.0.bias f4 [80]
000000 a8 97 f9 3c 8b a9 bb 3c ba 92 d5 bc b0 4a 5e 3c
       0.030467823 0.022907993 -0.026070941 0.013567612
000010 9e a6 1a 3c 22 24 a4 bc bf 6c b6 bc 10 d0 b6 bc
       0.009439139 -0.02003676 -0.022268651 -0.022316009
000020 18 15 f1 bc 8e 12 b2 bc 1f 35 40 bc 60 a1 43 bc
       -0.029429004 -0.021737363 -0.011731415 -0.01194033
000030 7f c8 a2 bc b2 b8 f0 3c c3 93 20 3c 28 f1 82 3b
       -0.019870995 0.029384945 0.009800854 0.003996033
000040 41 81 01 bd 92 2c 55 bc 0e 27 3d bc 94 80 67 bc
       -0.031617407 -0.013011115 -0.011544956 -0.0141297765
000050 13 d9 b4 bc 8f e7 92 3b 36 70 5e bc bf 8e d1 3b
       -0.022076165 0.0044831703 -0.013576558 0.0063951905
000060 04 ba 6e bc dc 39 1e 3b 64 65 df 3c 60 c7 b2 39
       -0.014570717 0.0024143374 0.027270027 0.00034099352
000070 2c 41 9d 3b aa 93 e5 bb 5a 13 f8 bb 6c 51 76 bc
       0.004799029 -0.0070061283 -0.0075706663 -0.015034061
000080 43 46 e6 bc b6 bc ed bc 5b d8 04 bd 86 c6 f3 bc
       -0.028109675 -0.029020648 -0.032432895 -0.02975775
000090 8f fc ff 3c 15 b2 9a bc e3 27 22 3c 5b c0 95 bc
       0.031248359 -0.018883744 0.009897205 -0.018280199
0000a0 35 f3 f0 bc 9c ed fa bb c8 c3 dd bb e2 34 48 bc
       -0.029412845 -0.00765772 -0.0067677237 -0.0122196395
0000b0 2d a3 97 bb 62 2f fa 3b 14 70 80 3c 54 ff 82 3b
       -0.0046276064 0.007635043 0.015678443 0.0039977226
0000c0 bb df 0a 3c 6f 64 82 3c 27 78 55 3c 97 e5 6b 3c
       0.008476193 0.015917031 0.013029135 0.014398
0000d0 2b 8e f2 3c a9 b9 b5 39 6d 68 94 bc 3d b5 e0 bb
       0.029608807 0.00034661338 -0.0181162 -0.006857543
0000e0 72 a2 f8 bc 6f a4 ad 3c 69 82 04 bd 46 9a 03 bd
       -0.030350897 0.021196572 -0.03235093 -0.03212955
0000f0 21 bb b5 bc 53 bc 38 bc ff c1 df 3c 5b 91 59 3c
       -0.022183957 -0.011275369 0.027314184 0.013279284
000100 d5 06 aa bb 3d 0c c1 3c cd a4 74 bc 6c 6d 33 3c
       -0.0051888027 0.023565406 -0.01493187 0.010951381
000110 a9 37 82 bc 57 d5 30 bc db ac ab bc 49 00 03 3c
       -0.015895681 -0.010793052 -0.020956447 0.007995673
000120 ba 3c d3 3c 82 75 1d 3c a5 1c 96 3b ed e3 65 bc
       0.025785793 0.009610536 0.0045810514 -0.0140313925
000130 2f 01 b8 3c 5c 8c 68 3c df 75 ad 3a c5 21 c3 3b
       0.022461502 0.0141936205 0.0013233981 0.0059549534

out.weight f4 [40, 80]
000000 ad a6 95 bd 74 a9 28 3d 37 f4 6f 3d 78 16 b1 3a
       -0.073071815 0.041177228 0.05858251 0.0013510725
000010 9a cf 74 bd 68 54 6b bd b4 51 8b bc ef 7c 8b 3c
       -0.059768297 -0.057453543 -0.017006733 0.017027346
000020 cc 2f df bd 18 a3 52 3d b9 24 3c 3c 10 a2 d4 bd
       -0.108977884 0.05142507 0.011483365 -0.103824735
000030 37 27 14 3d 03 de ae bd 86 bd 88 3c 52 90 15 3c
       0.03617021 -0.08538439 0.016691934 0.009128647
000040 48 3a e4 3d 41 03 23 3d bf 85 85 bd 1f 05 d4 3c
       0.11143929 0.039798025 -0.06519651 0.025881348
000050 f0 20 e3 bd b1 3f 1a bd d7 92 ff bc 6c 9c d6 3d
       -0.11090267 -0.037658397 -0.031197948 0.10479054
000060 77 95 c3 3d 0b 28 db 3d 18 36 24 bd b6 cb e1 3d
       0.095499925 0.10700997 -0.04009065 0.11025183
000070 a8 af 42 bc f0 4f 21 bc 52 7b d8 bd c8 9f ab 3c
       -0.0118827 -0.009845719 -0.105703965 0.020950213
000080 a4 4c 1a bd 3e 2a 10 bd 3f 0d 88 3c d0 18 82 bd
       -0.037670746 -0.035196535 0.016607879 -0.06352389
000090 66 c6 aa 3d 23 a5 89 3d de 31 14 bd c0 72 93 bd
       0.08338623 0.067209505 -0.03618037 -0.07199621
0000a0 69 91 be bd f8 7d 40 3c fb 66 91 3d 58 30 ce bc
       -0.093050785 0.011748783 0.0709972 -0.025169536
0000b0 34 e6 03 3d 98 d2 07 bd 48 1b b0 3c 38 40 72 3b
       0.03220196 -0.033159822 0.021497384 0.0036964547
0000c0 a1 f3 3e 3d c5 54 9a bd f0 76 0f 3d f1 c8 1b bd
       0.04661906 -0.075357 0.035025537 -0.03803343
0000d0 19 4b 4a 3d 92 05 3d 3a 2c e4 e4 3c b8 94 ad 3d
       0.049388025 0.0007210608 0.027940832 0.084756315
0000e0 e0 85 b0 bd 62 70 a5 bd e6 d5 4b 3d e5 95 97 bd
       -0.08619285 -0.08078076 0.049764536 -0.07401637
0000f0 73 20 67 bd 84 ca ca 3d 9b 28 e2 3c ef d4 84 3d
       -0.05642743 0.09901908 0.027607253 0.06485926
000100 e0 d7 be bc 1b e5 f3 3c d3 ad bf 3d 7b f4 8f 3d
       -0.023296297 0.029772332 0.09359326 0.07029053
000110 fc 49 83 3c 7b 54 aa 3d ae e0 14 3d 16 84 b6 3d
       0.01602649 0.083168946 0.036347084 0.08911912
000120 88 62 a7 bc 9b 4a a0 bd 38 80 ae bb de c7 49 3d
       -0.020432726 -0.0782673 -0.0053253435 0.049262874
000130 aa 96 5e 3c a7 d6 9b bd f1 9f 1d bd 07 32 cc bd
       0.013585726 -0.07609301 -0.03848261 -0.099704795
000140 6d 25 6e 3d a4 5e 86 bd d1 ef d2 3d ac fd ba bd
       0.05814116 -0.0656102 0.102996476 -0.09130415
000150 8d 36 85 3c 12 15 1d bd f6 ac 02 3d 26 2a b9 3d
       0.016261363 -0.038350172 0.03190323 0.09041242
000160 28 96 9d bd ce 97 05 bd ab 7a fe bc dd ae 72 bd
       -0.07694656 -0.032615475 -0.031064352 -0.059248794
000170 90 84 aa bd 74 51 0f 3d 2e ee 6c 3d cc e9 ac 3d
       -0.083260655 0.03498979 0.057844333 0.08443031
000180 7a 5d 58 bd 6a 92 78 3d 23 b8 d7 bd da df 8f bd
       -0.05282352 0.060686506 -0.10533168 -0.07025118
000190 37 35 46 bd b6 2d c5 bb 0d 20 8f bd 20 da 96 bb
       -0.048390593 -0.006017412 -0.06988535 -0.0046036392
0001a0 19 b6 40 bd 5c 14 9e 3d 6a 6d e3 3d ef dc f5 b8
       -0.04704866 0.07718727 0.111048535 -0.000117236625
0001b0 e1 03 d7 3d 6f e9 78 bd 65 88 cc bc e2 df 27 bd
       0.10498787 -0.060769495 -0.024967382 -0.040984996
0001c0 ab dd b2 3d 97 ca 8c bd 9f 80 bb bd b3 07 ce 3d
       0.08733686 -0.068745784 -0.09155392 0.10060062
0001d0 9d 15 72 bb 82 aa a8 3d 08 a8 a4 bd d5 28 9e 3d
       -0.0036939152 0.08235647 -0.08039862 0.07722632
0001e0 75 95 35 3d 81 e7 1b 3d 9d 62 46 bd 5e 06 4e 3d
       0.044331986 0.038062576 -0.04843389 0.05029904
0001f0 78 5a bf bd fc d3 f4 3c 9c b2 b0 3d 3e 0c 84 bd
       -0.093434274 0.029886238 0.08627817 -0.064476475
000200 e6 d5 8a 3c 35 b6 0e 3c 0d 8a e1 bd 8b fe b1 bd
       0.016947698 0.008710434 -0.11012659 -0.08691128
000210 2d d2 24 bd 36 37 c7 3d 47 84 38 3c 3e dd 49 bc
       -0.0402395 0.097273275 0.011262006 -0.012320815
000220 0f 95 5a bd e8 cc 88 3d fd d2 94 bd 7d 5d dc bd
       -0.05336481 0.06679708 -0.07266805 -0.10760019
000230 98 d6 24 bd 9e b4 c9 3c 57 61 9e bd 00 01 9a 3d
       -0.040243715 0.024622258 -0.0773341 0.07519722
000240 40 bf 25 bd 1f fd 61 bd 45 dd dd bd 23 bf c9 3c
       -0.040465593 -0.055173036 -0.108332194 0.024627274
000250 78 1f 31 3d 87 4a 4a 3d 34 28 90 bd 88 78 86 3c
       0.0432429 0.04938748 -0.07038918 0.016414896
000260 87 93 03 3d 57 85 19 3d 22 0a e2 bd 10 3a a3 3d
       0.032123115 0.03748068 -0.11037089 0.07970059
000270 7b 0b b5 3d fe a6 6a bd c1 dc a5 bd 9d 62 92 3d
       0.0884008 -0.057288162 -0.08098746 0.07147715
000280 9f 69 d6 3c b3 bc 62 3d 61 f3 a6 3d 80 f8 99 3b
       0.026173411 0.05535574 0.081518896 0.004698813
000290 14 b5 a3 bc 3b ec 38 bd 00 07 a3 3d 70 06 b4 bd
       -0.019983806 -0.045147162 0.079603195 -0.0879029
0002a0 e5 e7 6b 3d 4d ff 8d bd 06 0b f9 bc 3c 2a a3 bd
       0.0575942 -0.069334604 -0.030400764 -0.0796704
0002b0 ad 06 79 3d a2 f4 e1 bd 56 c8 90 bd 45 75 c3 bd
       0.060797382 -0.11032988 -0.07069461 -0.09543852
0002c0 1e 54 59 bd d3 b0 3f 3c 61 64 7f bd cd f9 d0 bd
       -0.053058736 0.011699873 -0.06235159 -0.10203896
0002d0 87 02 82 bd e0 51 7a bd 43 e6 42 3c 38 38 cf 3c
       -0.06348138 -0.06111324 0.011895719 0.025295362
0002e0 a3 ff 6c bd f3 14 c0 bd 41 0e 3d bd 10 92 d3 3a
       -0.05786098 -0.09378996 -0.04615617 0.0016141552
0002f0 24 7f fc 3c 7a 14 a5 3d bd 78 87 bd b7 cc 8c bb
       0.030822344 0.08060546 -0.06614826 -0.004296865
000300 2f 85 17 3d fc 29 23 3d de 1e 81 bd 05 da a2 bd
       0.03699225 0.03983496 -0.063047156 -0.0795174
000310 4b 98 80 3d 2e 3f 34 bd f7 f6 e0 bc 68 aa 8a 3b
       0.062790476 -0.044005565 -0.027461512 0.00423174
000320 1c 1b a6 3d b4 22 ac bd 4c f0 3d 3d 49 b2 06 bd
       0.081106395 -0.084050566 0.046371743 -0.03288487
000330 4c 50 f3 bc 2e 3b 6f 3c 07 b6 02 3d 8d b5 29 bd
       -0.029701374 0.014601512 0.031911876 -0.041432906
000340 36 c7 1f 3d 21 ec bc bd 36 3f 2d 3c ff 88 06 bd
       0.03900834 -0.092247255 0.010574153 -0.032845493
000350 4a ba 86 3d 48 28 58 3c 3f 6e 9d bd 71 fd db bd
       0.065785006 0.013193198 -0.076870434 -0.107416995
000360 b6 17 db ba c4 b8 af bd 27 1b 98 3d 26 7b c1 3d
       -0.001671544 -0.08580163 0.07427054 0.09447317
000370 fb 49 9b bd c8 c7 a8 bd 34 55 a0 3c 86 54 c0 bd
       -0.0758247 -0.0824123 0.019571878 -0.093911216
000380 a4 39 b6 3d 7f 8e 92 3c f7 20 bf bd 90 e1 b3 bc
       0.08897713 0.017890213 -0.093324594 -0.021958143
000390 e9 86 4b 3d 64 29 71 bd 75 67 c9 3d bb 32 e6 3c
       0.049689207 -0.058877364 0.09834186 0.028100362
0003a0 50 91 95 3d fa 20 b7 bd e6 3b c6 bd a9 5b a0 3c
       0.07303107 -0.08941837 -0.096793935 0.019574957
0003b0 18 f3 6a bc 40 65 5c 3c 01 e4 5d 3d c9 9f 62 3d
       -0.014340185 0.013451874 0.05417252 0.055328164
0003c0 26 f2 8a 3d 81 b3 00 bd e5 f9 c3 bb 89 a1 ab 3d
       0.067844674 -0.03142119 -0.0059807175 0.0838042
0003d0 bc 7e 90 3d 62 df c3 3d 9a 10 c5 3d 56 ab 67 3d
       0.07055423 0.09564091 0.09622307 0.056559883
0003e0 9f e1 c1 3a 06 6a bf 3d 8b 74 8b bd b6 bd 4c 3d
       0.0014791972 0.09346394 -0.06809338 0.04998561
0003f0 f5 28 95 3c a2 5e 8f bd 0f 5f 08 3d ac 88 64 3d
       0.018208006 -0.07000472 0.03329378 0.055794403

out.bias f4 [40]
000000 d5 f9 35 bd cd 96 c4 3d 01 03 c1 3c 6f 38 38 bd
       -0.04442771 0.095990755 0.023561003 -0.044975694
000010 fe e4 56 bc dc bf 33 bd d8 71 c1 3d 49 14 bb bd
       -0.013116119 -0.043884143 0.09445542 -0.091347285
000020 9f 5c f5 3c ba e9 82 bd 99 47 b4 3d f3 63 0d 3d
       0.029951392 -0.06392236 0.08802719 0.034519147
000030 24 8e 2c 3c ad a6 a6 bc b7 ab 96 3d f9 70 c8 3d
       0.010531936 -0.02034315 0.07356971 0.09787173
000040 ae 15 8c 3d 7f c9 9d bd e2 cd 03 bd fc 03 60 bd
       0.068400726 -0.07704448 -0.032178767 -0.0546913
000050 cc 9f 9b 3d 78 af d1 bc ed 76 4c bd 47 1a 84 3b
       0.07598838 -0.025596365 -0.049918104 0.004031453
000060 be 25 02 bd 9d de 7b bd ad 62 81 bc 47 03 f1 bb
       -0.031774275 -0.061491597 -0.015794123 -0.007355127
000070 67 f9 aa bb 17 b7 c9 bd 4e 76 55 bc 8e 5f e1 bc
       -0.0052177194 -0.09849375 -0.013028694 -0.027511384
000080 e0 9c af bc b6 f5 2b 3d f1 ea a9 bd 94 a9 1a bd
       -0.021437109 0.041982375 -0.08296765 -0.03775938
000090 d2 cb fa 3c e4 9c 51 3d dc 16 9c bc cd 48 c4 3d
       0.030614767 0.051175013 -0.019053869 0.09584198
