1800params3.pth (torch, 607751 bytes, 10 tensors)

conv1.0.weight f4 [32, 4, 2, 2]
00000000: 30dc c4bd 44c1 2b3e e013 c03d fb50 393e
00000010: a813 6dbe 48af 4b3d f6c4 463e 165e 09bc
00000020: 03c6 5dbe d070 68bd a9e2 b43d 07e8 bfbd
00000030: 3556 84bd 16b0 a5bd ad3a d83c ed60 313b
00000040: 9746 eabd d355 593e 137e 8d3d ae67 a63d
00000050: 764f 77be 9c94 29be e630 14be 458e 24be
00000060: b2a8 fa3d 8ca6 5c3e 2999 a7bd e733 5b3d
00000070: 4d7a 2fbe 8a05 023e 2b30 1bbc 9801 31ba
00000080: d7f2 f8bc 7c3a 523e e6d5 2bbe 3591 5a3e
00000090: c2c9 9b3c 36d4 603d e915 b13d d80c 1a3e
000000a0: 007e 4cbd e22b f2bd df70 6a3e 98a8 1b3d
000000b0: 5001 0c3e acc8 34bd 9b56 43be b4ba 93bd
000000c0: 1302 49be 2141 7c3e a7bb ea3b 8cae 473e
000000d0: 3dcd 573e f9dc 0fbd 7820 813d 1956 e2bc
000000e0: 4ff4 65be b816 163e ebb3 b1bd 2db2 5b3e
000000f0: d2e6 e53d 2bbf 96bc db66 243e 07fd d53d
00000100: b9af 623e a10d e43a 1427 bdbd 6f94 2cbd
00000110: 9447 6e3e e27f 493e eb82 4c3e 9334 20bd
00000120: 94c3 b2bd c45d 9f3c cd0a 1bbe f03e c3bd
00000130: a995 7e3e 27cb ea3c 6ee5 e23d e2f3 a1bd
00000140: f9ad 9e3d 4145 b93d 203c 30be cbee 763e
00000150: d297 e8bc 4137 19be e542 b3bd afcf 4d3e
00000160: 212b 2bbe 8dd8 6cbe 3ce4 78be 28f7 533e
00000170: 7ad4 32bd ef76 dfbc b2ce f1bd 9b41 c93d
00000180: aad8 4a3e ae13 163e 95f9 293e 207d 98bc
00000190: d1ac 863d 47b5 cbbd d2be 3f3e f7e2 a3bd
000001a0: 7e9f afbd 4aa3 ba3c 4ad5 3ebe bf9e 1fbe
000001b0: 3687 553e bf8b c9bd ff9b d8bd 2405 ec3d
000001c0: 0b6f 87bc 76cc 293d 3d10 3e3e 3dca a5bd
000001d0: 58ae 68bd 0696 7ebe 3bd5 773d 61d9 f6bd
000001e0: 240c 0ebe 5252 063e ece5 41bc f9e7 4f3e
000001f0: 00ad 19be 1879 593e 195d 64bd ea64 45bd
00000200: f67d 39bd e2ba 563e 706d cbbc b8bf 5dbe
00000210: 392b 11be 71d5 0abe 55ce f3bc 7fb0 33be
00000220: f110 023d b007 cf3b cc2e ed3d d009 4fbe
00000230: a83c 7e3e 246b 473d 3108 e23c 5b8e 38be
00000240: 9f23 2e3e 7fbb 233e 232a c83d 467a 1fbe
00000250: 6c91 17be bb0c 323e 613e 43be 847a fb3c
00000260: 04e8 33bd e055 463e f151 66be d9cd ddbd
00000270: a365 87bd 9996 9bbd e315 3fbe 76f7 c7bd
00000280: a829 18be c78f 4c3e d8a5 12be fba6 e13b
00000290: 8c2b 7fbe 47c1 04be e801 443e 5c5b 55be
000002a0: c7a4 32bd 4f38 efbd e036 c2bc df00 46bc
000002b0: adac 8bbd 6e0b f2bd 05e6 c93d 34ca 0abd
000002c0: 3f4b 803d 5c59 54be 7b8c 31bd c499 bcbd
000002d0: c3bf eb3d 21f0 c7bc 07d4 0dbe 6f84 72be
000002e0: 0bfe 9e3c c253 0ebe 5611 57be 200d 24be
000002f0: 3f6b 763e 60cd 0abe bc33 a6bd 84da 63be
00000300: d490 46be c805 0cbe 70e3 7ebe e180 8d3d
00000310: 694d 1bbd 8422 d53d 1967 abbd 22fa 01be
00000320: d90d 06bd e18d 323e 9326 133e 3ad1 82bd
00000330: 383d 4d3d 2a60 94bd 1c4b c93b e742 3f3e
00000340: 9c25 103e 62fb 0abc 04d7 953d 77bc 7b3d
00000350: 0470 16be fa13 5dbd b7c5 593e f11d ac3d
00000360: a3c7 99bb 81e4 723e d28f 91bd 524b fbbd
00000370: 8544 e5bd 05b7 163e bbb8 9e3d 4e80 233e
00000380: dd10 1d3e 09df cdbd 0953 1abd a62e 3bbe
00000390: 5a1e 123e 5af0 2a3e 1521 34be 0158 18be
000003a0: 8601 f93c 12ea 993c 0893 013e 4585 e43d
000003b0: b845 55be 601f 043d f054 2abc bbd3 173e
000003c0: 7c56 5e3e 7581 3a3e 66f2 163e f367 19be
000003d0: e3f7 14be 9904 30be cf94 733e dd20 60be
000003e0: 4da7 0f3e 38b5 543e 654b 7ebe 3ea4 e73c
000003f0: b3d6 16be 9a2d 5e3d a998 803d 2af0 e1bd
-0.0961231 0.16772944 0.09378791 0.18097298 -0.2315203 0.049727708 0.19411072 -0.008384248
-0.21657567 -0.05674821 0.088322945 -0.093704276 -0.06461755 -0.08090226 0.026395166 0.002706583
-0.11439245 0.21224146 0.069088124 0.08125244 -0.24151406 -0.16560596 -0.14471778 -0.16069897
0.12239207 0.21547908 -0.0818351 0.053516295 -0.17136498 0.12697425 -0.009471933 -0.00067522516
-0.030389233 0.20530123 -0.16780815 0.21344455 0.019017104 0.05488988 0.08646757 0.15043962
-0.04992485 -0.11824776 0.2289462 0.03800258 0.13672376 -0.044136688 -0.19076006 -0.07213345
-0.19629698 0.2463422 0.007163483 0.19500178 0.21074386 -0.035122845 0.06305021 -0.027628945
-0.22456478 0.14657104 -0.08676895 0.21454687 0.11225666 -0.018401703 0.16054861 0.10448652
0.22137345 0.0017399081 -0.09235969 -0.042133745 0.23269492 0.1967769 0.19971816 -0.03911264
-0.0872871 0.01945389 -0.15140839 -0.09533489 0.24861778 0.028661324 0.110789165 -0.07907845
0.077480264 0.09046412 -0.17210436 0.2411453 -0.028392706 -0.14962484 -0.087529935 0.20098756
-0.16715671 -0.23129483 -0.24305815 0.20699751 -0.043659665 -0.027278392 -0.11807002 0.098269664
0.19809213 0.14655945 0.16599114 -0.018614352 0.06575931 -0.09946685 0.18725136 -0.080022745
-0.085753426 0.02278294 -0.18636051 -0.155879 0.2085236 -0.098411076 -0.10576629 0.11524418
-0.016532442 0.041454755 0.18560882 -0.080952145 -0.056806892 -0.24861917 0.060506087 -0.120531805
-0.13871819 0.1311734 -0.011834603 0.20303334 -0.150074 0.212376 -0.055752847 -0.048191942
-0.04528614 0.20969728 -0.024832457 -0.21655166 -0.14176644 -0.13557984 -0.029761473 -0.17547797
0.031754438 0.006318055 0.115811914 -0.20218587 0.24827826 0.04868616 0.027591797 -0.18023054
0.17005776 0.15989493 0.09773662 -0.15573987 -0.14801568 0.17387669 -0.19066764 0.030698068
-0.04392244 0.19368696 -0.22492196 -0.10830278 -0.066111825 -0.075970836 -0.18660693 -0.09763996
-0.1485964 0.19976722 -0.14321077 0.0068863607 -0.24918956 -0.12964354 0.19141352 -0.20835632
-0.043614175 -0.11680662 -0.023707807 -0.012085169 -0.06820045 -0.11818586 0.09858326 -0.033884242
0.06264352 -0.20737213 -0.043346863 -0.09209016 0.11511185 -0.024406495 -0.13850413 -0.23683332
0.019408247 -0.13899139 -0.21002707 -0.16020632 0.24064349 -0.13554907 -0.08115336 -0.22251326
-0.19391185 -0.1367408 -0.24891448 0.06909347 -0.03791562 0.10406974 -0.08369274 -0.12693074
-0.03272805 0.17436935 0.14370184 -0.06387563 0.05010721 -0.07244904 0.006142987 0.18677865
0.14076847 -0.008482786 0.073164016 0.06145903 -0.14691168 -0.05397413 0.21266828 0.08404148
-0.004692988 0.2371998 -0.0710751 -0.122702256 -0.1119471 0.14718254 0.07750078 0.15966913
0.15338464 -0.10052306 -0.037676845 -0.18279514 0.1426939 0.1669325 -0.17590745 -0.14877321
0.030396234 0.018788371 0.12653744 0.11158232 -0.20827377 0.032256484 -0.010396227 0.14826863
0.21712679 0.18213446 0.14740905 -0.1498106 -0.14547686 -0.17189254 0.23787235 -0.21887536
0.14028664 0.20772254 -0.24833448 0.028276559 -0.14730339 0.054242708 0.062791176 -0.11032136

conv1.0.bias f4 [32]
00000000: cbf1 3e3d e925 40be 9f4a 43be 73e0 66be
00000010: 1d17 6ebe 05d3 03be 8fdd abbd e4c8 e53d
00000020: ff8d 33be e126 c83c 8073 5d3e 8add 76bd
00000030: 6eb1 0dbe bf60 5a3e 01be e7bd 074c d3bb
00000040: a197 39be 182d e9bd 5884 23bd 8732 1dbe
00000050: 4ac5 f8bc 3f8a 0b3e bc6c 793e 4dc4 46b9
00000060: 3dc4 c1bc b8a3 14be e0ff bebd fc3c 3dbd
00000070: 329d 423e 31be 563e d65f 2d3e e27e 6a3e
0.04661731 -0.18764462 -0.19071434 -0.22546558 -0.23251005 -0.12873466 -0.08391868 0.112199575
-0.17534636 0.024432601 0.21626091 -0.06026987 -0.13837215 0.21325968 -0.11315537 -0.006448272
-0.18124248 -0.11385554 -0.039921135 -0.15351306 -0.030367512 0.13626955 0.24357885 -0.00018955879
-0.023653144 -0.14515579 -0.09326148 -0.046200737 0.19005278 0.2097099 0.1693109 0.22899964

conv2.0.weight f4 [64, 32, 4, 4]
00000000: 2074 0a3d 1cf9 063d 70ab 2a3d 8492 f5bc
00000010: 9e24 043c 1bb0 833c b8ef 223d db57 6a3c
00000020: df3e 323b 27ea 583c b411 363d 95ca 7c3b
00000030: 2343 9c3c 22a0 0cbd 54e0 273c f9a9 083d
00000040: 3e94 0dbd bced 15bd 275f 26bd 22b7 b6bc
00000050: aa27 01bd d10e 223d 8173 8f3c cc3d e23c
00000060: 641e bdbc 7bf5 e5bc 6aee b3bc b18d f73b
00000070: 72df 17bd 6ebe 983c b469 9fba 8f11 b5bc
00000080: 34fe 18bd 2ad2 61bb 5043 22bd 9131 26bd
00000090: ac38 e6bc 5645 bcbc c0df 26bd 8664 28bd
000000a0: 785a 013d ab68 7b3c 8af8 ea3c 4fc3 97bc
000000b0: ff75 04bd c0d4 9e3b df8e 103d d1ec babc
000000c0: 2958 74bc 19f1 923c 576e 8d3c b351 fb3c
000000d0: d523 903c e43b 83bc d896 c1bc 796a 99bc
000000e0: 7471 0b3d 83f0 0e3d 0559 ebbc af0b 163b
000000f0: 171a 0dbd 8f79 92bc 29b3 7d3c 5ab3 b73c
00000100: 7783 d23c a653 493c ef04 2eba e44d d2bc
00000110: 6585 c93c fa73 ed3b 85d2 ddbc 9bb4 dc3c
00000120: ced6 043d 25ca 5e3c 1be9 873a 1e23 40bc
00000130: be86 1cbd b279 1b3c 996f ab3c 46bf ab3c
00000140: aa23 40bc 98c6 0a3d d1f0 1bbc d411 b93c
00000150: 7e0d 4cba 5f8b 34bc 0767 643c c375 143d
00000160: 67eb 1a3d dec1 80bc 472c c9bc e61e 39bc
00000170: d425 1f3d dd5a e8bc d2de 05bc bc6f 1dbd
00000180: 4d7f 4c3c 4db5 e03c a3c0 f4bc 1eab 303d
00000190: 1b2b 8cbc 3c64 313d ff35 e33c 7749 a4bc
000001a0: 7be6 85bc bb64 bcbc 54fd 813c ec67 0cbd
000001b0: 1521 b0bb e71a 4d3c 6b7b 77bc 8c51 95ba
000001c0: 4b26 2abd 2f1d fb3b 7149 963c b171 af3b
000001d0: d0f9 323d d270 4a3c 2a3d 30bd 58d8 2bbc
000001e0: 8126 9dbc f7c2 e5bc ef45 e3bc b422 88bb
000001f0: 3fd5 52bc 2414 cabb d26f 033c a09d c63c
00000200: 0d5b e73b 39ab e2bc 54ba e0bc 2ae3 1c3d
00000210: d7f9 06bd 8069 ee3c e9f0 1e3b 9f7d 45bc
00000220: 5942 31bd 7e5b dd3c 7c61 ccbc 99f2 3abc
00000230: 189a 0f3d 80d5 763c 0cbd 8bbc 6cc4 46bc
00000240: eecd 9abc e213 2e3d b51d 083d d5b3 dfbc
00000250: 20b0 803a 7fb7 54bc f845 233d 409e 62bc
00000260: 35eb 2b3d 5622 2fbd e2c7 fbbc fcdb c3b9
00000270: 4096 00bd fa1d ea3c 83fe 9fbc 4003 90bc
00000280: ac97 853c b6d0 2abd c920 e33c 6f08 343d
00000290: f6ac 70bc cb06 e6bc 8ed0 ffbb bb41 1abd
000002a0: 738f 8abc 3cc3 c9bc 8d7f f0bc 3cdc 0d3d
000002b0: 6d3c 093d 2c4c fbbc 9657 cb3c bf8f 8d3c
000002c0: a10a 1f3d 260e a0bc 6db5 31bd dbfa 1fbd
000002d0: b381 073d 515d fe3c a5d0 e4bb 7015 a23c
000002e0: 2010 143d 2883 6bbc 981f 1a3d 328f f7bc
000002f0: 7b64 a43b c7f2 953c 46c1 f93c fe00 b13c
00000300: 0f13 053c 3021 ca3c 78a9 1abd 5f2c 313d
00000310: cc55 bbbc 35d3 a23c 795b 143c 377a 013d
00000320: d88a bdbc 85f7 46ba 544e 033c af3f 903c
00000330: 6e38 f3ba bb0e 73bc 9173 c3bc 19aa 3ebc
00000340: f77f 7a3c 6374 0c3d d447 1fbd 9b19 ca3c
00000350: 826f bc3c 9b35 343d b319 5abc 14bf 41bc
00000360: 10bd a73c a712 9ebc d5cb 2dbc 3c76 123d
00000370: 9ab4 0abd 20a2 a6bc 9648 fe3c c2f0 98bc
00000380: 7fc6 b53c 4cf6 abba 70d2 4d3b 896b 7abc
00000390: c8b3 f2bb 8557 0b3a 48a1 f43b 751a c83c
000003a0: 932b 53bb 30b3 1bbd e5ab e5bc d8e4 15bd
000003b0: 1783 e33a e33f 07bc 85f1 d73c 3aea 883b
000003c0: 490d 7c3c 1b92 f63c 0f13 2cba 3f41 23bd
000003d0: c760 45ba eb8a 273d d091 8fbc 93c1 89bc
000003e0: 2e9b ed3c 19cf b73c 156d 08bd d636 0b3b
000003f0: 2ca4 34bd 046d 9ebc cb92 dc3c ff35 fd3c
0.03380215 0.032952413 0.0416674 -0.02997709 0.008065371 0.016075185 0.039779395 0.014303173
0.0027198119 0.01323942 0.044450477 0.0038572897 0.019074982 -0.034332402 0.010246355 0.033365224
-0.034565203 -0.036603674 -0.040618088 -0.022304121 -0.031531967 0.03956491 0.017511131 0.027617358
-0.02308578 -0.028071156 -0.02196427 0.0075547327 -0.03707833 0.018645491 -0.0012162239 -0.0221031
-0.037351802 -0.0034457543 -0.039614975 -0.040574614 -0.028103195 -0.02298228 -0.04074073 -0.04111149
0.03158042 0.015344779 0.028682966 -0.018525748 -0.032339092 0.004847139 0.035292502 -0.022818001
-0.014913597 0.01793723 0.017264528 0.030678606 0.017595211 -0.016019769 -0.023631498 -0.018727528
0.034043744 0.03489734 -0.028728971 0.0022895148 -0.03444871 -0.01788023 0.01548461 0.022424389
0.025697453 0.01228801 -0.00066383084 -0.025671907 0.02459974 0.0072464915 -0.027077923 0.026941588
0.032431416 0.013598 0.0010369153 -0.011727123 -0.038214438 0.009489464 0.020927237 0.02096523
-0.011727253 0.0338808 -0.009517864 0.022591509 -0.0007783993 -0.011019557 0.013940579 0.03624512
0.037822153 -0.015717443 -0.024557246 -0.011298871 0.038854435 -0.02836364 -0.0081708 -0.038436636
0.012481523 0.027430201 -0.029877013 0.04313194 -0.017110398 0.04330848 0.027735708 -0.020054562
-0.016345253 -0.02299725 0.015867867 -0.034278795 -0.0053750374 0.012518621 -0.015105109 -0.0011392101
-0.041540425 0.007663391 0.018345566 0.0053541292 0.04369527 0.012356 -0.04302708 -0.010488592
-0.0191834 -0.028047068 -0.027743308 -0.0041545276 -0.012868225 -0.0061669517 0.0080222655 0.024245083
0.0070604146 -0.027669536 -0.027432598 0.038302578 -0.03295311 0.02910304 0.002425248 -0.012053876
-0.043276165 0.027021166 -0.024948828 -0.011410379 0.035059065 0.015065551 -0.017057918 -0.012131792
-0.018897023 0.04249943 0.033231456 -0.02730743 0.0009818114 -0.012983202 0.03986165 -0.013831675
0.041972358 -0.042757355 -0.03073496 -0.000373572 -0.03139329 0.028578747 -0.01953054 -0.017579675
0.016307674 -0.04170295 0.027725594 0.043953355 -0.014689675 -0.028079411 -0.007806844 -0.03766034
-0.016914105 -0.024629228 -0.029357696 0.03463386 0.033504892 -0.03067597 0.024822038 0.017280458
0.038828496 -0.019537997 -0.04338591 -0.039057594 0.033082675 0.031050356 -0.00698288 0.019785613
0.03614819 -0.014374532 0.037627786 -0.030219648 0.005016861 0.018304242 0.030487668 0.021606918
0.00812222 0.024674028 -0.037759274 0.043255206 -0.02286806 0.019876102 0.009055012 0.031610694
-0.023137495 -0.0007589984 0.00801428 0.017608492 -0.0018556246 -0.014835055 -0.023858817 -0.011637234
0.015289298 0.034290683 -0.03888686 0.024670413 0.02300239 0.043996435 -0.013311791 -0.011825342
0.020475894 -0.019296004 -0.010607679 0.03575729 -0.03386364 -0.02034098 0.031040471 -0.01866949
0.022189377 -0.0013119667 0.0031405948 -0.015284427 -0.0074066855 0.00053154706 0.0074655153 0.024426678
-0.0032222017 -0.038012683 -0.028036067 -0.036595196 0.0017357793 -0.008254978 0.026360283 0.0041783126
0.015384027 0.030098965 -0.0006564119 -0.039857145 -0.00075293746 0.040903967 -0.017525584 -0.016815936
0.02900466 0.022437619 -0.033307154 0.0021242402 -0.04410188 -0.019339092 0.026925465 0.030909536

conv2.0.bias f4 [64]
00000000: b3ba 86bb 1bc4 adbc 37d7 e2bc 5c24 bb39
00000010: 8a13 a6bc d508 083d ba54 1c3d f544 95bc
00000020: 71bf 243d ad14 093c 0eed dcbc 09d9 173d
00000030: dc0b 12bd 61a6 dcbc 8c4a 1a3d 9cf8 f2bc
00000040: 20d8 7f3c 7541 983c c8fe 0b3d bdba 2fbd
00000050: 32de 2cbd 63a4 27bd 9b91 183b e438 ee3c
00000060: 9cb7 7fbc 4aa2 fb3b e8c6 5dbc cbc2 703c
00000070: f09c 193d c81f 303d ab69 313d 1f9b 46bc
00000080: f662 8dbc 8d51 153d 8eb6 7fbc c296 4cbc
00000090: 8af0 7ebc 86eb ea3c 3678 e9bc 883e b639
000000a0: fabb a03c 274e 35bc 4789 37bc 335d 94bc
000000b0: 1395 1abd f043 ba3c ced9 ff3c d280 cc3b
000000c0: c48f 803c aa0e 0b3d 8635 253d e5c0 73bc
000000d0: 1fe6 063d eaac 193d 8df1 2b3c 537b 8a3c
000000e0: fe60 9abc f96c 783c 38b1 01bd 519d 103d
000000f0: a573 da3c 9097 203d 1814 7c3c 8353 0cbd
-0.0041116117 -0.021211674 -0.027690513 0.0003569451 -0.020272989 0.033211548 0.03816674 -0.018221358
0.040221635 0.008366746 -0.026968505 0.037072215 -0.03565584 -0.026934804 0.03766875 -0.029659562
0.015615493 0.0185859 0.034178525 -0.042902697 -0.04220409 -0.040928256 0.0023280147 0.029079862
-0.015607741 0.0076792585 -0.0135361925 0.01469488 0.037503183 0.04299906 0.043313663 -0.012121945
-0.017259102 0.036454726 -0.015607489 -0.012487115 -0.015560279 0.02867676 -0.028499704 0.00034760335
0.019620884 -0.011065996 -0.011202163 -0.018110847 -0.037739825 0.022737473 0.031231787 0.0062409425
0.015693553 0.03394953 0.040334247 -0.014877533 0.032934304 0.03751842 0.010494602 0.016904509
-0.018845078 0.0151627 -0.03166315 0.03530628 0.026666472 0.03920704 0.01538565 -0.03425933

conv3.0.weight f4 [64, 64, 3, 3]
00000000: e489 dbbc e691 043c 9f5e 113d 511f 55ba
00000010: 980d f7bb b5dc ba3c 2eca dc3c db69 833a
00000020: f983 5c3b 0432 953c d78a 0b3d 8ebe 2c3c
00000030: 5e63 74bc 6f57 173d f8c6 0cbd d300 00bd
00000040: fff8 37bc 345b debc 3a8c 93bb 748d 18bd
00000050: bf41 c73b b17f 68bc 3a99 b33b 7503 923c
00000060: cff2 ffbb 061b a33c 2465 66bc db51 0a3c
00000070: e806 8c3c bb66 0ebc 3073 41bc 5e6f 9aba
00000080: b113 68bc 9494 e43c 81c8 34bc d7ea 33bc
00000090: cc73 f63c 2f9f 093d 7989 86bc b9e6 11bd
000000a0: 8c28 a73b b6bc debc 6832 26bc 01c9 12bd
000000b0: 134d ae3c 1513 fcbb 738a 26bb 0386 bd3b
000000c0: ef9a 1d3d 475b c43c 2544 dbbc fc69 903c
000000d0: ab12 11bd 4c46 da3c f69d d6bc 1773 b63c
000000e0: 3152 22bd bcea 0cbc bf0e 28bd 28ee 9cbc
000000f0: f863 3c3b 1cfa 87bb a9d8 443c b161 0dbd
00000100: ecee d63c 16d7 25bd 65c7 163c 0d24 0b3c
00000110: 70ba 7c3c dfe8 003c b817 8f3b be95 d5bc
00000120: 977f b73b 3bb1 e03c bdc3 9bbc 707a 21bd
00000130: 8df0 c53c fffb 2cbc 056e 033d 00b0 d3bc
00000140: fac4 a4bc 72ac c7bc 0390 e6bc 4ed5 0b3d
00000150: ec5d 9a3c 3222 d2bc 4466 253d 8db5 0a3d
00000160: e069 0d3d 5ecd 3d3c 0b30 81bc 6561 b33c
00000170: b0d2 7d38 028e 1b3d e35f 023d 769f 4bbc
00000180: 7cc8 afbc 87ef 803c b2c7 1e3c 6e83 9e39
00000190: e66d 96bc 5af3 a13c 6eff bb3c 636e b03c
000001a0: 9c97 793c e320 27bd 0129 ebbc b5ca fb3c
000001b0: f836 12bd d616 3f3c 1e93 833c 429a 233c
000001c0: 29fb e7bc a9b3 d73b 5906 213d 568f 9fbc
000001d0: 66ca 0cbd 48cc a6bb ad08 debc caa1 1bbb
000001e0: 81c4 c13c fb8b 203d 427f 9a3c bf1f e5bc
000001f0: 299e 9d3c 9dff a53c 471b 9e3c 199e 273d
00000200: efe8 53bc 54e3 fe3c 6aef 36bc d2f9 823c
00000210: da4b e43b 1f99 d8ba 9ce4 f43c 5550 0bbd
00000220: e653 d6bc 339e 00bd f678 5abb 4707 8fbb
00000230: 9a22 8abc 3c6f c6bc 786e 1abd 2d17 843c
00000240: 332e 3abc e10c 94bc a316 6d3c e177 28bc
00000250: fa46 9c3b 274a f2bc 8595 743c c0ae c7bc
00000260: 981f af3b b213 8b3c 2986 90bc 6443 063d
00000270: 86c3 d339 b856 b6bc d200 293d de32 59bb
00000280: 1377 073d 7191 9ebc c65e 02bd e072 bd3b
00000290: 800d ac3b baf8 b0bc c64d 72bc eacf 7bbc
000002a0: 7930 a23c 136b 1d3a b6fb fc3c 665d fabc
000002b0: b3c0 64bc e692 29bd 75e5 f6bc f973 683c
000002c0: ca33 90bc 20cf 9bba 5102 1c3d 61db 9b3c
000002d0: a255 15bc 8910 013d 4db1 863c 0606 32bc
000002e0: c85a 613c 2b3e cdbc 315a 20bd c662 abbb
000002f0: 6a0b 8abb 4ae6 473c 829f ff3c 3bb4 0e3d
00000300: f161 3cbc 2ac0 883c 5b3f 30bc 46e5 c7bc
00000310: c6db 2abc f0be b83a f1aa b03c fa6f 83bc
00000320: 1b14 cd3b f6bd dcbc 61a3 243d 35dc 093d
00000330: e8bb dc3c 226c d33a 17ed 1b3a 8679 b63b
00000340: 2fae 143d 6c81 253d 1986 1a3d d332 b83c
00000350: 0ea0 003d 8c4d e2bc b297 1bbc 8991 d9bc
00000360: 212e 133d b0f9 1fbd 5ba7 14bc 5657 a0bc
00000370: 9b4c 1c3d 8295 83bc 6b8e 27bd 99b9 8fbc
00000380: 0982 463b efb1 433b da9e 8f3c 6ea0 f23b
00000390: c71d 12bd 872d 19bd 9725 6d3c 67cb bf3c
000003a0: b934 18bd e6a1 233b 8408 b5bc 6e01 c4bc
000003b0: d7de 0e3d 50c5 23bd 0bf2 a3bc a032 7f3c
000003c0: 7256 57bb 46fd 633c 93b0 4b3c 2f39 01bd
000003d0: 74e6 0b3d 530a cfbc 1f05 a43c 1377 c4bb
000003e0: 8fa1 b33c 2cac 193c a32e f93c 1ba3 c1bc
000003f0: 33ee 0abd dbc0 e73c e22c 59bb 6b4f 36bc
-0.02679915 0.0080914255 0.03549063 -0.00081299717 -0.0075394623 0.02281032 0.026951876 0.0010026054
0.0033647998 0.018212326 0.034067955 0.010543479 -0.014916269 0.036948618 -0.03436944 -0.031250786
-0.011228799 -0.027143098 -0.0045028003 -0.037244275 0.0060808356 -0.0141906 0.0054809125 0.017823914
-0.0078109275 0.019910347 -0.0140622 0.008442367 0.017093137 -0.008691485 -0.011807248 -0.0011782458
-0.014164851 0.027902879 -0.011034132 -0.010981283 0.030084513 0.033599075 -0.016422974 -0.035620425
0.005101269 -0.027189594 -0.010143854 -0.035836224 0.021276986 -0.0076927044 -0.0025412112 0.0057837977
0.038477834 0.023969306 -0.026765892 0.017628662 -0.035418194 0.026644848 -0.026198369 0.022271676
-0.039629165 -0.008600887 -0.041029688 -0.01915653 0.002874611 -0.0041496884 0.012014546 -0.034516994
0.026236974 -0.040488325 0.009202813 0.008492482 0.01542531 0.007868021 0.004366841 -0.02607238
0.0055999267 0.02742826 -0.019014234 -0.039423406 0.024162555 -0.010558127 0.032087345 -0.02584076
-0.020113457 -0.02437422 -0.028144842 0.03413897 0.018843614 -0.025651071 0.04038073 0.033864547
0.0345248 0.011584608 -0.015769979 0.021897027 6.051612e-05 0.037977226 0.031829726 -0.012428155
-0.021457903 0.015739216 0.009691166 0.0003023403 -0.01836295 0.01976936 0.022948947 0.021537011
0.0152339 -0.040802848 -0.028706076 0.030736307 -0.035696954 0.011663159 0.016061362 0.009985508
-0.028318005 0.0065826965 0.039312694 -0.019477528 -0.03437271 -0.00509027 -0.027103746 -0.0023747557
0.02365327 0.039195996 0.01885951 -0.02796924 0.019240456 0.020263487 0.019300116 0.040922258
-0.012933954 0.031114258 -0.011165479 0.015988264 0.00696705 -0.0016525126 0.029894166 -0.034012157
-0.026163053 -0.03140087 -0.0033336258 -0.004364881 -0.016862202 -0.024222963 -0.037703007 0.016124332
-0.011363554 -0.018072547 0.014470729 -0.010282488 0.0047692033 -0.029576374 0.014928226 -0.02437532
0.0053443424 0.016977165 -0.017642098 0.032779112 0.00040390732 -0.022258148 0.041260548 -0.0033141891
0.033072542 -0.019356461 -0.031828664 0.0057815164 0.0052506328 -0.021602977 -0.01478905 -0.015369395
0.019798504 0.000600503 0.030881744 -0.030562114 -0.013961959 -0.04139986 -0.03013871 0.014187806
-0.01760282 -0.001188729 0.038088147 0.019025506 -0.009114655 0.03150991 0.016441965 -0.010865694
0.013754554 -0.025054058 -0.039148513 -0.0052302806 -0.0042127864 0.012200901 0.031203989 0.03483985
-0.01149796 0.016693193 -0.010757293 -0.024401318 -0.010428375 0.001409499 0.021565886 -0.016044606
0.0062585003 -0.02694605 0.040194873 0.03365727 0.02694507 0.0016130249 0.000594811 0.005568686
0.036298927 0.04040663 0.03772554 0.022485172 0.03140264 -0.027624868 -0.009496616 -0.026558654
0.035932664 -0.03905648 -0.009073104 -0.019572895 0.038158994 -0.016062502 -0.040907305 -0.017544555
0.003028991 0.0029860695 0.017531801 0.0074043786 -0.03567293 -0.037396934 0.014474294 0.02341242
-0.037159655 0.0024968325 -0.022098787 -0.023926463 0.034880485 -0.039983094 -0.020012876 0.015576035
-0.0032857922 0.013915366 0.012432235 -0.031548675 0.034155324 -0.025273478 0.020021973 -0.00599564
0.021927623 0.009379428 0.030417746 -0.023637345 -0.03391857 0.028290203 -0.0033138325 -0.011127333

conv3.0.bias f4 [64]
00000000: a7f6 1c3d 5b10 c33b 63b4 3fbc 385c 303c
00000010: 534d e6bc 1b80 bd3c f6e5 c4bc 0962 5ebc
00000020: 856f 153d 75e1 5bbc d905 fabc e794 073d
00000030: 7dc1 1a3c 2553 08bd 4ce4 a23b 2f44 bbba
00000040: 7947 df3b 191f e43c 4b04 183c 63d2 00bd
00000050: 4728 0d3d 09d8 0fbd be21 1d3d de46 25bd
00000060: 7693 0c3d d7ab a83c 2a5f 94bc c32c fe3c
00000070: 4111 293b 4a5c 0a3d d15e 5e3c 30d7 1e3c
00000080: 7351 7fbc 8785 63bc 5c7c 203d 3ec1 1d3d
00000090: 133c edbc 227a 8c3c 6dd2 2fbc 20ab d9bc
000000a0: 06f2 e03b 606e 283d 1cdd f5bc e8b6 bfbc
000000b0: c234 90bc b1ee cebc b42b 6bbc f8d2 e23b
000000c0: daf0 2838 d3d0 a03c 9bc4 10bd 3b5d 2c3d
000000d0: f359 fa3c 407d 153d 662f f8ba 0ef9 bfbc
000000e0: 1e13 f03c b866 f9bc fa08 95bc 0c23 18bb
000000f0: 63ec 7c3c 7542 ccbc 4488 923b afe7 dcbc
0.038321164 0.0059528775 -0.011700722 0.010764174 -0.028113043 0.023132375 -0.024035435 -0.013573178
0.036483306 -0.013420452 -0.030520367 0.03310099 0.009445545 -0.033282418 0.0049710628 -0.0014287288
0.00681394 0.02784686 0.009278367 -0.03145064 0.03446224 -0.035118137 0.038362257 -0.040350787
0.034320317 0.020589752 -0.018111784 0.031027203 0.0025797638 0.03377942 0.013572411 0.009694859
-0.015583384 -0.013886816 0.0391811 0.03851437 -0.02895931 0.017148081 -0.010731322 -0.026570857
0.006864789 0.041120887 -0.03001266 -0.023402646 -0.017603282 -0.025260301 -0.014353681 0.006922122
4.027863e-05 0.019630825 -0.035343748 0.0420811 0.03056047 0.0364964 -0.0018935024 -0.023434188
0.02930599 -0.030444488 -0.018192757 -0.002321425 0.015437218 -0.024934033 0.0044718105 -0.026965944

fc1.0.weight f4 [80, 970]
00000000: d9ef 6ebc 3a17 b3bc d6d3 45bc cc49 c03c
00000010: 9e46 983c 6d24 823c 2e28 6b3b 1988 2d3c
00000020: 0207 b83c ea02 db3c 849d 54bb fff3 95bc
00000030: 07b8 133c f6ec 88bc 694c eb3b 32c6 a338
00000040: 9d4b 873c cc98 83bc 02fa aa3b 663f e5ba
00000050: aa39 763c 6982 b83c 1dad c13c 711e 82bc
00000060: aaa4 563a 6f2c 62bc 7c43 02bd 64e4 b93c
00000070: b485 e73c 4a92 003d 0610 243c 0882 37bc
00000080: 9610 e03b e3b3 10bc 61b4 ff3c ab74 d8bc
00000090: cd52 92bc 54c1 ff3c 6f63 993c 9b75 803c
000000a0: 68c9 b13b bce8 7fba eac2 ad3c e00c 06bc
000000b0: b84d 8d3c a249 02bc a2ac e53a c935 c33c
000000c0: f06e d5bb f82f debc 4904 9cbc 47e3 a7bc
000000d0: d108 4e3c 2f2e 87bc 1470 94bc be04 633b
000000e0: 25cc 033d e742 b5bc 6df4 bf3c b87c 97bb
000000f0: fe7e f23c 8302 ddbc 942b 9e3c 5355 e0bc
00000100: 102e de3c f709 c83c bdaa d93c 5a8a c73c
00000110: 1139 1d3c f555 dc3c 88c1 9abc d9d1 c03b
00000120: 01d5 6dbc c081 073c 76f1 ff3b cc88 e0b9
00000130: 7879 3ebc 9839 00bd f37e 02bd e7b6 6dbc
00000140: 1c17 193c 8465 a1bb 126f 8a3c 4183 173c
00000150: af80 9a3c ebe8 84bc 6abd b43c e178 c73b
00000160: 57b1 00bd 416f 9dbc 2ba6 d13c 6cd1 91bc
00000170: 56ac 273c 16a4 693c 31c6 083c c315 f83c
00000180: 8846 dcbb 53dc e4bc b2c9 f9bc 5e3c dcbc
00000190: ba8c 1abc f440 d9bc 41f5 fe3c c54a 11bc
000001a0: 2eb4 743c 1c79 d1bc a61b 4a3c fad1 cfbb
000001b0: 2eb1 61bc 55e8 ab3c 2745 0d39 b3a2 b03c
000001c0: 9f58 d4bc 461f c33b 9c17 a63c 89d9 b1bc
000001d0: 37ff 59bc a224 28bc 71d3 12bc 8dd7 cbbb
000001e0: 032e 2c3c c114 173c e311 463c 845b 9cbb
000001f0: b238 81bc f18a 913c e841 dd3b 4d21 bfbc
00000200: 5af9 a53c 93bd fb3c 8ce6 bf3b fef0 99bc
00000210: 099b 69bc 17ac a7bc 39e0 00bc 204c 9fbc
00000220: 4812 91bc c840 c2bc 8af4 5ebc d969 d63c
00000230: 7842 60bc 32ec 83bc 0c5b 2f3c cc3b c63c
00000240: 37c9 643c 39cc d8bb 9675 3d3c 4450 94bc
00000250: 68b3 cc3b 7f25 2e39 ea44 23ba 62e2 823c
00000260: 2b00 b53c 020a 73bb c425 a4bc 0bf8 50bc
00000270: ce35 d43c 64df b43c 836e 633b 2a96 e93c
00000280: a17e 503c 913e c9bc cdbd a6ba aa5b 5dbc
00000290: 45d1 8cbc 9d50 c3bb 4ccf 243b 0a41 f43c
000002a0: 16cd 143c cee6 acbc 2f36 8b3c 3e1b 663c
000002b0: 9197 babb a816 2c3c 056e 96ba 1f9f 333c
000002c0: 5aaf e4bc 671f 1f3b 4dac f1bb b25a d1bc
000002d0: 8094 edbc c730 c73c 997c b6bc 4d22 cfbb
000002e0: 5cce d2bc f514 3b3c bdec f9bc 618b a2bc
000002f0: 3575 5abc a24d b1bc 5e0b 063b 77b8 d83c
00000300: 7d9e 8a3a 0322 9d3c b889 013d 7e4a e1bb
00000310: c644 bb3b 5a5c d9bc dd0e 143a 37f0 36bc
00000320: 9541 e4bc 6ee0 e73c 9b7e e7bc 42f5 a9bc
00000330: 7e48 64bc b3b2 913a 51c7 64bc 896c 9ebc
00000340: bd57 95bc 44f4 ef3a d5bd d3bc c824 543b
00000350: e2f0 3b3c 0319 503c 17d6 fdba d5ec 9c3c
00000360: 0e66 d6bc ab3f af3c cf47 5f3c 1bf0 143b
00000370: bf30 9d3c 0e92 e23b 9639 03bc 4d7d 30bc
00000380: 47b3 863c cc90 013c 516a 143c 010c a33c
00000390: 2f4d 4dbc a5c4 b93c 3ad4 27bc 8917 13bb
000003a0: 9453 cfbc 7bb7 a2bc 0880 e03c c659 dcbc
000003b0: da73 85bc 1e1d 783c 41a5 9d3c fe62 db3c
000003c0: 4cf1 cdbb 924b f13c 26c3 c33c b369 c43c
000003d0: 6b13 45bc 7c71 d4bc e1a0 2f3c 049f 11bc
000003e0: a592 f93c 9c5c ba3c 4dc1 25bb 3b6c 933b
000003f0: 5dfc c43c 2a64 a139 bf53 823c a74e 25bb
-0.014583551 -0.021861661 -0.012074431 0.02347269 0.01858836 0.01588651 0.0035882103 0.01059153
0.02246428 0.026734788 -0.003244252 -0.018304823 0.0090160435 -0.016714554 0.0071807397 7.8093624e-05
0.016515547 -0.01606407 0.0052177915 -0.0017490208 0.015028397 0.022523122 0.023642117 -0.015883656
0.0008187989 -0.013804539 -0.03180264 0.022691913 0.028261997 0.031389512 0.010013586 -0.011200435
0.0068379147 -0.008831951 0.031213941 -0.02642282 -0.017861748 0.031220116 0.018724171 0.015681079
0.005425621 -0.0009762158 0.021211106 -0.008181781 0.017248973 -0.007952126 0.0017522762 0.023829358
-0.006513469 -0.027122483 -0.019045012 -0.020494116 0.012575344 -0.016501514 -0.01811985 0.0034640278
0.03217711 -0.022126628 0.023431981 -0.004623022 0.02960157 -0.026978737 0.019307889 -0.027384436
0.027121574 0.024418814 0.026570672 0.024357963 0.009596125 0.026896456 -0.018891111 0.005884391
-0.014516116 0.008270681 0.007810767 -0.0004282653 -0.01162564 -0.031304926 -0.03185935 -0.014508939
0.009343889 -0.0049254317 0.016898666 0.009247602 0.01886019 -0.016224345 0.022062976 0.006087408
-0.031419124 -0.019218089 0.02559193 -0.017800055 0.010233959 0.014260313 0.008348034 0.030283814
-0.006722275 -0.02793709 -0.030491684 -0.026884254 -0.009432966 -0.02652023 0.031122806 -0.008867924
0.014935536 -0.025570445 0.012335693 -0.00634217 -0.013775153 0.020984808 0.00013472569 0.021561956
-0.025921164 0.005954656 0.02027493 -0.021710174 -0.013305477 -0.01026264 -0.008961544 -0.006220764
0.010509017 0.009221257 0.012089225 -0.0047716517 -0.015774105 0.017766448 0.0067522414 -0.023331309
0.020260502 0.030730044 0.0058563408 -0.018791672 -0.014258155 -0.020467801 -0.007865959 -0.019445479
-0.017708912 -0.02371253 -0.013608107 0.026173519 -0.013687722 -0.016103838 0.01070286 0.024198435
0.013963989 -0.006616142 0.011563679 -0.01810468 0.006246973 0.00016607901 -0.00062282255 0.015977088
0.022094807 -0.0037084823 -0.02003754 -0.012754451 0.025904562 0.022079177 0.0034703321 0.028513987
0.012725503 -0.024565967 -0.001272136 -0.013510624 -0.017189631 -0.0059605376 0.0025147973 0.02981617
0.009082099 -0.02110615 0.01699361 0.014044581 -0.0056943377 0.010503449 -0.001147688 0.01096323
-0.027915645 0.0024280192 -0.007375276 -0.025555942 -0.029001474 0.024315251 -0.02227621 -0.0063212276
-0.025733165 0.011418571 -0.030508393 -0.019841852 -0.013333608 -0.021643464 0.0020453553 0.026455147
0.0010575798 0.019181257 0.03162548 -0.0068753352 0.0057149855 -0.026533294 0.0005647967 -0.01116567
-0.027863303 0.028305259 -0.028258612 -0.02074683 -0.013933299 0.0011115879 -0.013963536 -0.019338863
-0.018230313 0.001830705 -0.025847355 0.0032370556 0.011471005 0.012701276 -0.0019366172 0.019155899
-0.02617171 0.021392664 0.01362796 0.0022726122 0.019188283 0.0069143837 -0.008009335 -0.0107720615
0.016442908 0.007908057 0.009058551 0.019903185 -0.012530609 0.022676775 -0.01024347 -0.0022444448
-0.025308408 -0.01986288 0.0274048 -0.026898276 -0.016290594 0.015143661 0.019243838 0.026780602
-0.0062848683 0.02945498 0.023896765 0.023976183 -0.012028555 -0.02593302 0.010719509 -0.00888801
0.030465433 0.022749238 -0.0025292218 0.004498986 0.024046117 0.0003078294 0.015909074 -0.0025223882

fc1.0.bias f4 [80]
00000000: 9755 f93c 8ea7 bb3c e758 d6bc 0bb8 5f3c
00000010: c673 193c 0a86 a3bc e2fd b6bc 7fbe b7bc
00000020: 0785 f1bc 09ae b1bc eff4 40bc cbd4 44bc
00000030: 3ce1 a1bc 9c66 f13c 8ff5 213c a2cf 813b
00000040: a0dd 01bd 8a6e 54bc b36b 3ebc ff58 68bc
00000050: 604c b5bc 8dd8 943b e1d7 5fbc 1fc5 d13b
00000060: c915 70bc a0f6 173b b1a3 de3c cc8c 9a39
00000070: 7d10 9a3b 1691 e3bb fd07 f5bb 9ea6 74bc
00000080: fa22 e6bc b256 eebc 3324 05bd 784e f3bc
00000090: 6180 ff3c 62f1 99bc 6475 213c 5c8a 95bc
000000a0: 4986 f0bc 6af5 fdbb 7187 dabb eab8 49bc
000000b0: d702 98bb 637e f73b ae8c 7f3c 69bf 7f3b
000000c0: 38e0 093c ec09 833c 733a 573c 72e5 6d3c
000000d0: 4919 f33c 75c0 8639 b0df 94bc 219b ddbb
000000e0: b2d8 f7bc e1cb ac3c 5ed7 04bd 84de 03bd
000000f0: 83ca b4bc aa37 38bc 0434 df3c fb0f 583c
00000100: 8f8d a7bb ef2a c13c 32f2 72bc 7ebc 343c
00000110: 27e6 82bc 7f47 32bc 15e0 abbc acad 033c
00000120: 3acc d33c f6a9 1b3c d40f 953b 522c 67bc
00000130: 6b47 b73c bad6 673c f6eb b93a 4c3a c03b
0.03043632 0.022907045 -0.026165439 0.013654719 0.009365981 -0.019961376 -0.022337858 -0.022429703
-0.029482378 -0.021689432 -0.011777147 -0.012013624 -0.01976072 0.029467873 0.009885206 0.0039615193
-0.0317055 -0.012965808 -0.011622357 -0.014181375 -0.022131145 0.0045424164 -0.013662309 0.0064016725
-0.0146536315 0.0023187771 0.027177664 0.0002947807 0.0047016726 -0.006944786 -0.007477759 -0.014932303
-0.02809285 -0.029094074 -0.032505225 -0.029700503 0.031189146 -0.018791858 0.009854648 -0.018254451
-0.029360907 -0.007750203 -0.006668978 -0.012312153 -0.0046390104 0.0075529083 0.0155975055 0.0039024001
0.008415274 0.015995942 0.013136494 0.014520036 0.029675143 0.00025701863 -0.018173069 -0.0067628776
-0.030254696 0.02109331 -0.032431953 -0.03219463 -0.022069221 -0.01124374 0.027246483 0.013187404
-0.0051133106 0.023580043 -0.014828252 0.011031268 -0.015978886 -0.010881304 -0.020980874 0.008037012
0.025854219 0.009500971 0.004549006 -0.014109688 0.022372922 0.014150316 0.0014184702 0.0058663245

out.weight f4 [40, 80]
00000000: c788 95bd 0bd7 283d 1c36 703d e37e b93a
00000010: a3a5 74bd 581e 6bbd aa20 8bbc fab7 8b3c
00000020: bef1 debd 18a3 523d 8f8c 3c3c 7f9b d4bd
00000030: 8f54 143d 23b3 aebd 4467 893c 15de 163c
00000040: 935e e43d 825e 233d e567 85bd ca13 d43c
00000050: 420a e3bd 44ef 19bd 7801 ffbc 6c9c d63d
00000060: cdba c33d 042e db3d 1836 24bd d8f7 e13d
00000070: 3dc1 41bc f04f 21bc cc53 d8bd 3324 ac3c
00000080: ec1b 1abd 3e2a 10bd 65ac 883c 12fb 81bd
00000090: 66c6 aa3d 21c5 893d de31 14bd c072 93bd
000000a0: e770 bebd 6b7d 413c b594 913d 36dc cdbc
000000b0: 34e6 033d 6fc1 07bd 481b b03c d300 733b
000000c0: c71e 3f3d 1529 9abd 8ae1 0f3d ed7f 1bbd
000000d0: d7a0 4a3d af76 523a e535 e53c 1cc3 ad3d
000000e0: 3849 b0bd 355c a5bd 0829 4c3d 3372 97bd
000000f0: cbcd 66bd 84ca ca3d e397 e23c 41ef 843d
00000100: e0d7 bebc 2d83 f43c a6d0 bf3d ed16 903d
00000110: a4b1 833c 4e7e aa3d 42f8 143d 1684 b63d
00000120: 8862 a7bc 4927 a0bd 366f acbb 87fa 493d
00000130: 9898 5e3c a7d6 9bbd 2363 1dbd aa12 ccbd
00000140: 88bf 6d3d 0f9a 86bd 08b6 d23d 7b22 bbbd
00000150: 50e1 843c 4d73 1dbd d038 023d 0ee6 b83d
00000160: 2fd2 9dbd 9e4f 05bd 32e3 febc babd 72bd
00000170: 2bc7 aabd dab7 0e3d eb7d 6c3d 6bb3 ac3d
00000180: c1db 58bd 2607 783d 1cee d7bd 1e1f 90bd
00000190: 767f 46bd b150 c9bb 2464 8fbd 20da 96bb
000001a0: b818 41bd acdc 9d3d 3249 e33d 4e68 2eb9
000001b0: 77ce d63d fb83 78bd b4a1 cdbc 1840 28bd
000001c0: 5094 b23d 05b6 8cbd e6c7 bbbd 64c6 cd3d
000001d0: faca 70bb b96a a83d 31e6 a4bd 54e8 9d3d
000001e0: 08f7 343d 016b 1b3d f5c1 46bd 389a 4d3d
000001f0: 785a bfbd 5bc6 f33c 9cb2 b03d 9446 84bd
00000200: 2d44 8a3c 6cc4 0c3c 48d7 e1bd 4b49 b2bd
00000210: fa61 25bd c7f6 c63d 514e 383c 103c 4cbc
00000220: b5e7 5abd c583 883d 9615 95bd 3d92 dcbd
00000230: e835 25bd e225 c93c c587 9ebd 95c9 993d
00000240: a432 26bd cd9a 62bd d515 debd 3dbd c83c
00000250: ddb4 303d 55cd 493d 3428 90bd 8878 863c
00000260: d010 033d dbfe 183d e740 e2bd 090c a33d
00000270: cedc b43d 0306 6bbd 851e a6bd 5846 923d
00000280: f4c0 d63c d8dc 623d 61f3 a63d 80f8 993b
00000290: 14b5 a3bc abd6 38bd 0007 a33d 2cf2 b3bd
000002a0: 0a0c 6c3d 0de9 8dbd 9edd f8bc fa19 a3bd
000002b0: 572b 793d bada e1bd efa3 90bd f65f c3bd
000002c0: e026 59bd fa4b 403c f148 7fbd 67ee d0bd
000002d0: 8702 82bd 2324 7abd b46a 433c 3838 cf3c
000002e0: 42ca 6cbd 2f04 c0bd 04e1 3cbd 3f14 d83a
000002f0: 20c5 fc3c 882a a53d 0259 87bd 97e6 8abb
00000300: 48ac 173d fc29 233d d60d 81bd 85c6 a2bd
00000310: a4ac 803d 700a 34bd c6a2 e0bc 98d0 8c3b
00000320: 7232 a63d f30f acbd 3a21 3e3d 94b0 06bd
00000330: 4c50 f3bc f523 703c 35f8 023d d395 29bd
00000340: 38e2 1f3d 13d9 bcbd 9d0f 2e3c fc5c 06bd
00000350: 00cf 863d c1c2 583c 2f6e 9dbd 37e6 dbbd
00000360: d141 d9ba 09a8 afbd 7e2d 983d 3781 c13d
00000370: 3939 9bbd cfb0 a8bd 038f a03c c943 c0bd
00000380: fb3b b63d b4ef 923c 780f bfbd fd84 b3bc
00000390: e986 4b3d 7513 71bd 367c c93d 5489 e63c
000003a0: 86a6 953d 3a0b b7bd e63b c6bd 935e a03c
000003b0: e96e 6abc b593 5c3c 3b07 5e3d aec5 623d
000003c0: 96c4 8a3d d80e 01bd f3eb c3bb 48aa ab3d
000003d0: bc7e 903d d8ec c33d a512 c53d a551 673d
000003e0: 6058 bb3a 9370 bf3d 3c7f 8bbd 4e62 4c3d
000003f0: f169 943c bc7c 8fbd eb26 083d af2b 643d
-0.07301479 0.041220706 0.058645353 0.0014152195 -0.059728276 -0.057401985 -0.016983349 0.0170555
-0.108859524 0.05142507 0.011508121 -0.10381221 0.036213454 -0.08530261 0.016772874 0.009208222
0.11150851 0.03988505 -0.06513957 0.025888342 -0.11085941 -0.037581697 -0.03112863 0.10479054
0.09557114 0.10702136 -0.04009065 0.110336006 -0.011825857 -0.009845719 -0.10562858 0.021013355
-0.037624285 -0.035196535 0.016683767 -0.06346716 0.08338623 0.067270525 -0.03618037 -0.07199621
-0.09298878 0.011809687 0.07108442 -0.025129419 0.03220196 -0.033143457 0.021497384 0.0037079349
0.04666021 -0.07527367 0.0351272 -0.037963796 0.049469795 0.00080285495 0.0279798 0.0848448
-0.08607715 -0.08074228 0.049843818 -0.07394829 -0.056348603 0.09901908 0.027660316 0.064909466
-0.023296297 0.029847706 0.093659684 0.07035623 0.016075917 0.08324872 0.03636957 0.08911912
-0.020432726 -0.07819993 -0.005262281 0.049311187 0.013586186 -0.07609301 -0.038424622 -0.099644974
0.058043987 -0.06572353 0.10288626 -0.09137436 0.016220719 -0.038440038 0.031792462 0.090282544
-0.07706105 -0.032546632 -0.031114195 -0.05926297 -0.083387695 0.034843303 0.057737272 0.08432659
-0.05294395 0.060553692 -0.10543463 -0.07037185 -0.0484614 -0.0061436524 -0.07001522 -0.0046036392
-0.047142714 0.077081054 0.11097945 -0.0001663279 0.10488599 -0.06067274 -0.02510152 -0.04107675
0.087196946 -0.06870655 -0.09168987 0.10047606 -0.0036742077 0.08223481 -0.08051718 0.07710329
0.0441809 0.037943844 -0.048524816 0.050195903 -0.093434274 0.02975767 0.08627817 -0.06458774
0.016878212 0.0085917525 -0.1102739 -0.08705386 -0.04037664 0.09715038 0.011249141 -0.012465492
-0.05344363 0.06665758 -0.07279508 -0.1077008 -0.040334612 0.024554197 -0.0774074 0.07509152
-0.04057564 -0.05532341 -0.10844008 0.024504298 0.043141235 0.049268086 -0.07038918 0.016414896
0.031998456 0.037352424 -0.110475354 0.0796128 0.08831178 -0.05737878 -0.0811129 0.07142323
0.026215054 0.055386394 0.081518896 0.004698813 -0.019983806 -0.0451266 0.079603195 -0.08786425
0.05762867 -0.069292165 -0.030379113 -0.07963939 0.060832348 -0.11028047 -0.07062518 -0.095397875
-0.05301559 0.011736864 -0.06232542 -0.10201722 -0.06348138 -0.06106962 0.0119272955 0.025295362
-0.057810076 -0.09375798 -0.04611303 0.0016485526 0.030855715 0.08064753 -0.06608774 -0.004238914
0.037029535 0.03983496 -0.06301467 -0.07948021 0.062829286 -0.043955266 -0.027421366 0.0042973273
0.081150904 -0.084014796 0.046418406 -0.03288324 -0.029701374 0.01465701 0.03197499 -0.04140265
0.0390341 -0.09221091 0.01062384 -0.03280352 0.06582451 0.013230027 -0.076870315 -0.10737269
-0.0016575401 -0.08576972 0.07430552 0.09448474 -0.07579274 -0.082368486 0.019599443 -0.09387929
0.08898159 0.017936565 -0.09329122 -0.021914 0.049689207 -0.058856446 0.098381445 0.028141655
0.073071525 -0.08937688 -0.096793935 0.019576347 -0.01430867 0.0134629505 0.054206114 0.055364303
0.06775777 -0.031508297 -0.005979055 0.08382088 0.07055423 0.09566659 0.09622697 0.056474347
0.0014293306 0.09347644 -0.068113774 0.04989844 0.018116923 -0.07006213 0.03324024 0.055705722

out.bias f4 [40]
00000000: 98a4 35bd a651 c43d 6f61 c13c fc95 38bd
00000010: f09d 56bc a3d5 33bd c469 c13d 7e3a bbbd
00000020: a96d f53c dee5 82bd ac42 b43d 4a06 0d3d
00000030: 7ebf 2c3c 6bdf a6bc 03d6 963d c653 c83d
00000040: c936 8c3d 0deb 9dbd 7f7b 03bd 7936 60bd
00000050: 2671 9b3d bd79 d2bc 4380 4cbd 2141 813b
00000060: b259 02bd cb52 7cbd 15e2 81bc 426e f2bb
00000070: 90a4 abbb eec4 c9bd 0248 54bc a3a4 e1bc
00000080: 612f afbc b6c6 2b3d a4ba a9bd 42f6 1abd
00000090: 3495 fa3c 276c 513d b70b 9cbc 7621 c43d
-0.044346422 0.09585886 0.02360603 -0.04506491 -0.013099179 -0.04390491 0.09444001 -0.09142016
0.029959517 -0.063915 0.08801779 0.034429826 0.010543702 -0.020370206 0.07365038 0.097816035
0.06846387 -0.07710848 -0.032100197 -0.05473945 0.07589941 -0.025692815 -0.049927007 0.0039445315
-0.03182382 -0.061602395 -0.015854875 -0.0073983977 -0.0052381232 -0.098520145 -0.012956621 -0.027544325
-0.021384897 0.041937552 -0.08287552 -0.037832506 0.030588724 0.051128533 -0.019048555 0.09576695
