1900params3.pth (torch, 607751 bytes, 10 tensors)

conv1.0.weight f4 [32, 4, 2, 2]
-0.09606861 0.16777037 0.093872234 0.18104713 -0.23164983 0.04959837 0.19397815 -0.00851659
-0.21669343 -0.05686781 0.08820504 -0.093824744 -0.064742595 -0.08102974 0.026269775 0.0025803656
-0.11433306 0.21230944 0.069139615 0.08130546 -0.24167138 -0.16576523 -0.14487796 -0.16086113
0.12225263 0.2153397 -0.08198165 0.053369675 -0.1715219 0.12681586 -0.009631979 -0.0008363987
-0.030323336 0.20535599 -0.1677485 0.21349639 0.019110449 0.054985933 0.086472586 0.1504542
-0.049857263 -0.11817677 0.22903584 0.03809344 0.13665445 -0.044206716 -0.19085658 -0.072233036
-0.1962598 0.24637628 0.007158638 0.19499306 0.21076196 -0.03511303 0.063025184 -0.027655112
-0.2245058 0.1466388 -0.086734034 0.2145923 0.11219137 -0.018425215 0.16047204 0.104454175
0.22138198 0.0017473424 -0.09236112 -0.042144675 0.23273139 0.19682212 0.19974695 -0.039076526
-0.0872683 0.019462528 -0.1514087 -0.095344074 0.24872613 0.028770916 0.11088111 -0.07899798
0.077532336 0.09052722 -0.17205365 0.24121043 -0.028537083 -0.14976516 -0.08767394 0.2008485
-0.16729492 -0.23143013 -0.24319486 0.20686474 -0.043806653 -0.027414799 -0.11820304 0.098148555
0.19815397 0.14659283 0.16603723 -0.018591017 0.06560607 -0.09963112 0.18708505 -0.08020241
-0.085909724 0.022617534 -0.18653075 -0.15606292 0.20840928 -0.09854357 -0.105898894 0.11509768
-0.016447082 0.041547317 0.18565747 -0.08089501 -0.0570069 -0.24882223 0.060297806 -0.120741956
-0.13888368 0.13101576 -0.011919243 0.20295213 -0.15027484 0.2121756 -0.055947077 -0.04838029
-0.045238648 0.20975919 -0.02481256 -0.21652338 -0.1419409 -0.13578065 -0.029874835 -0.1756278
0.0316549 0.0061600935 0.11575039 -0.20229127 0.24821171 0.048569176 0.02756559 -0.18029013
0.17010583 0.15995634 0.09776955 -0.15569039 -0.14819708 0.17370424 -0.19085859 0.030513173
-0.04409068 0.1935287 -0.22510332 -0.10847665 -0.06628922 -0.076139845 -0.18679366 -0.09782048
-0.14852124 0.199849 -0.14316207 0.0069340826 -0.24934229 -0.12979339 0.19125013 -0.20851628
-0.043746594 -0.11693924 -0.023848254 -0.012224656 -0.06834095 -0.11832724 0.098428406 -0.03404059
0.062691964 -0.2073111 -0.043313492 -0.09205535 0.11497565 -0.024542322 -0.13863973 -0.23696955
0.019286897 -0.13911328 -0.210152 -0.160332 0.24051768 -0.1356791 -0.08128144 -0.2226459
-0.193934 -0.13682707 -0.24893962 0.069038585 -0.037888866 0.10409827 -0.08362453 -0.12685941
-0.032654412 0.17443387 0.14376578 -0.06382171 0.050157446 -0.0724016 0.0061714533 0.18680163
0.14085443 -0.008399557 0.07324403 0.061537344 -0.14704384 -0.054108247 0.21255341 0.083983555
-0.0048061283 0.23709582 -0.07119841 -0.122783236 -0.11202449 0.14714989 0.07758101 0.15981023
0.15343468 -0.10051158 -0.03764065 -0.18280908 0.14258376 0.16681746 -0.17600451 -0.14891118
0.030548826 0.018938532 0.12669446 0.11173373 -0.20840093 0.032120388 -0.010513648 0.1481382
0.21717097 0.18220173 0.14742647 -0.14977282 -0.14539015 -0.17182404 0.23796542 -0.21880253
0.14039493 0.20782812 -0.24822876 0.028380547 -0.14718968 0.054345094 0.06291078 -0.110213205
00000000: 9fbf c4bd ffcb 2b3e 1640 c03d 6b64 393e
00000010: 9d35 6dbe a927 4b3d 35a2 463e 2b89 0bbc
00000020: e2e4 5dbe 39ee 68bd d8a4 b43d 3027 c0bd
00000030: c497 84bd ecf2 a5bd b633 d73c 5a1b 293b
00000040: 7427 eabd a567 593e 1299 8d3d 7a83 a63d
00000050: b478 77be 5cbe 29be e35a 14be c8b8 24be
00000060: 965f fa3d 0382 5c3e ffe5 a7bd 299a 5a3d
00000070: 70a3 2fbe 04dc 013e 73cf 1dbc c441 5bba
00000080: a568 f8bc d748 523e 43c6 2bbe cc9e 5a3e
00000090: 848d 9c3c ee38 613d 8a18 b13d aa10 1a3e
000000a0: 2137 4cbd aa06 f2bd 5f88 6a3e de07 1c3d
000000b0: 25ef 0b3e 1a12 35bd e86f 43be eaee 93bd
000000c0: 54f8 48be 104a 7c3e 0293 ea3b 43ac 473e
000000d0: fcd1 573e aed2 0fbd 5913 813d f98c e2bc
000000e0: d9e4 65be 7b28 163e 9da1 b1bd 15be 5b3e
000000f0: 97c4 e53d 7af0 96bc c852 243e 12ec d53d
00000100: f5b1 623e 1507 e53a d427 bdbd e59f 2cbd
00000110: 2351 6e3e bd8b 493e 778a 4c3e b50e 20bd
00000120: b9b9 b2bd e16f 9f3c e20a 1bbe c143 c3bd
00000130: 10b2 7e3e fcb0 eb3c a315 e33d b1c9 a1bd
00000140: 46c9 9e3d 5666 b93d d52e 30be deff 763e
00000150: 9ac6 e9bc 0a5c 19be 658e b3bd 3bab 4d3e
00000160: 5c4f 2bbe 05fc 6cbe 1308 79be 5ad4 533e
00000170: 9b6e 33bd 0095 e0bc 6f14 f2bd 1c02 c93d
00000180: e0e8 4a3e 6e1c 163e aa05 2a3e 304c 98bc
00000190: 7a5c 863d 670b ccbd 3993 3f3e 2941 a4bd
000001a0: 70f1 afbd 6848 b93c eb01 3fbe f5ce 1fbe
000001b0: 3e69 553e 36d1 c9bd 85e1 d8bd 55b8 eb3d
000001c0: 08bc 86bc 852d 2a3d fe1c 3e3e 48ac a5bd
000001d0: 1180 69bd 41cb 7ebe d5fa 763d 8f47 f7bd
000001e0: 8637 0ebe ff28 063e ee48 43bc afd2 4f3e
000001f0: a6e1 19be 8f44 593e c328 65bd 692a 46bd
00000200: 294c 39bd 1dcb 563e b643 cbbc 4eb8 5dbe
00000210: f558 11be 150a 0bbe 12bc f4bc c6d7 33be
00000220: 92a8 013d 9cda c93b 8a0e ed3d 7125 4fbe
00000230: 362b 7e3e 79f0 463d 3bd1 e13c fa9d 38be
00000240: 3930 2e3e 98cb 233e 673b c83d 4d6d 1fbe
00000250: fac0 17be 86df 313e 6f70 43be c3f6 f93c
00000260: 6e98 34bd 632c 463e 7c81 66be 0229 debd
00000270: a4c2 87bd 35ef 9bbd d646 3fbe 1b56 c8bd
00000280: f415 18be 37a5 4c3e 1499 12be 4d37 e33b
00000290: 9653 7fbe 8fe8 04be 13d7 433e 4b85 55be
000002a0: a12f 33bd d77d efbd 6a5d c3bc ec49 48bc
000002b0: 57f6 8bbd 8d55 f2bd d594 c93d 256e 0bbd
000002c0: a564 803d 5c49 54be 7d69 31bd 8487 bcbd
000002d0: 5b78 eb3d fb0c c9bc 93f7 0dbe 25a8 72be
000002e0: 8eff 9d3c b673 0ebe 1632 57be 122e 24be
000002f0: 444a 763e 76ef 0abe e276 a6bd 49fd 63be
00000300: a296 46be 651c 0cbe 07ea 7ebe 1a64 8d3d
00000310: 5b31 1bbd 7931 d53d 5643 abbd 6fe7 01be
00000320: a2c0 05bd cb9e 323e 5637 133e f5b4 82bd
00000330: e571 4d3d 4a47 94bd e739 ca3b ed48 3f3e
00000340: 253c 103e 4c9e 09bc f700 963d 950e 7c3d
00000350: a992 16be 9ca0 5dbd 9aa7 593e 92ff ab3d
00000360: ba7c 9dbb 3fc9 723e 79d0 91bd c775 fbbd
00000370: 196d e5bd 76ae 163e cbe2 9e3d 4ba5 233e
00000380: fb1d 1d3e 04d9 cdbd 152d 1abd 4e32 3bbe
00000390: 7a01 123e 32d2 2a3e 873a 34be 2c7c 18be
000003a0: 8841 fa3c fb24 9b3c 31bc 013e a7d4 e43d
000003b0: 0e67 55be ab90 033d 7041 2cbc 8ab1 173e
000003c0: 1162 5e3e 1793 3a3e f7f6 163e 0c5e 19be
000003d0: 28e1 14be a4f2 2fbe 35ad 733e c50d 60be
000003e0: b0c3 0f3e e5d0 543e ae2f 7ebe 527e e83c
000003f0: e4b8 16be f698 5e3d 5ed7 803d 76b7 e1bd

conv1.0.bias f4 [32]
0.046752077 -0.18748225 -0.19060501 -0.22552796 -0.23246288 -0.1285909 -0.0837379 0.11239683
-0.17519754 0.024622513 0.2164131 -0.060132626 -0.138335 0.21341439 -0.113005936 -0.0065234983
-0.18108532 -0.11379204 -0.03979844 -0.15362018 -0.030237101 0.1363736 0.24374522 -0.00023992827
-0.023514485 -0.14521421 -0.093373194 -0.046030056 0.1902267 0.20987129 0.16951042 0.22915967
00000000: 1b7f 3f3d 59fb 3fbe f62d 43be cdf0 66be
00000010: c00a 6ebe 55ad 03be c77e abbd 4f30 e63d
00000020: fc66 33be 27b5 c93c 659b 5d3e a14d 76bd
00000030: b1a7 0dbe 4d89 5a3e a86f e7bd 12c3 d5bb
00000040: 6e6e 39be cd0b e9bd b003 23bd 9c4e 1dbe
00000050: ccb3 f7bc 85a5 0b3e 5998 793e 4195 7bb9
00000060: 73a1 c0bc 09b3 14be 723a bfbd 038a 3cbd
00000070: caca 423e 80e8 563e 2494 2d3e d5a8 6a3e

conv2.0.weight f4 [64, 32, 4, 4]
0.033910736 0.033092167 0.041808836 -0.029835608 0.008174878 0.016212447 0.039924663 0.014450322
0.0028618558 0.013390641 0.04460601 0.004013166 0.019046783 -0.034343712 0.010241108 0.033359565
-0.034552198 -0.03653851 -0.040460166 -0.02215017 -0.031516995 0.039620895 0.017662933 0.02776533
-0.023070015 -0.028032571 -0.021837715 0.007677479 -0.037133403 0.018596947 -0.0012384262 -0.022127293
-0.03739343 -0.0034252228 -0.03954776 -0.040479574 -0.028083222 -0.022938322 -0.040660605 -0.04101314
0.031587698 0.0153726535 0.028770601 -0.018420964 -0.03227841 0.004924901 0.035372134 -0.022729266
-0.014980126 0.018004376 0.017310442 0.030721286 0.01754509 -0.015934853 -0.0235647 -0.018666482
0.034026723 0.03497604 -0.028673766 0.002338697 -0.034469932 -0.0178179 0.015498443 0.022446422
0.02565935 0.012267077 -0.000604585 -0.025617212 0.024556188 0.007236719 -0.027008334 0.02700825
0.032420613 0.01361503 0.0011038063 -0.011658012 -0.03822412 0.009503292 0.020968191 0.021015858
-0.011615106 0.034002535 -0.009381755 0.022722673 -0.00066839677 -0.010902648 0.014076453 0.036376923
0.0379454 -0.015580217 -0.024416624 -0.011165028 0.038835067 -0.028380815 -0.008173443 -0.03845077
0.012560068 0.027567308 -0.02974044 0.043270998 -0.017032685 0.043443874 0.02787328 -0.01990825
-0.016254477 -0.022863798 0.015994007 -0.034139924 -0.0053967987 0.012523697 -0.015101899 -0.0011339843
-0.041504156 0.007817069 0.01850006 0.005503668 0.043744307 0.012500131 -0.042872924 -0.010344236
-0.0191244 -0.027916115 -0.027597183 -0.004016635 -0.012916223 -0.006191737 0.008005155 0.024224522
0.0071491906 -0.027522076 -0.027278014 0.038460758 -0.032883618 0.029252673 0.0025761912 -0.0119038485
-0.04318674 0.027170895 -0.024806371 -0.011267178 0.035024565 0.015060134 -0.01706982 -0.012143649
-0.018802803 0.042613704 0.033374883 -0.027168952 0.001065222 -0.012886563 0.039991554 -0.013713315
0.042048715 -0.042667724 -0.030605108 -0.00025084286 -0.031429328 0.028549794 -0.019538203 -0.017593717
0.016399039 -0.041551493 0.027875626 0.04410373 -0.014593931 -0.02792731 -0.007654704 -0.03750706
-0.01682505 -0.024489837 -0.029221624 0.034770023 0.033466086 -0.030690331 0.024805363 0.017263709
0.038941506 -0.019396756 -0.043246046 -0.038916614 0.033183154 0.03118799 -0.006854427 0.019912638
0.036251266 -0.014237672 0.037760433 -0.03008708 0.004985923 0.018293688 0.030474963 0.021594571
0.008059294 0.024647627 -0.03768143 0.043317713 -0.022852626 0.019852322 0.009116103 0.031652015
-0.023168081 -0.00077110744 0.008085065 0.017679315 -0.0019022537 -0.014856463 -0.023808278 -0.011588383
0.015253861 0.034409136 -0.038792294 0.024648253 0.023029825 0.04414382 -0.013216306 -0.011825843
0.02060544 -0.019142078 -0.010455871 0.03590401 -0.033901107 -0.020248542 0.031085782 -0.018715028
0.022154255 -0.0013187194 0.0032355946 -0.015222806 -0.00742663 0.0005326894 0.0075435764 0.024451222
-0.0032659494 -0.038020868 -0.027958062 -0.036560092 0.0017195 -0.008255157 0.026440382 0.0041774376
0.015419796 0.030248638 -0.0005078296 -0.039706923 -0.00071481033 0.041030306 -0.017387131 -0.016672077
0.029030211 0.0225454 -0.033188924 0.0022444883 -0.044148438 -0.01935584 0.026914155 0.030899664
00000000: fce5 0a3d a78b 073d be3f 2b3d ce69 f4bc
00000010: ecef 053c f7cf 843c 0b88 233d 0bc1 6c3c
00000020: f98d 3b3b 6b64 5b3c cbb4 363d e080 833b
00000030: 0008 9c3c feab 0cbd 52ca 273c 0aa4 083d
00000040: 9b86 0dbd 68a9 15bd 8fb9 25bd 4674 b5bc
00000050: f717 01bd 8549 223d dbb1 903c 1e74 e33c
00000060: 54fd bcbc 90a4 e5bc 02e5 b2bc 5d93 fb3b
00000070: 3219 18bd a058 983c b052 a2ba 4c44 b5bc
00000080: da29 19bd b479 60bb d5fc 21bd e9cd 25bd
00000090: c90e e6bc 26e9 bbbc bc8b 26bd 65fd 27bd
000000a0: 1a62 013d 95dd 7b3c 53b0 eb3c 90e7 96bc
000000b0: 5e36 04bd 1061 a13b 5fe2 103d ba32 babc
000000c0: 346f 75bc ea7d 933c a1ce 8d3c 35ab fb3c
000000d0: b8ba 8f3c cf89 82bc c20a c1bc 73ea 98bc
000000e0: 9b5f 0b3d 0943 0f3d 3fe5 eabc d344 193b
000000f0: 5830 0dbd d8f6 91bc 2eed 7d3c 8fe1 b73c
00000100: 8f33 d23c dafb 483c 037d 1eba 30db d1bc
00000110: 0f2a c93c 0022 ed3b 9540 ddbc 6840 dd3c
00000120: 7acb 043d 9311 5f3c 98ad 903a 3f01 3fbc
00000130: e590 1cbd b2b3 1b3c 7cc5 ab3c 7329 ac3c
00000140: 494d 3ebc 3e46 0b3d efb5 19bc e624 ba3c
00000150: 5937 2fba 05a1 32bc eca0 663c f8ff 143d
00000160: a36c 1b3d 2b44 7fbc 5f05 c8bc 86ed 36bc
00000170: 8511 1f3d e27e e8bc e8e9 05bc 8e7e 1dbd
00000180: bec8 4d3c d6d4 e13c 39a2 f3bc ee3c 313d
00000190: 2188 8bbc 34f2 313d 8156 e43c a016 a3bc
000001a0: 1c28 85bc dc4c bbbc dd05 833c 4ed6 0bbd
000001b0: a1d7 b0bb 3130 4d3c f56d 77bc 33a2 94ba
000001c0: 4300 2abd 2a13 003c 708d 973c 1d58 b43b
000001d0: 3b2d 333d 59cd 4c3c 859b 2fbd df7a 29bc
000001e0: c6aa 9cbc 56b0 e4bc 7d13 e2bc fa9d 83bb
000001f0: 919e 53bc 0ee4 cabb 0e28 033c 8172 c63c
00000200: c243 ea3b fa75 e1bc 2476 dfbc 0789 1d3d
00000210: f9b0 06bd 4da3 ef3c 51d5 283b 5c08 43bc
00000220: 94e4 30bd 7f95 de3c bb36 cbbc f899 38bc
00000230: eb75 0f3d c8be 763c 02d6 8bbc 28f6 46bc
00000240: 5608 9abc b58b 2e3d 1ab4 083d 6c91 debc
00000250: eb9e 8b3a 2a22 53bc 2fce 233d d0ad 60bc
00000260: 463b 2c3d 5ac4 2ebd 90b7 fabc 8f83 83b9
00000270: 0abc 00bd 42e1 e93c 950e a0bc b320 90bc
00000280: 4757 863c e631 2abd 6d5b e43c 1da6 343d
00000290: 621b 6fbc d0c7 e4bc 50d4 fabb 01a1 19bd
000002a0: b0d4 89bc e99e c8bc 3062 efbc 036b 0e3d
000002b0: bc13 093d 4a6a fbbc 9e34 cb3c 9f6c 8d3c
000002c0: 2181 1f3d f2e5 9ebc c422 31bd 0767 1fbd
000002d0: 0feb 073d f57d ff3c 1a9b e0bb d41f a33c
000002e0: 357c 143d 2045 69bc afaa 1a3d 2e79 f6bc
000002f0: f460 a33b a5dc 953c a1a6 f93c 19e7 b03c
00000300: 210b 043c d2e9 c93c d857 1abd ea6d 313d
00000310: 6e35 bbbc 56a1 a23c b55b 153c 8ba5 013d
00000320: fdca bdbc 2524 4aba 3877 043c 36d4 903c
00000330: 0b55 f9ba 8668 73bc 9409 c3bc 33dd 3dbc
00000340: 55eb 793c 98f0 0c3d abe4 1ebd 22eb c93c
00000350: 0ba9 bc3c 26d0 343d 3589 58bc 2ec1 41bc
00000360: bdcc a83c d9cf 9cbc 1a4f 2bbc 1510 133d
00000370: e3db 0abd 45e0 a5bc 9ca7 fe3c 4250 99bc
00000380: d77c b53c e1d8 acba 450c 543b 1369 79bc
00000390: 165b f3bb 2ea4 0b3a 1b30 f73b ee4d c83c
000003a0: 8a09 56bb c5bb 1bbd 4e08 e5bc 09c0 15bd
000003b0: d960 e13a a340 07bc 8099 d83c e3e2 883b
000003c0: 50a3 7c3c fecb f73c de1f 05ba baa3 22bd
000003d0: 1c62 3bba 650f 283d 756f 8ebc e193 88bc
000003e0: c4d0 ed3c 21b1 b83c 1cf1 07bd 4418 133b
000003f0: fed4 34bd 2390 9ebc 137b dc3c 4b21 fd3c

conv2.0.bias f4 [64]
-0.0039668074 -0.02108456 -0.027522476 0.000529382 -0.02030585 0.033336308 0.038329244 -0.01830943
0.04034639 0.008477616 -0.026883552 0.03721912 -0.03551149 -0.026986696 0.037848108 -0.029509773
0.015683241 0.018515283 0.034298237 -0.042899467 -0.042189315 -0.040761683 0.0024929552 0.029263556
-0.01569588 0.007843887 -0.013392869 0.014811137 0.037666053 0.043152846 0.043247133 -0.01213167
-0.017092697 0.03656778 -0.015557111 -0.012450165 -0.015600544 0.028761398 -0.028334515 0.0002788013
0.019775767 -0.010939938 -0.011035373 -0.018174404 -0.037611756 0.022901995 0.03124103 0.0063401894
0.015855817 0.034082938 0.040485803 -0.014724277 0.033086445 0.037553508 0.010621487 0.01706292
-0.018801978 0.015063361 -0.0316234 0.03543451 0.026792882 0.03932368 0.015465367 -0.034093574
00000000: fefb 81bb 87b9 acbc d176 e1bc 3ac6 0a3a
00000010: 7458 a6bc a78b 083d 20ff 1c3d a8fd 95bc
00000020: 4242 253d b3e5 0a3c e53a dcbc 1373 183d
00000030: 7f74 11bd 3413 ddbc 9e06 1b3d 7bbe f1bc
00000040: 247a 803c 5dad 973c 4f7c 0c3d 5ab7 2fbd
00000050: b4ce 2cbd b9f5 26bd d960 233b 20ba ef3c
00000060: a594 80bc a683 003c c46d 5bbc 69aa 723c
00000070: b847 1a3d 0ac1 303d e823 313d e9c3 46bc
00000080: fc05 8cbc 19c8 153d 41e3 7ebc c7fb 4bbc
00000090: 6d99 7fbc 069d eb3c c91d e8bc 142c 9239
000000a0: ca00 a23c 6d3d 33bc b6cd 34bc 7de2 94bc
000000b0: c90e 1abd f79c bb3c 30ed ff3c 5dc1 cf3b
000000c0: 0fe4 813c 8d9a 0b3d 71d4 253d 183e 71bc
000000d0: a785 073d b5d1 193d bf05 2e3c 89c7 8b3c
000000e0: 9b06 9abc 51cc 763c 8a87 01bd c723 113d
000000f0: bf7c db3c de11 213d 7362 7d3c b4a5 0bbd

conv3.0.weight f4 [64, 64, 3, 3]
-0.026676105 0.008061258 0.03542519 -0.0006961221 -0.007586885 0.022741446 0.027046802 0.0009438496
0.0033012347 0.018326586 0.034046657 0.01045743 -0.014770898 0.036940318 -0.03444874 -0.031215537
-0.011278889 -0.027216146 -0.004391027 -0.03738147 0.006115144 -0.014084285 0.0053867614 0.017827857
-0.0076953624 0.01981861 -0.013976977 0.008399257 0.017033245 -0.008808847 -0.011628173 -0.0012312694
-0.014222491 0.028046073 -0.011061936 -0.0109758675 0.03005565 0.033630665 -0.016389988 -0.035649158
0.0051126615 -0.02715807 -0.010156212 -0.03583339 0.021297783 -0.0076311235 -0.0025311355 0.005708604
0.03861321 0.024050144 -0.026852803 0.01764731 -0.035391606 0.026657583 -0.026087645 0.022353822
-0.039724648 -0.008595379 -0.040933426 -0.019246817 0.0028594665 -0.0040982664 0.011956902 -0.034436326
0.026212363 -0.040539972 0.009307833 0.008478097 0.015381973 0.007934617 0.0043218075 -0.02612382
0.0055418005 0.027454615 -0.019062027 -0.039400503 0.024238903 -0.010490424 0.03214535 -0.025739359
-0.020035412 -0.02438393 -0.02805995 0.033992525 0.018965421 -0.02554111 0.040267788 0.033856552
0.034525055 0.011499051 -0.01564504 0.021852685 1.1692791e-05 0.038058504 0.03175742 -0.012497596
-0.021440888 0.01571056 0.009735791 0.00035846283 -0.018252755 0.019686537 0.023057992 0.021608649
0.015150517 -0.040746454 -0.028703116 0.03065253 -0.03555935 0.011650923 0.015942808 0.01009402
-0.028388387 0.006485294 0.039396226 -0.01953923 -0.034462288 -0.005089963 -0.027115729 -0.0023713731
0.023725389 0.039263554 0.018916424 -0.027954116 0.019254573 0.020276437 0.019413322 0.041037172
-0.013032988 0.03116197 -0.011104477 0.015884653 0.0069992915 -0.0016049847 0.029940955 -0.03385901
-0.026179157 -0.031518124 -0.0032009888 -0.004398203 -0.016957311 -0.024148665 -0.037782826 0.016038047
-0.011262927 -0.018134449 0.014505101 -0.010197123 0.0046961564 -0.029650034 0.014993869 -0.02446751
0.005382744 0.017021704 -0.017675504 0.03278362 0.00049554947 -0.02231549 0.041316263 -0.003293064
0.03305562 -0.01933852 -0.031701803 0.00582358 0.005169243 -0.021521252 -0.014795255 -0.015451993
0.01987353 0.0005515486 0.030801013 -0.030534837 -0.013978766 -0.0414403 -0.030149486 0.014138846
-0.017590377 -0.0011456502 0.038097937 0.019076377 -0.009124957 0.031465035 0.01642382 -0.010779293
0.013737483 -0.025104254 -0.03906723 -0.005255084 -0.004169897 0.0123407915 0.031169595 0.03473406
-0.011367322 0.01663494 -0.010871493 -0.024321081 -0.010499034 0.0013060954 0.021693025 -0.016064638
0.0061597214 -0.026824951 0.040151734 0.03356705 0.027049167 0.001562842 0.0005295939 0.005659602
0.036236316 0.040282104 0.037835624 0.022486608 0.03129138 -0.027597398 -0.009590488 -0.026561927
0.035948258 -0.039053075 -0.009014426 -0.01957265 0.038119957 -0.01609875 -0.040942114 -0.017500702
0.0030399882 0.0030874633 0.01760647 0.007289329 -0.035629276 -0.037312903 0.014371238 0.023401624
-0.037137292 0.0024701494 -0.022105876 -0.023953956 0.034769084 -0.040035162 -0.02003022 0.015495495
-0.0032822525 0.014055693 0.012473733 -0.031636626 0.034182865 -0.025341181 0.020104729 -0.0058786613
0.02184072 0.009382357 0.030474221 -0.023630925 -0.033797827 0.028306967 -0.0033963523 -0.011013403
00000000: d987 dabc 5e13 043c 011a 113d f77b 36ba
00000010: 679b f8bb 454c ba3c 4191 dd3c ad6c 773a
00000020: 8759 583b a321 963c 8274 0b3d a455 2b3c
00000030: a301 72bc bb4e 173d 1f1a 0dbd bab7 ffbc
00000040: 17cb 38bc 65f4 debc 9be2 8fbb 501d 19bd
00000050: 8c61 c83b c6c1 66bc 6e83 b03b ba0b 923c
00000060: 6129 fcbb a35a a23c b1ff 64bc 0a9d 093c
00000070: 4e89 8b3c fb52 10bc 1884 3ebc 8c62 a1ba
00000080: 7305 69bc e1c0 e53c 1f3d 35bc 20d4 33bc
00000090: 4437 f63c 4fc0 093d 4c44 86bc da04 12bd
000000a0: 1d88 a73b 9a7a debc 3e66 26bc 08c6 12bd
000000b0: b078 ae3c 810e fabb 68e1 25bb 3e0f bb3b
000000c0: e328 1e3d cf04 c53c 69fa dbbc 1791 903c
000000d0: caf6 10bd 0161 da3c c2b5 d5bc 5d1f b73c
000000e0: 50b6 22bd a2d3 0cbc cfa9 27bd 80ab 9dbc
000000f0: e365 3b3b c04a 86bb e2e6 433c 1b0d 0dbd
00000100: 4fbb d63c 3e0d 26bd e27f 183c b7e7 0a3c
00000110: ac04 7c3c 3200 023c f39d 8d3b 9f01 d6bc
00000120: fe97 b53b 80e8 e03c f827 9cbc 6c62 21bd
00000130: aa90 c63c 07e0 2bbc d8aa 033d 59db d2bc
00000140: 4e21 a4bc cfc0 c7bc fbdd e5bc bf3b 0b3d
00000150: 5f5d 9b3c 973b d1bc d6ef 243d 2bad 0a3d
00000160: 256a 0d3d 8466 3c3c 072a 80bc 6704 b33c
00000170: 282c 4437 3ce3 1b3d 1214 023d b8c2 4cbc
00000180: cda4 afbc 6fb3 803c de82 1f3c 11f0 bb39
00000190: cd86 95bc a945 a13c 1de4 bc3c 9f04 b13c
000001a0: e039 783c c1e5 26bd cc22 ebbc 041b fb3c
000001b0: aea6 11bd 83e3 3e3c 7e9a 823c 6361 253c
000001c0: c38e e8bc 9782 d43b f05d 213d bc10 a0bc
000001d0: 5428 0dbd b4c9 a6bb ce21 debc 0a69 1bbb
000001e0: bf5b c23c d2d2 203d 9ef6 9a3c 0800 e5bc
000001f0: c4bb 9d3c c51a a63c b008 9f3c 9816 283d
00000200: 5088 55bc 6347 ff3c 8def 35bc 8820 823c
00000210: 505a e53b 5a5e d2ba bc46 f53c bfaf 0abd
00000220: ac75 d6bc 2619 01bd aec7 51bb cd1e 90bb
00000230: 0fea 8abc 6cd3 c5bc 2ac2 1abd 3962 833c
00000240: 2488 38bc b28e 94bc cea6 6d3c d511 27bc
00000250: 37e2 993b a1e4 f2bc d8a8 753c 1670 c8bc
00000260: bb61 b03b 1a71 8b3c 38cc 90bc 1e48 063d
00000270: c3e7 013a f9ce b6bc 3e3b 293d 72d0 57bb
00000280: 5465 073d d16b 9ebc c0d9 01bd bbd3 be3b
00000290: c162 a93b 564d b0bc cc67 72bc 5b2a 7dbc
000002a0: d0cd a23c cd95 103a 6852 fc3c 3224 fabc
000002b0: 3207 65bc 4ebd 29bd 0efc f6bc 9ea6 673c
000002c0: b219 90bc a429 96ba 950c 1c3d 1046 9c3c
000002d0: d880 15bc 7be1 003d 3f8b 863c a29b 30bc
000002e0: 2e13 613c 70a7 cdbc f604 20bd d732 acbb
000002f0: a2a3 88bb 0831 4a3c 6157 ff3c 4d45 0e3d
00000300: 013e 3abc ff45 883c 591e 32bc 013d c7bc
00000310: 2404 2cbc 4a31 ab3a 92b5 b13c fd99 83bc
00000320: 7dd7 c93b 00c0 dbbc 2576 243d 9a7d 093d
00000330: 3796 dd3c 47d8 cc3a 72d4 0a3a 2f74 b93b
00000340: 886c 143d d9fe 243d 87f9 1a3d d635 b83c
00000350: 642b 003d f013 e2bc 6c21 1dbc 6698 d9bc
00000360: 7b3e 133d 1ef6 1fbd 3eb1 13bc d256 a0bc
00000370: ac23 1c3d 87e1 83bc ebb2 27bd a25d 8fbc
00000380: 8a3a 473b 0a57 4a3b 723b 903c 53db ee3b
00000390: 01f0 11bd 6ad5 18bd 5775 6b3c c3b4 bf3c
000003a0: 461d 18bd 3be2 213b 6217 b5bc 163b c4bc
000003b0: 076a 0e3d e9fb 23bd 6a16 a4bc d1e0 7d3c
000003c0: 0f1b 57bb d949 663c a15e 4c3c 6895 01bd
000003d0: 5503 0c3d 4f98 cfbc acb2 a43c c9a1 c0bb
000003e0: 4feb b23c 75b8 193c 13a5 f93c a495 c1bc
000003f0: 976f 0abd 03e4 e73c 5695 5ebb 8f71 34bc

conv3.0.bias f4 [64]
0.038306925 0.006077486 -0.011709102 0.010893447 -0.027985744 0.0232298 -0.024057597 -0.013434066
0.036611762 -0.013490387 -0.030402545 0.033104107 0.009573498 -0.03320631 0.0050821602 -0.0012958132
0.0069397334 0.02797797 0.009387127 -0.0314434 0.034479234 -0.034999877 0.038480084 -0.04021415
0.034466393 0.020720944 -0.018007696 0.031154718 0.002724882 0.03378151 0.013614709 0.009661389
-0.015466626 -0.013744322 0.039299775 0.038475715 -0.028824054 0.017258784 -0.010620978 -0.026551394
0.0070259925 0.04112636 -0.03004517 -0.023295676 -0.017447436 -0.025122115 -0.014356096 0.0070721097
0.00015862903 0.019617895 -0.035240915 0.04218975 0.03070638 0.03663592 -0.001787406 -0.023314279
0.02926797 -0.030277645 -0.018256092 -0.002351926 0.015555563 -0.024920285 0.0045925034 -0.026890358
00000000: b9e7 1c3d a625 c73b 89d7 3fbc 6e7a 323c
00000010: 5c42 e5bc 6c4c be3c 7014 c5bc 8f1a 5cbc
00000020: 37f6 153d c906 5dbc c20e f9bc 2c98 073d
00000030: 29da 1c3c 5703 08bd 4088 a63b 47d8 a9ba
00000040: b466 e33b 0e32 e53c 77cc 193c cbca 00bd
00000050: 193a 0d3d 085c 0fbd 4b9d 1d3d 98b7 24bd
00000060: a22c 0d3d f8be a93c e084 93bc 2e38 ff3c
00000070: ef93 323b 7b5e 0a3d 3a10 5f3c cd4a 1e3c
00000080: bb67 7dbc dd2f 61bc cdf8 203d b698 1d3d
00000090: 6c20 ecbc 4b62 8d3c 9c03 2ebc 4f82 d9bc
000000a0: 4c3a e63b 1d74 283d 4a21 f6bc 93d6 bebc
000000b0: eded 8ebc e5cc cdbc d535 6bbc 28bd e73b
000000c0: a855 2639 b5b5 a03c c758 10bd 29cf 2c3d
000000d0: f28b fb3c 8c0f 163d 6547 eaba 96fd bebc
000000e0: 62c3 ef3c d308 f8bc cd8d 95bc c522 1abb
000000f0: c3dc 7e3c a025 ccbc b67c 963b 2b49 dcbc

fc1.0.weight f4 [80, 970]
-0.014634159 -0.021920437 -0.012130424 0.023397313 0.018547527 0.015869623 0.0035306215 0.010509807
0.022380171 0.026649322 -0.0032596758 -0.018326322 0.008972165 -0.016761608 0.0071240636 7.8093624e-05
0.016474504 -0.01610481 0.005188295 -0.0018323365 0.01504188 0.022480153 0.023554629 -0.015926488
0.00069352076 -0.013878467 -0.031927995 0.022578707 0.028156083 0.031287815 0.009950803 -0.011170223
0.006856575 -0.008798149 0.03123436 -0.02643815 -0.017792791 0.031275127 0.018778231 0.015707565
0.0054454925 -0.00093841495 0.021229472 -0.008181121 0.017246723 -0.007943183 0.0018130293 0.023868645
-0.0064740553 -0.02708648 -0.019035138 -0.020454356 0.012599081 -0.01648095 -0.018084321 0.0034336122
0.03213814 -0.022150127 0.023416089 -0.0046786345 0.029764084 -0.026935 0.019356577 -0.027343942
0.027161006 0.024323996 0.02654797 0.024373844 0.009601864 0.026932536 -0.019025655 0.0058352635
-0.014615419 0.0082097575 0.007856906 -0.00046534726 -0.011661913 -0.031329717 -0.031891238 -0.01459075
0.009257408 -0.005028566 0.016800782 0.009152411 0.018774547 -0.016294887 0.022003539 0.0060075913
-0.031505827 -0.019280553 0.025589805 -0.017796658 0.010233959 0.014260313 0.008348319 0.030283792
-0.0067224368 -0.027937397 -0.030491684 -0.02688423 -0.009433152 -0.026501974 0.03112249 -0.00886478
0.014935536 -0.025672393 0.012216743 -0.0063031185 -0.0138056725 0.020971656 5.467612e-05 0.021491922
-0.025995499 0.0058837677 0.020161597 -0.021751564 -0.013376267 -0.010335247 -0.009029846 -0.0063247913
0.0104370415 0.009145103 0.012035338 -0.0048194076 -0.015842445 0.017734256 0.006694788 -0.023347436
0.020237526 0.030697918 0.0058487416 -0.018853266 -0.014278189 -0.020495709 -0.0078962445 -0.01942925
-0.017708912 -0.023699773 -0.01360547 0.026156062 -0.013758616 -0.01606512 0.010640074 0.024148434
0.013880568 -0.0066001685 0.011609795 -0.018094141 0.006270561 0.00014138379 -0.0006200819 0.016067214
0.022217503 -0.0035788263 -0.019943636 -0.012806865 0.025935713 0.02216375 0.0035390249 0.02854047
0.01258008 -0.024559405 -0.001173426 -0.013681838 -0.017139256 -0.006042851 0.0024516773 0.029759835
0.009018613 -0.021105925 0.01689947 0.013968924 -0.0057394085 0.010452733 -0.0011743959 0.010866584
-0.027960079 0.002383157 -0.0074181324 -0.025567735 -0.029008016 0.02436886 -0.022202305 -0.006247168
-0.025647892 0.011450574 -0.03046069 -0.01977051 -0.013263755 -0.021574846 0.0020954122 0.026498038
0.0011122947 0.019231752 0.03166308 -0.0069789873 0.005565701 -0.02665217 0.00046020592 -0.01123644
-0.027815154 0.02834088 -0.028219983 -0.020712908 -0.013911502 0.0010105917 -0.013955112 -0.019355208
-0.018274484 0.0018134034 -0.025838979 0.0032417444 0.011482302 0.012711068 -0.001929486 0.019183222
-0.026163567 0.021428483 0.013657652 0.002284866 0.019254677 0.006941877 -0.007978741 -0.010743472
0.01642989 0.007857778 0.008983385 0.019833023 -0.012580306 0.022640994 -0.010219049 -0.0022100774
-0.025316173 -0.019867133 0.027392453 -0.026891006 -0.016248202 0.0151723325 0.019265682 0.026830083
-0.006334436 0.029492183 0.023888689 0.023969438 -0.012018728 -0.02593536 0.0107621625 -0.008867108
0.030480966 0.022768537 -0.0025391257 0.004461676 0.024024319 0.0002940048 0.015890298 -0.0025017026
00000000: 1dc4 6fbc 7d92 b3bc b0be 46bc b9ab bf3c
00000010: fcf0 973c 0301 823c 0062 673b 5331 2c3c
00000020: 9f56 b73c ae4f da3c 49a0 55bb 1521 96bc
00000030: fdff 123c a44f 89bc fa70 e93b 32c6 a338
00000040: 8af5 863c 3cee 83bc 9302 aa3b 032b f0ba
00000050: 3872 763c 4c28 b83c a3f5 c03c 4478 82bc
00000060: 64cd 353a 8262 63bc eec6 02bd fbf6 b83c
00000070: 96a7 e63c a727 003d b108 233c 5003 37bc
00000080: 1fad e03b 1d26 10bc 33df ff3c d294 d8bc
00000090: 30c2 91bc 591a 003d ced4 993c 27ad 803c
000000a0: 1a70 b23b f6ff 75ba 6ee9 ad3c 1c0a 06bc
000000b0: 0049 8d3c 2024 02bc 2ba3 ed3a 2d88 c33c
000000c0: 5024 d4bb 77e4 ddbc 94ef 9bbc e58f a7bc
000000d0: 606c 4e3c 0f03 87bc 9225 94bc 7406 613b
000000e0: 48a3 033d 2f74 b5bc 19d3 bf3c 3b4f 99bb
000000f0: cfd3 f33c caa6 dcbc af91 9e3c 6700 e0bc
00000100: c280 de3c 1e43 c73c 217b d93c a8ab c73c
00000110: 2351 1d3c 9fa1 dc3c b1db 9bbc bd35 bf3b
00000120: 8375 6fbc 3882 063c 41ba 003c daf9 f3b9
00000130: 9c11 3fbc 9753 00bd 63a0 02bd 0b0e 6fbc
00000140: 62ac 173c abc6 a4bb cba1 893c fef3 153c
00000150: 14cd 993c db7c 85bc c440 b43c 54db c43b
00000160: 410c 01bd 40f2 9dbc b6a1 d13c 4cca 91bc
00000170: 56ac 273c 16a4 693c 63c7 083c b715 f83c
00000180: e347 dcbb f8dc e4bc b2c9 f9bc 513c dcbc
00000190: 828d 1abc ab1a d9bc 98f4 fe3c 953d 11bc
000001a0: 2eb4 743c e94e d2bc bc28 483c 648a cebb
000001b0: 3031 62bc c0cc ab3c 0954 6538 d40f b03c
000001c0: 83f4 d4bc 9fcc c03b ef29 a53c 5630 b2bc
000001d0: 2128 5bbc 2b55 29bc ebf1 13bc 3240 cfbb
000001e0: 2000 2b3c 58d5 153c de2f 453c 1fec 9dbb
000001f0: 04c8 81bc 6e47 913c f45f db3b 1f43 bfbc
00000200: 2bc9 a53c 337a fb3c cda6 bf3b 2a72 9abc
00000210: 11ef 69bc 9ee6 a7bc 405f 01bc 172a 9fbc
00000220: 4812 91bc 0726 c2bc 7ae9 5ebc 3d45 d63c
00000230: d16b 61bc 009b 83bc b453 2e3c f0d2 c53c
00000240: 526b 633c 3a46 d8bb 0237 3e3c 2a3a 94bc
00000250: 4779 cd3b 6c40 1439 fe8c 22ba 649f 833c
00000260: 7b01 b63c be8a 6abb d660 a3bc e3d3 51bc
00000270: 2277 d43c c190 b53c fcee 673b b4cd e93c
00000280: ae1c 4e3c ce30 c9bc a5cd 99ba ca29 60bc
00000290: a067 8cbc 1c03 c6bb 52ac 203b e6ca f33c
000002a0: cec2 133c 55e6 acbc c270 8a3c eadd 643c
000002b0: a611 bcbb f141 2b3c 30ee 99ba c209 323c
000002c0: 890c e5bc bd2e 1c3b ce13 f3bb 6d73 d1bc
000002d0: 38a2 edbc 34a1 c73c 9ce1 b5bc 0bb5 ccbb
000002e0: 871b d2bc 309b 3b3c b288 f9bc c4f5 a1bc
000002f0: 3850 59bc bbbd b0bc 2f53 093b 6a12 d93c
00000300: 6bca 913a e88b 9d3c 25b1 013d fdaf e4bb
00000310: 7c60 b63b a755 dabc cb47 f139 0c19 38bc
00000320: 9bdc e3bc 222b e83c 982d e7bc 1eae a9bc
00000330: 12ed 63bc d575 843a fba3 64bc d08e 9ebc
00000340: 5fb4 95bc b9af ed3a 44ac d3bc 7273 543b
00000350: 4420 3c3c 1542 503c cfe6 fcba 2226 9d3c
00000360: fa54 d6bc c98a af3c 58c4 5f3c b1bd 153b
00000370: fcbb 9d3c af78 e33b 44b9 02bc 6305 30bc
00000380: fa97 863c e9bd 003c 0c2f 133c dd78 a23c
00000390: a11d 4ebc 9b79 b93c cc6d 27bc f2d6 10bb
000003a0: dd63 cfbc 66c0 a2bc 2366 e03c 874a dcbc
000003b0: f31a 85bc 6095 783c 10d3 9d3c c3ca db3c
000003c0: 1a91 cfbb 9799 f13c 36b2 c33c 8e5b c43c
000003d0: 33ea 44bc 6476 d4bc c853 303c 5947 11bc
000003e0: 38b3 f93c 1585 ba3c 7667 26bb 4033 923b
000003f0: a6ce c43c a824 9a39 5f2c 823c 9bf3 23bb

fc1.0.bias f4 [80]
0.030388648 0.02292497 -0.02626522 0.013740892 0.009295932 -0.019889614 -0.02240487 -0.022541177
-0.029510763 -0.021628624 -0.0118011525 -0.012074119 -0.019650644 0.029549934 0.009972368 0.0039319275
-0.031790257 -0.01292051 -0.011698219 -0.014234978 -0.022189926 0.0045908336 -0.013742856 0.0063976627
-0.014739606 0.0022288288 0.027093023 0.00022653572 0.0046070158 -0.0068749464 -0.0073909024 -0.014833495
-0.028103618 -0.02913178 -0.03257196 -0.029630356 0.031121999 -0.018703535 0.009785814 -0.018225035
-0.029285848 -0.0078406865 -0.0065684845 -0.012401338 -0.0046719294 0.0074817897 0.015535375 0.003813845
0.008351566 0.016077032 0.013235556 0.01464418 0.029730046 0.0001737822 -0.01820944 -0.0066735386
-0.030145863 0.020991191 -0.032506976 -0.032266416 -0.021949898 -0.011220957 0.027178276 0.0130994655
-0.005034969 0.023587685 -0.014730227 0.011104274 -0.01605415 -0.01096583 -0.0209846 0.008057339
0.02590473 0.009397635 0.004530551 -0.014175442 0.02229473 0.014108464 0.0015116753 0.0057801413
00000000: 9df1 f83c 26cd bb3c 292a d7bc 7a21 613c
00000010: f74d 183c 8bef a2bc 6b8a b7bc 46a8 b8bc
00000020: 8ec0 f1bc 832e b1bc 9f59 41bc 87d2 45bc
00000030: 63fa a0bc b412 f23c 2563 233c 66d7 803b
00000040: 8036 02bd 8cb0 53bc e3a9 3fbc d339 69bc
00000050: a6c7 b5bc b46e 963b b729 61bc 7ca3 d13b
00000060: 637e 71bc 8b11 123b 30f2 dd3c 388a 6d39
00000070: 73f6 963b 3b47 e1bb 622f f2bb 3008 73bc
00000080: 8f39 e6bc c5a5 eebc 2d6a 05bd 5cbb f2bc
00000090: 90f3 fe3c 2838 99bc ae54 203c ab4c 95bc
000000a0: e0e8 efbc 3976 00bc 713c d7bb fb2e 4bbc
000000b0: fc16 99bb cd29 f53b 1688 7e3c b4f1 793b
000000c0: 02d5 083c fbb3 833c f2d9 583c 25ee 6f3c
000000d0: 6d8c f33c 4e39 3639 f72b 95bc b3ad dabb
000000e0: 75f4 f6bc b8f5 ab3c 0926 05bd ca29 04bd
000000f0: 46d0 b3bc 1bd8 37bc faa4 de3c 249f 563c
00000100: 62fc a4bb f63a c13c 0d57 71bc b3ee 353c
00000110: fe83 83bc 06aa 33bc e5e7 abbc ee02 043c
00000120: 2836 d43c 8af8 193c 0475 943b 1d40 68bc
00000130: 70a3 b63c 3027 673c 6823 c63a 5767 bd3b

out.weight f4 [40, 80]
-0.07296511 0.04126599 0.05870456 0.0014752833 -0.05970151 -0.05736736 -0.016962083 0.01708735
-0.10875429 0.05142507 0.011531351 -0.10380236 0.03625346 -0.08522565 0.016838705 0.009280994
0.1115811 0.039975286 -0.06509311 0.025893541 -0.11082882 -0.03750819 -0.031057518 0.10479054
0.095641434 0.10703075 -0.04009065 0.11042308 -0.011778877 -0.009845719 -0.10555912 0.021070635
-0.03756857 -0.035196535 0.016760543 -0.063418515 0.08338623 0.067320205 -0.03618037 -0.07199621
-0.09292085 0.011863337 0.07116323 -0.025099954 0.03220196 -0.033125207 0.021497384 0.0037186653
0.046694465 -0.075196475 0.035230316 -0.037869476 0.04954866 0.0008836245 0.02800403 0.08494028
-0.08597849 -0.08069134 0.049922545 -0.07388745 -0.056269746 0.09901908 0.027699737 0.06495311
-0.023296297 0.029933505 0.09371322 0.07041432 0.016118113 0.083326384 0.03637664 0.08911912
-0.020432726 -0.07813834 -0.005205466 0.049346857 0.013586186 -0.07609301 -0.038379475 -0.09958324
0.0579504 -0.06584057 0.102784656 -0.091463044 0.016127141 -0.038517397 0.0316777 0.090158954
-0.07717253 -0.032461535 -0.031154918 -0.059273083 -0.08351683 0.034711797 0.057634432 0.08422505
-0.053046882 0.060432196 -0.105529584 -0.07049356 -0.048547544 -0.006261653 -0.07013305 -0.0046036392
-0.04721881 0.076971576 0.11091322 -0.0002122443 0.10479335 -0.0607187 -0.025222708 -0.041166626
0.08706322 -0.0688086 -0.09180159 0.100355536 -0.0037900931 0.08211683 -0.08060852 0.07698774
0.04404232 0.037833452 -0.048618298 0.050079606 -0.093434274 0.029641777 0.08627817 -0.06466769
0.016804121 0.008483569 -0.11041383 -0.08719636 -0.04050526 0.097051956 0.011238101 -0.012594854
-0.053515207 0.06652781 -0.072909914 -0.107786946 -0.040435657 0.024491526 -0.07747318 0.07499265
-0.040686745 -0.055463277 -0.10854798 0.024387212 0.043043766 0.049161162 -0.07038918 0.016414896
0.031927846 0.037232913 -0.11057676 0.07952254 0.08823679 -0.05742186 -0.08123613 0.071328625
0.026243214 0.05540245 0.081518896 0.004698813 -0.019983806 -0.04507108 0.079603195 -0.08783183
0.057647195 -0.06925795 -0.030376581 -0.07962735 0.060865343 -0.11024184 -0.07057659 -0.095377736
-0.052990444 0.011756309 -0.062301066 -0.101994514 -0.06348138 -0.061030492 0.011942723 0.025295362
-0.057771973 -0.09373745 -0.046079222 0.0016655988 0.030890038 0.08068095 -0.06604084 -0.0041942825
0.03704946 0.03983496 -0.06299876 -0.079437666 0.0628589 -0.043926958 -0.027390253 0.004345304
0.08119468 -0.08398528 0.046456706 -0.03288184 -0.029701374 0.0147033185 0.032020617 -0.04139312
0.039043464 -0.09217378 0.010654061 -0.03274907 0.06585136 0.0132617075 -0.076870315 -0.107344836
-0.0016162894 -0.085739866 0.07432793 0.09450648 -0.07578896 -0.082333304 0.01961257 -0.09384969
0.08898839 0.017965402 -0.09326774 -0.021876192 0.049689207 -0.058827266 0.09841177 0.028174123
0.07310309 -0.089347154 -0.096793935 0.019578496 -0.014283098 0.013472173 0.054223403 0.05537975
0.06766975 -0.031596843 -0.0059758597 0.083852716 0.07055423 0.095719025 0.096232735 0.05639178
0.0013917311 0.09348673 -0.06812722 0.04981276 0.018021127 -0.070110075 0.033192985 0.055616748
00000000: bb6e 95bd 8706 293d 3174 703d 4b5e c13a
00000010: 9289 74bd 09fa 6abd 11f4 8abc c5fa 8b3c
00000020: 92ba debd 18a3 523d feed 3c3c 5596 d4bd
00000030: 827e 143d c98a aebd 53f1 893c 4f0f 183c
00000040: a284 e43d 20bd 233d 894f 85bd b11e d43c
00000050: 38fa e2bd 30a2 19bd 566c febc 6c9c d63d
00000060: a8df c33d f032 db3d 1836 24bd 7f25 e23d
00000070: 31fc 40bc f04f 21bc 612f d8bd 539c ac3c
00000080: 80e1 19bd 3e2a 10bd 684d 893c 91e1 81bd
00000090: 66c6 aa3d 2ddf 893d de31 14bd c072 93bd
000000a0: 494d bebd 715e 423c 07be 913d 6b9e cdbc
000000b0: 34e6 033d 4cae 07bd 481b b03c dab4 733b
000000c0: b242 3f3d 9c00 9abd aa4d 103d 061d 1bbd
000000d0: 89f3 4a3d 09a3 673a b568 e53c 2bf5 ad3d
000000e0: 7e15 b0bd 8041 a5bd 957b 4c3d 4e52 97bd
000000f0: 1b7b 66bd 84ca ca3d 8fea e23c 2306 853d
00000100: e0d7 bebc 1c37 f53c b7ec bf3d 6235 903d
00000110: 220a 843c 06a7 aa3d acff 143d 1684 b63d
00000120: 8862 a7bc fe06 a0bd 9d92 aabb ee1f 4a3d
00000130: 9898 5e3c a7d6 9bbd cc33 1dbd 4cf2 cbbd
00000140: 665d 6d3d 6cd7 86bd c380 d23d fa50 bbbd
00000150: 111d 843c 6bc4 1dbd 7ac0 013d 42a5 b83d
00000160: a20c 9ebd 63f6 04bd 9938 ffbc 55c8 72bd
00000170: df0a abbd f52d 0e3d 1512 6c3d 2f7e ac3d
00000180: b047 59bd c087 773d e51f d8bd ed5e 90bd
00000190: cad9 46bd 8d2e cdbb eba1 8fbd 20da 96bb
000001a0: 8368 41bd 46a3 9d3d 7826 e33d e58d 5eb9
000001b0: e59d d63d 2cb4 78bd da9f cebc 569e 28bd
000001c0: 344e b23d 86eb 8cbd 7902 bcbd 3487 cd3d
000001d0: 3663 78bb de2c a83d 1416 a5bd c0ab 9d3d
000001e0: b865 343d 40f7 1a3d fb23 47bd 4620 4d3d
000001f0: 785a bfbd 50d3 f23c 9cb2 b03d 7e70 84bd
00000200: cca8 893c abfe 0a3c a520 e2bd 0194 b2bd
00000210: d8e8 25bd 2dc3 c63d 0320 383c a65a 4ebc
00000220: c332 5bbd bc3f 883d cb51 95bd 67bf dcbd
00000230: dc9f 25bd 74a2 c83c 42aa 9ebd bf95 993d
00000240: 25a7 26bd 762d 63bd 674e debd b1c7 c73c
00000250: a94e 303d 375d 493d 3428 90bd 8878 863c
00000260: c6c6 023d 8a81 183d 1176 e2bd b7dc a23d
00000270: 7db5 b43d 2f33 6bbd 215f a6bd be14 923d
00000280: 02fc d63c aeed 623d 61f3 a63d 80f8 993b
00000290: 14b5 a3bc 749c 38bd 0007 a33d 2de1 b3bd
000002a0: 771f 6c3d 1dd7 8dbd 4fd8 f8bc aa13 a3bd
000002b0: f04d 793d 79c6 e1bd 768a 90bd 6755 c3bd
000002c0: 820c 59bd 899d 403c 672f 7fbd 80e2 d0bd
000002d0: 8702 82bd 1cfb 79bd 69ab 433c 3838 cf3c
000002e0: 4ea2 6cbd 6cf9 bfbd 91bd 3cbd 3950 da3a
000002f0: 1b0d fd3c 0e3c a53d 6c40 87bd 3170 89bb
00000300: 2dc1 173d fc29 233d 7e05 81bd 37b0 a2bd
00000310: 2bbc 803d c1ec 33bd 8661 e0bc 0d63 8e3b
00000320: 6549 a63d 7900 acbd 6349 3e3d 1caf 06bd
00000330: 4c50 f3bc 30e6 703c 0d28 033d d58b 29bd
00000340: 0aec 1f3d 9bc5 bcbd 5f8e 2e3c e423 06bd
00000350: 14dd 863d a247 593c 2f6e 9dbd 9cd7 dbbd
00000360: acd9 d3ba 6298 afbd 3e39 983d 9d8c c13d
00000370: 3e37 9bbd 5d9e a8bd 8aaa a03c 4434 c0bd
00000380: 8c3f b63d 2e2c 933c 2803 bfbd b335 b3bc
00000390: e986 4b3d dcf4 70bd 1c8c c93d 6bcd e63c
000003a0: 13b7 953d a4fb b6bd e63b c6bd 1563 a03c
000003b0: a803 6abc 64ba 5c3c 5c19 5e3d e0d5 623d
000003c0: 7096 8a3d b16b 01bd 25d1 c3bb f9ba ab3d
000003d0: bc7e 903d 5608 c43d ab15 c53d 11fb 663d
000003e0: bf6a b63a f875 bf3d 4986 8bbd 7708 4c3d
000003f0: 0ba1 933c df95 8fbd 5ef5 073d 63ce 633d

out.bias f4 [40]
-0.04426797 0.09573573 0.023637429 -0.045151964 -0.0130814025 -0.043917876 0.09445807 -0.09149307
0.02996678 -0.06390435 0.088036686 0.034344252 0.010556299 -0.020417994 0.0737123 0.09775127
0.0685295 -0.07717137 -0.032040183 -0.054885946 0.07580239 -0.025797969 -0.049928613 0.003872129
-0.031903993 -0.061701607 -0.015908794 -0.0074342955 -0.0052330443 -0.09854846 -0.012895052 -0.02757045
-0.021350402 0.041869756 -0.08279591 -0.037877705 0.030603629 0.051098276 -0.019058028 0.09569235
00000000: 5552 35bd 1811 c43d 48a3 c13c 44f1 38bd
00000010: 6153 56bc 3be3 33bd 3c73 c13d b860 bbbd
00000020: e57c f53c 49e0 82bd 944c b43d 8fac 0c3d
00000030: 54f4 2c3c a343 a7bc 79f6 963d d131 c83d
00000040: 3259 8c3d 060c 9ebd 913c 03bd 16d0 60bd
00000050: 493e 9b3d 4356 d3bc f281 4cbd 8bc3 7d3b
00000060: c3ad 02bd d3ba 7cbd 2953 82bc 649b f3bb
00000070: f579 abbb c6d3 c9bd c545 53bc 6ddb e1bc
00000080: 0ae7 aebc 9f7f 2b3d e790 a9bd a725 1bbd
00000090: 76b4 fa3c 6d4c 513d 951f 9cbc 5afa c33d
