models/270000params34.pth (torch, 607751 bytes, 10 tensors)

conv1.0.weight f4 [32, 4, 2, 2]
-0.2334432 -0.08494999 0.19643927 -0.16208445 0.18838567 0.07373307 0.17328793 -0.23245762
-0.015280084 0.09085981 0.25064492 0.15091845 -0.095847435 -0.23506922 0.16077404 0.21843837
0.2617092 0.22895984 -0.076118775 0.111839175 0.11795115 -0.113036595 0.22203894 -0.061906952
0.23729579 -0.1402279 0.23652706 -0.09700026 -0.06481025 -0.103396386 -0.13510375 -0.0500256
0.03387928 0.26951832 -0.1721728 -0.025783164 0.07004954 0.13559066 0.024150502 0.026204456
0.017633766 -0.06013327 0.045698263 -0.23726971 0.24127114 -0.09075692 0.11462218 0.04473681
-0.033036094 0.23823147 -0.011986897 0.021614876 -0.17077374 -0.07372214 -0.18049616 -0.11675084
0.31055146 -0.17855217 0.01044379 -0.08692768 -0.05865795 0.23376682 0.11286196 0.22206627
0.020460881 -0.016029136 -0.10493934 0.1793011 0.1553855 0.11095731 -0.0393146 0.21074885
-0.053417347 -0.21510395 -0.17944357 0.035292394 0.16772588 -0.12612723 0.20244773 -0.044696268
-0.24259679 0.07733841 0.008540594 -0.09648528 0.20775205 -0.24951935 0.012260917 -0.21139331
0.002973714 0.097208746 0.172191 0.037878882 -0.0891476 -0.022040894 0.19301891 0.21238612
0.07250316 -0.16226275 0.02810182 0.14051111 -0.24978068 0.037308767 0.1656702 0.108743176
0.035239507 0.0482123 0.19237441 -0.08581813 0.00985305 0.108976245 0.009242633 -0.12185213
0.19902922 0.031311292 0.1899302 -0.029461209 0.039899386 0.2510819 0.015840668 -0.2378281
0.032935925 -0.2517308 0.014520991 0.0891873 -0.026156023 0.17261185 -0.19154334 -0.18637724
0.1823638 0.21593785 0.101706974 0.23571022 0.09998545 -0.19298707 -0.21068135 -0.1557391
-0.12695146 0.020775842 0.042983588 -0.04530902 -0.102167346 -0.140608 0.058164086 -0.0861965
0.054928657 0.21372485 -0.23293088 0.22659819 -0.054960012 -0.2204137 -0.06739759 0.093961015
0.065775946 0.03358509 -0.2229051 0.0733229 0.25415957 0.2255913 0.0054810736 -0.20190303
0.24586399 0.053386237 -0.084207036 0.261982 0.13626797 0.13510743 0.16026841 0.2557157
0.22673164 -0.01781333 0.1284973 -0.18858235 -0.13969262 0.118577845 -0.16796808 -0.032125697
-0.15988906 0.13661344 -0.2140104 -0.06573567 -0.048918836 -0.03379587 -0.22682004 -0.16645733
-0.05408157 -0.20277725 0.2803656 0.040640634 0.11893886 0.18678166 -0.20357203 -0.1641704
-0.16684216 0.22490574 -0.058139082 0.19217324 0.034234293 0.22874455 0.2156223 -0.15697245
-0.113480076 0.23502159 -0.13968255 0.2644109 0.24677622 0.20260926 0.053541396 -0.008327219
0.14788216 -0.04578954 0.09521705 0.18795104 0.20000184 -0.144997 0.04636143 0.06969346
-0.053239144 -0.073034324 -0.055750392 -0.20316486 0.1439806 0.11531825 0.16639845 0.06124683
-0.2600243 -0.096576564 0.028207209 -0.2505325 -0.028649075 -0.020903176 0.11259126 -0.21387018
-0.1778822 0.2515856 0.03580024 0.104661874 0.025297057 0.23403423 0.1488668 -0.059898883
0.161692 0.217545 0.17747855 0.25814968 -0.16979977 0.16246404 0.046846367 0.16592531
0.2520957 0.113207646 -0.115996115 0.1981319 0.22654408 -0.13136138 0.13549289 -0.053776912
00000000: bc0b 6fbe 43fa adbd 6027 493e 77f9 25be
00000010: 2ce8 403e 5d01 973d 6472 313e 5f09 6ebe
00000020: 5159 7abc b514 ba3d 8854 803e 5e8a 1a3e
00000030: a94b c4bd fcb5 70be f3a1 243e 4fae 5f3e
00000040: c0fe 853e 7374 6a3e 29e4 9bbd f00b e53d
00000050: 5f90 f13d bb7f e7bd 2d5e 633e 2592 7dbd
00000060: abfd 723e e797 0fbe 2634 723e 13a8 c6bd
00000070: 3dbb 84bd 7cc1 d3bd a358 0abe a5e7 4cbd
00000080: 00c5 0a3d 4efe 893e 114e 30be 3737 d3bc
00000090: 2276 8f3d 47d8 0a3e 46d7 c53c baaa d63c
000000a0: b074 903c 4e4e 76bd 1a2e 3b3d d5f6 72be
000000b0: c80f 773e c4de b9bd 09bf ea3d f23d 373d
000000c0: db50 07bd f3f2 733e b164 44bc ae11 b13c
000000d0: 50df 2ebe a2fb 96bd fcd3 38be 101b efbd
000000e0: 9a00 9f3e 61d6 36be 6e1c 2b3c 2407 b2bd
000000f0: 5243 70bd 9260 6f3e 2c24 e73d 5765 633e
00000100: 949d a73c 894f 83bc 70ea d6bd b59a 373e
00000110: 601d 1f3e 963d e33d 5908 21bd 8cce 573e
00000120: 26cc 5abd 3644 5cbe 0ec0 37be c28e 103d
00000130: 55c0 2b3e 7f27 01be 754e 4f3e 6f13 37bd
00000140: 4b6b 78be 9a63 9e3d d9ed 0b3c 139a c5bd
00000150: f4bc 543e 0082 7fbe 03e2 483c 7d77 58be
00000160: a4e2 423b 6115 c73d d652 303e e326 1b3d
00000170: 0493 b6bd 1b8f b4bc c0a6 453e bf7b 593e
00000180: 897c 943d 3528 26be ca35 e63c 25e2 0f3e
00000190: 82c6 7fbe 14d1 183d 73a5 293e beb4 de3d
000001a0: 4d57 103d 437a 453d ccfd 443e 6ac1 afbd
000001b0: b06e 213c f02e df3d 6a6e 173c 9c8d f9bd
000001c0: 51ce 4b3e 4540 003d 107d 423e a258 f1bc
000001d0: 8a6d 233d cf8d 803e 4ac4 813c 3689 73be
000001e0: d2e7 063d dce2 80be 73e9 6d3c d5a7 b63d
000001f0: 2845 d6bc 29c1 303e f023 44be add9 3ebe
00000200: 93bd 3a3e d01e 5d3e bf4b d03d 055e 713e
00000210: 2cc5 cc3d 679e 45be dabc 57be 127a 1fbe
00000220: 90ff 01be 1932 aa3c 8f0f 303d f395 39bd
00000230: 1d3d d1bd 8bfb 0fbe 773d 6e3d ca87 b0bd
00000240: dffc 603d b0da 5a3e 6f85 6ebe 5b09 683e
00000250: c01d 61bd 21b4 61be bf07 8abd a26e c03d
00000260: 8ab5 863d 8590 093d 3c41 64be 512a 963d
00000270: 3421 823e 6801 673e 949a b33b abbf 4ebe
00000280: c5c3 7b3e 87ab 5a3d bd74 acbd 8122 863e
00000290: d589 0b3e 9a59 0a3e 671d 243e 2bed 823e
000002a0: 572c 683e 43ed 91bc cc94 033e bb1b 41be
000002b0: 950b 0fbe f1d8 f23d d3ff 2bbe 3c96 03bd
000002c0: f5b9 23be 65e4 0b3e 8b25 5bbe 6ca0 86bd
000002d0: 1e5f 48bd 8a6d 0abd 8343 68be ca73 2abe
000002e0: a384 5dbd d7a4 4fbe 148c 8f3e cb76 263d
000002f0: 3896 f33d b143 3f3e 3075 50be 491c 28be
00000300: acd8 2abe b14d 663e 3f23 6ebd 10c9 443e
00000310: 4239 0c3d 033c 6a3e 18cc 5c3e 63bd 20be
00000320: 3e68 e8bd 80a9 703e f108 0fbe de60 873e
00000330: e8b2 7c3e cd78 4f3e 394e 5b3d e36e 08bc
00000340: 6c6e 173e d08d 3bbd 2801 c33d 3d76 403e
00000350: 48cd 4c3e 187a 14be 7ce5 3d3d 72bb 8e3d
00000360: 4a11 5abd 0593 95bd 865a 64bd 730a 50be
00000370: a76f 133e fa2b ec3d 5b64 2a3e f5dd 7a3d
00000380: e821 85be efc9 c5bd ce12 e73c cc45 80be
00000390: 77b1 eabc 233d abbc 3f96 e63d c900 5bbe
000003a0: c026 36be d4cf 803e 46a3 123d f758 d63d
000003b0: c63b cf3c aba6 6f3e 8a70 183e 8858 75bd
000003c0: 9692 253e 1ec4 5e3e f0bc 353e 322c 843e
000003d0: fedf 2dbe f95c 263e fae1 3f3d 53e8 293e
000003e0: b012 813e 69d9 e73d 5f8f edbd 17e3 4a3e
000003f0: 2cfb 673e 9983 06be a6be 0a3e 2e45 5cbd

conv1.0.bias f4 [32]
0.28955072 -0.059205834 0.19155589 -0.104741104 0.16479063 0.077604584 0.2987067 0.01585922
0.27647352 0.17664438 0.3366904 0.33520865 0.23922735 -0.06339749 -0.15596515 -0.14759563
0.121638484 -0.124348916 0.044215973 -0.10779081 -0.022728892 -0.09263248 0.078133054 0.28190172
0.2401718 -0.12380597 0.13330577 0.16750184 0.19230822 0.06539738 -0.05048641 0.22005701
00000000: fe3f 943e d181 72bd 3a27 443e 8182 d6bd
00000010: e0be 283e 27ef 9e3d 16f0 983e 32eb 813c
00000020: f08d 8d3e 44e2 343e af62 ac3e 78a0 ab3e
00000030: 04f8 743e 8bd6 81bd 54b5 1fbe 4f23 17be
00000040: 991d f93d a5aa febd cf1b 353d 6ec1 dcbd
00000050: f131 babc 19b6 bdbd 3904 a03d 6c55 903e
00000060: 99ef 753e fc8d fdbd 4f81 083e 9a85 2b3e
00000070: 72ec 443e 10ef 853d d6ca 4ebd a056 613e

conv2.0.weight f4 [64, 32, 4, 4]
0.021574631 0.08233116 0.081266165 0.016722415 0.06984075 0.027634848 0.044989266 0.021332584
0.034939118 0.025497517 0.038528796 0.05934669 0.026190927 0.025689522 0.04786345 0.015866267
0.03920303 0.042903826 0.032587145 0.050982 -0.0070349104 -0.034935694 0.04412254 0.029230323
-0.004049322 -0.030838605 -0.023104992 -0.025917111 -0.026413253 -0.022550777 -0.029030118 -0.007948507
0.08698294 0.0523324 0.027695712 -0.008996616 0.062739424 0.06772739 0.052203998 0.0075588296
0.02999549 0.005832027 0.03827094 0.03562429 0.04877181 0.066626176 0.06286687 -0.02060284
0.10933921 0.08593599 0.041373078 0.085898645 0.06524774 0.030648733 0.07137057 0.05606897
0.09753836 0.07723958 0.015340344 0.0010216971 0.026844071 0.0576196 0.04376008 0.034203514
0.09271164 0.008870959 0.06301235 0.0040748203 0.029739955 0.09458407 0.023424245 -0.0031425152
0.03690457 0.036874875 0.0031536527 0.07926204 0.015642162 0.023852035 0.07796633 0.014685993
0.104203105 0.018870303 0.028363818 0.037599534 0.06365378 0.086601876 0.08547183 0.023857089
0.07780262 0.015100557 0.022989307 0.019315502 0.029498579 0.010278617 0.038717255 0.025468275
0.05307008 0.062395252 0.06402119 0.057248 0.106185496 0.06831223 0.056775283 0.038732
0.08184391 0.06920457 0.063063204 0.10056431 0.046869572 0.08850972 0.016073545 0.07126174
0.03995933 0.08581983 0.072019644 0.06777913 0.0534161 0.020890892 0.020493766 0.047068093
0.024710596 0.048684593 0.045012698 0.012721019 0.052447494 0.031268165 0.02575777 -0.038810533
0.030895393 0.07890086 0.070362724 0.047627863 0.091999896 0.07380822 0.028506711 0.021014594
0.074831896 0.042253155 0.053305984 0.09536756 0.06480124 0.047012445 0.0722001 0.07400615
0.026090521 0.059819188 0.085823685 0.050400328 0.036818232 0.056172334 0.020232359 0.09215478
0.10388629 0.05933531 0.07364169 0.045992423 0.035339005 0.052187126 0.04317858 0.048981685
0.05328424 0.07125663 0.080582656 0.03029859 0.035930302 0.058866546 0.022746213 0.027386906
0.025192438 0.02736864 0.04258929 0.05269662 -0.0070081563 0.064953946 0.047536585 0.0639013
0.027623981 0.039075784 0.069572024 0.087177485 0.034230437 0.038265027 0.047213197 0.103492856
0.0693815 0.06567312 0.057857856 0.0693163 0.031977806 0.08478912 0.043660805 0.050629128
0.07517319 0.047050748 0.024713973 -0.005429559 0.015070883 0.06813182 -0.0003776261 0.042154774
0.048200585 0.023795497 0.004356954 -0.012629591 -0.013924445 0.046047777 -0.0019171132 -0.025309687
0.05250476 -0.026232697 0.008966366 -0.01715517 -0.02347865 0.04195791 -0.015866857 0.026730146
0.04039071 -0.008210037 0.041099913 -0.03309737 -0.0045647374 -0.029082514 -0.0016232898 0.020392148
0.058630336 0.018601954 0.07426858 -0.012003639 0.06489476 0.0211034 0.02927429 -0.02357563
0.011756143 0.065551944 0.04181979 0.0134794805 0.031453896 0.006675294 0.05106114 0.02563778
0.012720016 0.010055981 -0.008715979 0.013041071 -0.029146694 -0.028085323 0.0340112 0.032025427
0.043614857 0.007381588 -0.037912965 0.020807717 -0.026359461 -0.025609992 -0.04026464 -0.01424179
00000000: 48bd b03c 3d9d a83d e06e a63d 72fd 883c
00000010: ab08 8f3d 7a62 e23c aa46 383d acc1 ae3c
00000020: 521c 0f3d 2be0 d03c 5fd0 1d3d 8415 733d
00000030: 5b8e d63c d572 d23c 770c 443d f9f9 813c
00000040: 5b93 203d ecbb 2f3d 197a 053d 80d2 503d
00000050: 1b85 e6bb bb18 0fbd d6b9 343d 6e74 ef3c
00000060: 2db0 84bb 3ea1 fcbc ae46 bdbc 1f50 d4bc
00000070: 9b60 d8bc 68bc b8bc 92d0 edbc 743a 02bc
00000080: 1d24 b23d 805a 563d 1ee2 e23c 8b66 13bc
00000090: 877d 803d a8b4 8a3d dcd3 553d 0fb0 f73b
000000a0: 1ab9 f53c 971a bf3b fdc1 1c3d c7ea 113d
000000b0: f3c4 473d 4e73 883d 58c0 803d 4ac7 a8bc
000000c0: 3ced df3d 35ff af3d d176 293d a1eb af3d
000000d0: 9ba0 853d 0d13 fb3c bc2a 923d 94a8 653d
000000e0: 31c2 c73d c92f 9e3d 1156 7b3c 77ea 853a
000000f0: 19e8 db3c 8802 6c3d c53d 333d fc18 0c3d
00000100: 9adf bd3d 8057 113c 9e0c 813d 1286 853b
00000110: 35a1 f33c 4bb5 c13d 34e4 bf3c a8f2 4dbb
00000120: 3f29 173d 1c0a 173d 83ad 4e3b 2354 a23d
00000130: fe23 803c 5865 c33c d0ac 9f3d 859d 703c
00000140: 7068 d53d e595 9a3c 3d5b e83c f801 1a3d
00000150: ea5c 823d 535c b13d db0b af3d f16f c33c
00000160: fb56 9f3d 5468 773c 1254 bc3c 8b3b 9e3c
00000170: 01a7 f13c a567 283c fc95 1e3d d8a2 d03c
00000180: 0360 593d 2a92 7f3d 8b1d 833d e17c 6a3d
00000190: c877 d93d 48e7 8b3d 338d 683d 72a5 1e3d
000001a0: c89d a73d 20bb 8d3d 4827 813d a9f4 cd3d
000001b0: 4ffa 3f3d 9644 b53d abac 833c adf1 913d
000001c0: 65ac 233d 4fc2 af3d 097f 933d c9cf 8a3d
000001d0: d7ca 5a3d 6023 ab3c 8be2 a73c 79ca 403d
000001e0: e06d ca3c 7f69 473d 3c5f 383d d26b 503c
000001f0: 2fd3 563d 0c13 003d f501 d33c cbf7 1ebd
00000200: 5618 fd3c c696 a13d 551a 903d 6f15 433d
00000210: 716a bc3d c428 973d e886 e93c cc26 ac3c
00000220: 7741 993d a511 2d3d 6057 5a3d 1150 c33d
00000230: 83b6 843d 1f90 403d a5dd 933d 8990 973d
00000240: cabb d53c f704 753d 54c4 af3d 9370 4e3d
00000250: b7ce 163d f614 663d 55be a53c a5bb bc3d
00000260: 56c2 d43d 9509 733d 74d1 963d 8d62 3c3d
00000270: a2bf 103d 2bc2 553d 06dc 303d 05a1 483d
00000280: 9340 5a3d ffee 913d 8508 a53d c034 f83c
00000290: a72b 133d 0c1e 713d 4456 ba3c 815a e03c
000002a0: 5f60 ce3c 3334 e03c 1b72 2e3d 69d8 573d
000002b0: ada4 e5bb 9306 853d b9b5 423d afde 823d
000002c0: b04b e23c ee0d 203d c77b 8e3d 1c8a b23d
000002d0: 3735 0c3d cabb 1c3d a062 413d 10f4 d33d
000002e0: e317 8e3d a17f 863d 5cfc 6c3d b4f5 8d3d
000002f0: 29fb 023d eba5 ad3d acd5 323d 7d60 4f3d
00000300: 67f4 993d 49b8 403d f574 ca3c 71ea b1bb
00000310: ddeb 763c b288 8b3d 1efc c5b9 7caa 2c3d
00000320: fa6d 453d c6ee c23c c7c4 8e3b 58ec 4ebc
00000330: 5b23 64bc 989c 3c3d a547 fbba 4356 cfbc
00000340: 3b0f 573d f4e5 d6bc aae7 123c 0089 8cbc
00000350: 4c56 c0bc 0fdc 2b3d 36fb 81bc 2ef9 da3c
00000360: bb70 253d 6483 06bc 6258 283d 1c91 07bd
00000370: cb93 95bb 743e eebc 91c4 d4ba 6f0d a73c
00000380: 5d26 703d 2063 983c 201a 983d e9aa 44bc
00000390: 8be7 843d 0ae1 ac3c a3d0 ef3c ae21 c1bc
000003a0: d69c 403c 1940 863d 3a4b 2b3d 0ad9 5c3c
000003b0: cdd5 003d 6dbc da3b 7c25 513d 5206 d23c
000003c0: 9d67 503c d7c1 243c 77cd 0ebc 37aa 553c
000003d0: 0cc5 eebc 3113 e6bc 544f 0b3d 182d 033d
000003e0: 7ea5 323d 40e1 f13b a04a 1bbd f274 aa3c
000003f0: ccef d7bc 0ccc d1bc 89ec 24bd 6656 69bc

conv2.0.bias f4 [64]
0.1120187 0.073613696 0.05475616 0.058971304 0.12498209 0.09897511 0.06214365 0.069927916
0.07738516 0.092971504 0.06450029 0.10361491 0.07013151 0.081809804 0.07321475 0.095474824
0.09198224 0.096511245 0.1281296 0.058932114 0.0694411 0.07907819 0.07390909 0.054740302
0.11473404 0.09351852 0.12785399 0.13449445 0.084329605 0.087157555 0.067405425 0.055012
0.1258699 0.11150105 0.09897884 0.080651805 0.09746881 0.09457351 0.107995935 0.044532467
0.09401213 0.12072372 0.104461744 0.11045827 0.12050144 0.12408216 0.10791864 0.10497671
0.1375736 0.10417687 0.11869791 0.11228176 0.107589304 0.116390765 0.052919105 0.077277444
0.077057324 0.09132806 0.09151111 0.08224748 0.06838419 0.13185705 0.12764771 0.12683372
00000000: 0f6a e53d c7c2 963d ff47 603d e58b 713d
00000010: 9cf6 ff3d 76b3 ca3d 578a 7e3d 5e36 8f3d
00000020: 1c7c 9e3d d867 be3d ba18 843d 0e34 d43d
00000030: 1ca1 8f3d e68b a73d 9df1 953d 4e88 c33d
00000040: 2f61 bc3d b0a7 c53d 6834 033e cd62 713d
00000050: 2337 8e3d bff3 a13d a65d 973d 5e37 603d
00000060: aef9 ea3d a386 bf3d 28ec 023e eab8 093e
00000070: 00b5 ac3d a97f b23d db0b 8a3d 4354 613d
00000080: 0ae4 003e aa5a e43d 6bb5 ca3d c62c a53d
00000090: ba9d c73d c2af c13d f92c dd3d ad67 363d
000000a0: 6e89 c03d ff3d f73d 0af0 d53d f237 e23d
000000b0: 75c9 f63d ca1e fe3d 7304 dd3d 08fe d63d
000000c0: 18e0 0c3e af5a d53d e417 f33d fbf3 e53d
000000d0: c857 dc3d 485e ee3d b4c1 583d a343 9e3d
000000e0: 3bd0 9d3d 350a bb3d 2d6a bb3d 5e71 a83d
000000f0: 030d 8c3d 8905 073e 15b6 023e b3e0 013e

conv3.0.weight f4 [64, 64, 3, 3]
0.06747853 0.08842681 0.04394168 0.020618437 0.0711609 0.0042453194 0.0360738 0.0013779474
0.075393766 0.031429898 0.071715005 0.04105216 0.031166213 0.08313374 0.044587914 0.0718921
0.050990503 0.03297123 0.052015737 0.10702561 0.056364343 0.095857516 0.026180534 0.027509734
0.0058496566 0.06476411 0.013695899 0.026463654 0.0344326 -0.0029457395 0.022404129 0.06483855
0.03189098 0.027621197 0.06210397 0.021559969 0.0495101 0.08342362 0.04405623 0.037653174
0.021395251 0.038217995 0.07192607 0.03749562 0.031345554 0.03879012 0.038963992 0.00956518
0.064868055 0.051314972 0.018770108 0.074793816 0.058946334 0.042940192 0.09458503 0.073138386
0.024975365 0.102838084 0.07354391 0.051270258 0.06476909 0.013314248 0.008141881 0.11666221
0.113082804 0.055296082 0.05974187 0.049707193 0.048292916 0.05856588 0.022102851 0.036455017
0.095674165 0.052531928 0.07326234 0.03680076 0.08479595 0.0072217085 0.024129746 0.015593599
0.013310338 0.04763433 0.10905945 0.06449428 0.07906132 0.06429985 0.049275205 0.08598806
0.030309666 -0.007192387 0.0915784 0.030561196 0.082965344 0.061102655 0.08694269 0.03424309
0.01624912 0.052445173 0.02484667 0.034945227 0.04920276 0.07626034 0.09326026 0.02450906
0.033738006 0.08420805 0.07562849 0.0011543962 0.07330342 0.06416523 0.081708826 0.10425461
0.07512601 0.025635371 0.08620279 0.03483027 0.030509295 0.007045354 0.01419003 0.061208393
0.011959127 0.052545324 0.011117866 0.078546435 0.040483072 0.026081631 0.06278969 0.030044297
0.009691386 0.0044534835 0.03365195 0.0021660798 0.050859578 0.02001437 0.042902563 0.03600026
0.106169306 0.043261025 0.092113815 0.08637822 0.013670514 0.03752085 0.072117634 0.030078357
0.037155714 0.0803857 0.040885396 0.09406025 0.061019 0.0704347 0.08413656 0.051963888
0.059341285 0.08868255 0.07344923 0.056091722 0.041211706 0.029169431 0.031666182 0.068153076
-0.0013682797 -0.0026564319 0.09304307 0.06778976 0.07880468 0.033341493 0.037925404 0.026020877
0.033805877 0.059360158 0.023590298 0.07520601 0.06985011 0.070292994 0.07296012 0.016399935
0.001808203 0.06050603 0.04412537 0.028955217 0.10212902 0.101233974 0.047082074 0.033694085
0.05227628 0.0851124 0.025584163 0.018468298 -0.008802951 0.044421185 0.037279963 0.053475566
0.026729444 0.08552984 0.080092825 0.014758221 0.056730267 0.020732233 0.072911374 0.09159563
0.06139682 0.049824268 0.05850952 0.015257048 0.04766201 0.013660686 0.020091943 0.036887143
0.07600463 0.022801131 0.048130695 0.04390859 0.055732615 0.059743825 0.077578574 -0.00651918
0.05195833 0.03068309 0.035909604 0.100559466 0.014115338 0.07158485 0.013727411 0.03602921
0.05445448 0.05068285 0.07619459 0.022679575 0.06680026 0.046218827 0.024516203 0.08051385
0.021072874 0.034932602 0.10762927 0.10841679 0.044957355 0.09037252 0.019511404 0.068736605
0.06434167 0.04143288 0.054783326 0.10370166 0.052435603 0.08650087 0.063334465 0.01849613
0.009928382 0.01887855 0.01941279 0.011717608 0.08085178 0.108027436 0.0625931 0.07482243
00000000: 2f32 8a3d 1e19 b53d 31fc 333d ffe7 a83c
00000010: cebc 913d 521c 8b3b 1fc2 133d 3e9c b43a
00000020: 0c68 9a3d a3bc 003d 51df 923d 4f26 283d
00000030: 4950 ff3c 0642 aa3d d1a1 363d 2a3c 933d
00000040: 6bdb 503d d70c 073d 740e 553d 3e30 db3d
00000050: 4cde 663d f250 c43d 8f78 d63c 185c e13c
00000060: 7aae bf3b 0ca3 843d c464 603c 4eca d83c
00000070: 3309 0d3d 4f0d 41bb dd88 b73c 13ca 843d
00000080: 1ea0 023d d945 e23c bc60 7e3d 889e b03c
00000090: 1acb 4a3d 01da aa3d 4e74 343d 373a 1a3d
000000a0: 1845 af3c 798a 1c3d fa4d 933d 0295 193d
000000b0: 3264 003d 64e2 1e3d b598 1f3d 46b7 1c3c
000000c0: 8bd9 843d a62f 523d c5c3 993c 802d 993d
000000d0: b671 713d 0ee2 2f3d ccb5 c13d 94c9 953d
000000e0: 2399 cc3c c69c d23d 319e 963d c300 523d
000000f0: a8a5 843d 0124 5a3c 8665 053c 99ec ee3d
00000100: f597 e73d 257e 623d e4b3 743d c599 4b3d
00000110: cbce 453d c7e2 6f3d 0a11 b53c db51 153d
00000120: d1f0 c33d b82b 573d 910a 963d 65bc 163d
00000130: 80a9 ad3d 15a4 ec3b bfab c53c 4b7c 7f3c
00000140: 9b13 5a3c 371c 433d 905a df3d 9415 843d
00000150: e7ea a13d a4af 833d ccd4 493d 821a b03d
00000160: fa4b f83c 1dae ebbb 758d bb3d 795b fa3c
00000170: bce9 a93d c746 7a3d 020f b23d 7b42 0c3d
00000180: e01c 853c c0d0 563d 3e8b cb3c ba22 0f3d
00000190: d588 493d 622e 9c3d 3cff be3d 39c7 c83c
000001a0: dd30 0a3d 4575 ac3d 1ce3 9a3d 1c4f 973a
000001b0: 1a20 963d 0f69 833d f556 a73d 7183 d53d
000001c0: aadb 993d 4501 d23c 178b b03d 2faa 0e3d
000001d0: a1ee f93c b7dc e63b 4d7d 683c a7b5 7a3d
000001e0: 37f0 433c c439 573d b627 363c f4dc a03d
000001f0: 94d1 253d 25a9 d53c e297 803d 751f f63c
00000200: 9ec8 1e3c 87ee 913b a1d6 093d caf4 0d3b
00000210: 2252 503d 2df5 a33c 99ba 2f3d 0275 133d
00000220: 4b6f d93d 7932 313d 2ba6 bc3d 10e7 b03d
00000230: 4bfa 5f3c 76af 193d 69b2 933d e366 f63c
00000240: 9730 183d 42a1 a43d 7277 273d a9a2 c03d
00000250: 0fef 793d 1140 903d ca4f ac3d 16d8 543d
00000260: d90f 733d 329f b53d 8d6c 963d 6fc0 653d
00000270: 9bcd 283d bbf4 ee3c 66b4 013d d793 8b3d
00000280: d957 b3ba 8817 2ebb 5d8d be3d 5cd5 8a3d
00000290: 5964 a13d 1791 083d ab57 1b3d bc29 d53c
000002a0: 0878 0a3d a323 733d 7140 c13c 9c05 9a3d
000002b0: 930d 8f3d c6f5 8f3d 1e6c 953d 2859 863c
000002c0: 3901 ed3a 2cd5 773d cebc 343d 7e33 ed3c
000002d0: 0529 d13d c253 cf3d 22d9 403d cf02 0a3d
000002e0: a71f 563d 694f ae3d e195 d13c d44a 973c
000002f0: 413a 10bc fdf2 353d e0b2 183d 3209 5b3d
00000300: b5f7 da3c 452a af3d b507 a43d 77cc 713c
00000310: ff5d 683d a5d6 a93c 8f52 953d 7d96 bb3d
00000320: 3b7b 7b3d 8814 4c3d aea7 6f3d b3f8 793c
00000330: 3d39 433d 12d1 5f3c dc97 a43c f916 173d
00000340: 51a8 9b3d 70c9 ba3c b124 453d 7ed9 333d
00000350: e247 643d f1b5 743d 84e1 9e3d d89e d5bb
00000360: 42d2 543d 1b5b fb3c f315 133d 1ff2 cd3d
00000370: 0544 673c 149b 923d efe8 603c 5d93 133d
00000380: a90b 5f3d d298 4f3d e90b 9c3d 84ca b93c
00000390: 93ce 883d f44f 3d3d 34d6 c83c 72e4 a43d
000003a0: 05a1 ac3c 7d15 0f3d bc6c dc3d 9f09 de3d
000003b0: 3425 383d 3a15 b93d 61d6 9f3c c7c5 8c3d
000003c0: 91c5 833d 86b5 293d 7b64 603d 8961 d43d
000003d0: b7c6 563d 5e27 b13d 80b5 813d 3285 973c
000003e0: a7aa 223c 30a7 9a3c 9207 9f3c 36fb 3f3c
000003f0: 9e95 a53d 7d3d dd3d d030 803d 813c 993d

conv3.0.bias f4 [64]
0.0870247 0.052171286 0.11539747 0.117840186 0.10458956 0.045884773 0.058422893 0.10036693
0.09557069 -0.013815357 0.08673757 0.08094911 0.073532626 0.10270801 0.05923034 0.10705961
0.10633985 0.039730527 0.09794809 0.08071917 0.065870404 0.12529999 0.11649579 0.11930813
0.04904366 0.084797 0.12613042 0.09851983 0.118321225 0.06694017 0.12906624 0.06727064
0.051043388 0.114086695 0.062434185 0.08663208 0.089090146 0.07204536 0.1250871 0.09432678
0.118681036 0.106572196 0.088403106 0.056052886 0.10585827 0.116059914 0.10442628 0.06346044
0.10740349 0.12558064 0.058824774 0.064766325 0.1085485 0.12838604 0.11610055 0.107043795
0.073467 0.112312935 0.11009499 0.07285187 0.087570064 0.122624986 0.070989765 0.13027287
00000000: 023a b23d 8fb1 553d 8255 ec3d 3256 f13d
00000010: 0d33 d63d acf1 3b3d d84c 6f3d 2d8d cd3d
00000020: 91ba c33d cf59 62bc 78a3 b13d a6c8 a53d
00000030: 4698 963d 9458 d23d 839b 723d 1242 db3d
00000040: b5c8 d93d 7abc 223d 0299 c83d 1850 a53d
00000050: 10e7 863d a44e 003e 5895 ee3d d257 f43d
00000060: 01e2 483d 0daa ad3d 5528 013e c4c4 c93d
00000070: 6652 f23d ee17 893d f129 043e 30c5 893d
00000080: df12 513d 49a6 e93d fdba 7f3d 296c b13d
00000090: e574 b63d 858c 933d d516 003e 662e c13d
000000a0: 0b0f f33d 8642 da3d b00c b53d b697 653d
000000b0: 38cc d83d d2b0 ed3d 72dd d53d 8cf7 813d
000000c0: 5cf6 db3d 3698 003e 3ff2 703d 35a4 843d
000000d0: ad4e de3d a177 033e 20c6 ed3d c739 db3d
000000e0: de75 963d 5304 e63d 7b79 e13d 5c33 953d
000000f0: ef57 b33d cf22 fb3d 1563 913d 4066 053e

fc1.0.weight f4 [80, 970]
0.010137693 0.019350749 0.00045930615 -0.030223679 -0.021428404 0.009804794 -0.0011197147 -0.010218168
-0.005695691 -0.0091986 -0.024699736 0.025291298 -0.018524945 0.018988915 0.014680682 -0.0130413845
0.029128429 0.018212697 -0.02909054 0.021251703 -0.0034131617 0.016858364 -0.010268102 0.0056330734
0.017187383 0.008455698 0.028910948 -0.009571683 -0.016010487 0.016501993 -0.0005515167 -0.023324829
0.0074311877 -0.017639285 0.021283431 0.018685812 0.0019223628 0.006670231 0.00895033 -0.022108598
-0.029942116 -0.010877727 0.02218403 -0.021230752 -0.023539748 -0.014631801 -0.014086186 0.0032227132
-0.00045882748 -0.020351054 0.02578648 0.008690201 -0.0017070745 0.02575267 -0.011061089 -0.012520509
-0.011527604 -0.030834176 -0.0034854559 -0.013298773 0.013701416 -0.030582005 0.018716993 0.020397237
0.011971247 0.030030174 -0.02133819 7.9501646e-05 -0.009484359 0.0030770905 0.0019816528 -0.015714822
-0.0011839244 -0.026057167 -0.019442352 -0.01570805 0.025117993 -0.0016358041 0.014836302 -0.021304743
-0.00021069133 0.0022678976 -0.028773252 -0.026942844 0.010551311 -0.001932551 -0.033528242 0.022539848
-0.00073536317 0.0022009423 -0.020595897 0.008740581 -0.02108201 -0.012816988 -0.0034603914 -0.023857629
-0.004740925 0.01173605 0.011496343 0.022527056 0.016814621 0.004158441 0.012282584 -0.0027491737
0.008662722 0.008694078 -0.0018619052 -0.0060017155 0.025506709 0.0030800446 0.021118365 -0.005072848
-0.02597762 -0.009731719 0.012047359 0.022956895 -0.021815438 0.014446886 -0.009260942 0.024404937
-0.019268887 -0.017683085 0.00977146 0.00095075555 -0.021338407 -0.02081137 -0.0094687445 0.017667793
-0.016524645 -0.02233738 -0.024465146 -0.0064470773 -0.012535925 0.0291204 -0.017240837 0.0141837
0.021486051 0.025228588 -0.029616205 0.022812285 0.026890304 0.02819512 -0.03166579 0.006515857
-0.024236996 -0.027205942 0.006695062 0.02721798 0.0065697692 -0.012505673 -0.004298636 -0.024836188
0.023322726 -0.03159304 -0.013647951 0.016924242 0.027823683 -0.011048878 -0.028709045 0.011342114
0.0017423725 0.008445548 -0.025837047 0.0108674 0.022451181 -0.0033654722 -0.01757435 -0.018339742
0.0004677102 0.018476648 -0.019838408 -0.013409079 -0.012546154 0.019395778 0.0036925348 -0.0021673988
-0.010124969 0.028879525 -0.032249715 0.0069887717 -0.023801474 -0.026734019 -0.015275649 0.005653045
0.010180005 0.011163084 0.010072752 0.0020589675 0.028333167 0.0058511905 -0.0103327995 0.016910007
-0.0063940617 -0.016648684 0.02435229 -0.03505621 0.022678925 -0.014271845 -0.024339663 0.027526835
0.0014009865 0.016056767 0.009261947 0.008966989 -0.02609788 0.0061970097 -0.020031022 -0.02457803
0.018259062 -0.026048405 0.02547 -0.024649588 -0.004432941 0.022552429 -0.018480118 -0.0012972169
0.015034701 0.0069149123 0.006681481 0.027888754 -0.009186337 -0.017729834 0.006658271 0.023475591
0.012636837 0.019897616 0.026056154 0.009311609 0.0032239626 0.005490714 0.02454628 0.012664143
0.009827293 0.011236477 0.016750682 -0.0136426855 -0.026060807 -0.02283676 -0.007935141 0.023939138
0.022643428 -0.015035294 -0.004889381 -0.013353926 0.02942689 0.02196925 0.015949758 -0.023039479
-0.027599663 -0.029514797 -0.014870946 -0.026778117 -0.0017760847 0.007007888 -0.010985769 0.024137132
00000000: 9118 263c 7685 9e3c 07cf f039 a697 f7bc
00000010: 9f8a afbc 49a4 203c 64c3 92ba 1a6a 27bc
00000020: eba2 babb bab5 16bc 1a57 cabc b22f cf3c
00000030: a0c1 97bc a48e 9b3c 3e87 703c 88ab 55bc
00000040: be9e ee3c cb32 953c 494f eebc 0d18 ae3c
00000050: 5aaf 5fbb 8d1a 8a3c 8b3b 28bc a595 b83b
00000060: 8ecc 8c3c c589 0a3c a7d6 ec3c 8cd2 1cbc
00000070: 6d28 83bc 302f 873c a993 10ba b613 bfbc
00000080: 5281 f33b 4380 90bc 975a ae3c fd12 993c
00000090: cbf7 fb3a f491 da3b 68a4 123c 171d b5bc
000000a0: 2b49 f5bc 7e38 32bc 48bb b53c 1dec adbc
000000b0: 6ed6 c0bc 39ba 6fbc bfc9 66bc 2834 533b
000000c0: c88e f0b9 41b7 a6bc 2b3e d33c 5861 0e3c
000000d0: eabf dfba 43f7 d23c 9239 35bc d222 4dbc
000000e0: 47de 3cbc f497 fcbc 3f6c 64bb 19e3 59bc
000000f0: e77b 603c 1d87 fabc 6154 993c 1b18 a73c
00000100: 0d23 443c d701 f63c 6ecd aebc 1fba a638
00000110: 4964 1bbc 03a9 493b 9ede 013b 5fbc 80bc
00000120: e92d 9bba d775 d5bc 9145 9fbc 2bae 80bc
00000130: 40c4 cd3c 7a68 d6ba f613 733c 4987 aebc
00000140: 06ed 5cb9 02a1 143b e2b5 ebbc 3db7 dcbc
00000150: 68df 2c3c a74d fdba e954 09bd 7da5 b83c
00000160: 63c5 40ba af3d 103b bab8 a8bc a734 0f3c
00000170: 2eb4 acbc 58fe 51bc bcc7 62bb 1371 c3bc
00000180: c359 9bbb 9048 403c 285b 3c3c a98a b83c
00000190: d1be 893c 8843 883b e43c 493c 7b2b 34bb
000001a0: 17ee 0d3c 9b71 0e3c 2c0b f4ba 0aaa c4bb
000001b0: 72f3 d03c 93da 493b 6c00 ad3c 223a a6bb
000001c0: 05cf d4bc ca71 1fbc 4962 453c 1910 bc3c
000001d0: 4ab6 b2bc a2b2 6c3c 35bb 17bc ddec c73c
000001e0: c9d9 9dbc 1edc 90bc 7918 203c 203c 793a
000001f0: e2cd aebc 9b7c aabc cb22 1bbc 0cbc 903c
00000200: b15e 87bc e2fc b6bc 216b c8bc 0142 d3bb
00000210: 7b63 4dbc e88d ee3c a83c 8dbc c062 683c
00000220: 8403 b03c 2fac ce3c af9d f2bc d4e0 ba3c
00000230: 0e49 dc3c 74f9 e63c fdb3 01bd f882 d53b
00000240: aa8c c6bc ffde debc 4062 db3b 3ef8 de3c
00000250: 3847 d73b 98e4 4cbc 93db 8cbb 4375 cbbc
00000260: 4d0f bf3c b467 01bd a89b 5fbc b5a4 8a3c
00000270: 7eee e33c 5a06 35bc 3b2f ebbc 46d4 393c
00000280: 5260 e43a 325f 0a3c 37a8 d3bc 2e0d 323c
00000290: 8aeb b73c 418f 5cbb 15f8 8fbc 3a3d 96bc
000002a0: 0037 f539 575c 973c 2884 a2bc c1b1 5bbc
000002b0: 628e 4dbc e5e3 9e3c 74fe 713b eb0a 0ebb
000002c0: 33e3 25bc c194 ec3c 4718 04bd 1102 e53b
000002d0: 4ffb c2bc 4d01 dbbc b746 7abc 2e3d b93b
000002e0: 09ca 263c 5ee5 363c 2f08 253c beef 063b
000002f0: f51a e83c 58bb bf3b e74a 29bc db86 8a3c
00000300: 4785 d1bb d262 88bc 747e c73c 1a97 0fbd
00000310: 27c9 b93c 75d4 69bc f963 c7bc f57f e13c
00000320: 4ea1 b73a 7b89 833c 6cbf 173c 47ea 123c
00000330: 39cb d5bc 4910 cb3b 1918 a4bc dd57 c9bc
00000340: 0794 953c 7763 d5bc 76a6 d03c efed c9bc
00000350: 3442 91bb dfbf b83c 9e63 97bc 6007 aaba
00000360: 1b54 763c 7d96 e23b 53f0 da3b f576 e43c
00000370: 4a82 16bc 283e 91bc a02d da3b e24f c03c
00000380: bc0a 4f3c 5300 a33c b773 d53c b88f 183c
00000390: 1e49 533b 73eb b33b 4815 c93c 447d 4f3c
000003a0: a802 213c 3319 383c ba38 893c 9285 5fbc
000003b0: 797d d5bc 2814 bbbc 6502 02bc 031c c43c
000003c0: b67e b93c 9856 76bc 1a37 a0bb 6dca 5abc
000003d0: a910 f13c dbf8 b33c 11a9 823c 4abd bcbc
000003e0: b018 e2bc 04c9 f1bc 45a5 73bc c85d dbbc
000003f0: 83cb e8ba 6da2 e53b a8fd 33bc 3cbb c53c

fc1.0.bias f4 [80]
0.0075863134 0.054365467 0.056645315 0.02547093 0.018273197 -0.004992559 -0.024878755 0.0022823808
-0.004212253 0.02580769 0.011990062 0.016316712 0.07326814 -0.022828748 -0.0072722337 -0.0073237102
0.046872403 -0.03722416 0.058088604 -0.01650636 -0.007323164 -0.06295863 -0.016604349 0.032415915
0.050887328 -0.024791611 -0.025660336 -0.028762227 -0.0035339561 0.03837983 -0.045633152 0.03779544
0.0053028823 0.031073399 0.022889158 -0.0131097995 -0.009067605 0.02060831 0.03832799 0.056596473
-0.011452025 0.0021926982 0.018739989 -0.031221457 -0.0020726246 0.010418156 0.037725065 0.0018710215
-0.015492773 -0.031555418 0.048683986 0.011978766 -0.027228441 -0.009166263 0.0155269345 0.014015617
0.023341592 0.02607631 0.038014494 -0.013612039 0.004757542 0.025858667 -0.013774113 0.0188161
0.027959596 0.039877612 0.017758533 0.01443275 0.04984417 0.033208575 0.003954 0.04811215
0.0047897203 0.046864778 0.0027473415 -0.009392574 -0.028112086 0.037056264 0.026505351 0.0053443843
00000000: 9c96 f83b 53ae 5e3d eb04 683d 69a8 d03c
00000010: acb1 953c 9f98 a3bb 88ce cbbc ff93 153b
00000020: f006 8abb a66a d33c f771 443c a0aa 853c
00000030: 9b0d 963d 5b03 bbbc eb4b eebb bcfb efbb
00000040: 47fd 3f3d 5c78 18bd 51ee 6d3d 5938 87bc
00000050: 27f7 efbb 74f0 80bd d805 88bc 8dc6 043d
00000060: 3b6f 503d c717 cbbc a035 d2bc c39e ebbc
00000070: f299 67bb 2b34 1d3d d4e9 3abd 64cf 1a3d
00000080: cdc3 ad3b a48d fe3c 0b82 bb3c 7cca 56bc
00000090: 4b90 14bc c2d2 a83c cffd 1c3d b4d1 673d
000000a0: 46a1 3bbc 5fb3 0f3b 9b84 993c 24c4 ffbc
000000b0: dfd4 07bb eab0 2a3c 9985 1a3d 103d f53a
000000c0: 66d5 7dbc 4140 01bd dc68 473d 9642 443c
000000d0: 2e0e dfbc 182e 16bc af64 7e3c c2a1 653c
000000e0: de36 bf3c fc9d d53c 16b5 1b3d 0805 5fbc
000000f0: 28e5 9b3b 8ed5 d33c d1ac 61bc 3924 9a3c
00000100: 860b e53c b556 233d 587a 913c 5777 6c3c
00000110: 6729 4c3d b705 083d 8e90 813b 3f11 453d
00000120: 16f3 9c3b 48f5 3f3d be0c 343b 50e3 19bc
00000130: 514b e6bc 4fc8 173d c021 d93c f21f af3b

out.weight f4 [40, 80]
-0.10589588 -0.05754168 0.038033634 0.030459847 -0.09960898 -0.014420723 0.0047515277 -0.052040767
0.027822807 -0.055608783 0.03727817 0.019356593 -0.096312635 -0.100601494 -0.029025944 0.078377925
-0.11188746 0.121006764 -0.11085417 0.064554274 0.10190641 0.09486068 -0.013511018 -0.0071187564
-0.054994963 0.042423014 0.07105525 -0.108147725 0.07833151 -0.065720074 0.09021769 0.08678273
0.10124957 0.0031304269 0.05299774 0.00654446 -0.0036673935 -0.004484029 -0.08419269 -0.114860855
-0.0080888765 -0.033910442 0.06541914 0.046489168 0.038008567 0.092996724 -0.044065285 0.032231525
0.02978071 -0.046044722 -0.055792935 -0.111661464 0.03527075 -0.103222765 0.054569807 -0.019507822
0.0007836545 -0.010971346 -0.06609062 0.09061175 -0.010572717 -0.09655412 0.08049348 0.06951564
0.070693165 -0.039947897 0.044505607 0.031765494 -0.030177284 -0.07265581 0.09063728 -0.086987466
-0.05246661 -0.08896275 -0.00397792 0.05746507 0.10399041 0.0053663817 0.10305509 -0.026764194
-0.06928475 0.044441674 0.007786247 -0.06619111 0.02897371 0.0007741567 -0.11081411 -0.016943527
0.036837995 -0.09463142 -0.061108436 -0.0889837 -0.108080536 -0.064807504 0.10921436 -0.021492967
0.035886925 -0.117497616 0.069717824 0.09207809 0.04092109 -0.097267464 0.0065581696 -0.021888737
-0.08364246 0.09188179 -0.0073713735 0.026923899 -0.049854264 0.0990727 -0.093540825 0.032154582
-0.093990356 -0.10136445 -0.034291945 0.027526317 -0.0769536 -0.11835898 -0.038050447 -0.06571828
-0.08753377 -0.093403704 -0.099425085 0.01821904 -0.019393198 -0.0700548 -0.0771361 0.0941798
0.087010704 0.00022175635 0.016670216 0.08884275 0.045693666 0.0141402185 -0.032490063 0.091819055
-0.103423566 0.006363746 0.011457422 0.011127326 0.08524987 -0.08323192 -0.0035029396 0.09240366
0.046347093 -0.00010999519 -0.051907975 0.083901376 -0.010587165 -0.09220657 -0.04397913 0.027210712
-0.09918715 -0.07978529 0.047610473 0.015187049 0.10530946 -0.02579777 0.042183395 -0.046530116
0.017005207 0.006995895 0.034447275 0.03700355 -0.045714065 0.004439833 -0.070950896 -0.100537606
-0.039651282 0.023059646 0.0313867 0.08375303 -0.105847865 0.03726334 -0.06861562 -0.028119713
-0.037046373 0.022584483 -0.08181352 -0.044643857 -0.029368479 0.072557725 -0.07446694 -0.08702175
-0.06443878 0.06747193 0.095393896 0.0018475115 0.10734976 0.0005025222 0.02156649 -0.042909537
-0.082478404 -0.084571436 0.06430639 -0.038250413 0.081518166 -0.025832755 0.010677061 0.008680345
-0.08873194 -0.033371493 0.040007327 -0.07701853 -0.020069983 0.10091576 0.03367346 0.12661381
0.10989981 -0.015216356 0.012275176 0.07883005 0.08932488 0.07306195 -0.026746338 0.046064038
-0.076608986 -0.0816585 -0.11683146 0.1191486 -0.0421383 0.095293395 0.055690113 0.0765229
0.08852362 -0.040429335 -0.003772415 -0.034401245 -0.09723275 -0.044708263 0.10105661 -0.0747597
0.025084097 -0.050068703 -0.016287485 -0.01702917 -0.10350561 0.039941587 0.08750817 -0.05764625
-0.031437438 0.054552734 -0.052599017 -0.0065085334 -0.096355475 0.06592154 -0.05555131 0.04827964
-0.09384525 0.08296423 0.08812248 0.07569123 -0.044532236 0.028019803 -0.09074677 0.092378065
00000000: f0df d8bd d3b0 6bbd 28c9 1b3d ee86 f93c
00000010: cbff cbbd e544 6cbc b4b2 9b3b b328 55bd
00000020: a8ec e33c 09c6 63bd ffb0 183d b891 9e3c
00000030: 8f3f c5bd 2808 cebd d1c7 edbc 9b84 a03d
00000040: 4125 e5bd 65d2 f73d 8307 e3bd 0835 843d
00000050: 4fb4 d03d 5146 c23d 515d 5dbc 7544 e9bb
00000060: 6642 61bd c1c3 2d3d 6a85 913d 8e7c ddbd
00000070: 456c a03d 3f98 86bd 0dc4 b83d 25bb b13d
00000080: ef5b cf3d d927 4d3b 2914 593d e972 d63b
00000090: a758 70bb c3ee 92bb 386d acbd 2b3c ebbd
000000a0: 3587 04bc ade5 0abd 78fa 853d 6d6b 3e3d
000000b0: dfae 1b3d 1175 be3d cd7d 34bd 3405 043d
000000c0: adf6 f33c 6499 3cbd 2287 64bd c4ae e4bd
000000d0: 1078 103d 7566 d3bd 9784 5f3d dece 9fbc
000000e0: 2a6e 4d3a 29c1 33bc 855a 87bd a792 b93d
000000f0: 3039 2dbc 2bbe c5bd c4d9 a43d 375e 8e3d
00000100: 94c7 903d 68a0 23bd 834b 363d 891c 023d
00000110: 5a36 f7bc 92cc 94bd 0aa0 b93d 7c26 b2bd
00000120: 3ae7 56bd 1a32 b6bd 3659 82bb 7e60 6b3d
00000130: edf8 d43d 79d8 af3b 8c0e d33d 9540 dbbc
00000140: 2ae5 8dbd 7908 363d c623 ff3b 348f 87bd
00000150: 465a ed3c c7f0 4a3a 82f2 e2bd 27cd 8abc
00000160: 70e3 163d 1ece c1bd d74c 7abd 163d b6bd
00000170: 5459 ddbd ccb9 84bd c7ab df3d 0512 b0bc
00000180: 2bfe 123d 97a2 f0bd 38c8 8e3d 7093 bc3d
00000190: df9c 273d 2a34 c7bd eae5 d63b 0250 b3bc
000001a0: bd4c abbd 852c bc3d 908b f1bb 828f dc3c
000001b0: fc33 4cbd a1e6 ca3d 5592 bfbd 86b4 033d
000001c0: 047e c0bd 2a98 cfbd b675 0cbd df7e e13c
000001d0: d999 9dbd 3166 f2bd c9da 1bbd 4e97 86bd
000001e0: e844 b3bd 714a bfbd 619f cbbd 1940 953c
000001f0: 7cde 9ebc e478 8fbd 88f9 9dbd 57e1 c03d
00000200: ab32 b23d 4487 6839 fa8f 883c 30f3 b53d
00000210: 4829 3b3d 60ac 673c 4d14 05bd a10b bc3d
00000220: bccf d3bd f886 d03b e9b7 3b3c 634f 363c
00000230: 7c97 ae3d 7f75 aabd 9391 65bb 213e bd3d
00000240: 73d6 3d3d 38ad e6b8 759d 54bd 7cd4 ab3d
00000250: ca75 2dbc ccd6 bcbd 7623 34bd 00e9 de3c
00000260: a222 cbbd 7866 a3bd 3303 433d 1ad3 783c
00000270: 7cac d73d d855 d3bc 7fc8 2c3d 5d96 3ebd
00000280: 814e 8b3c d23d e53b 9618 0d3d 0991 173d
00000290: ac3e 3bbd 057c 913b b44e 91bd a9e6 cdbd
000002a0: 6269 22bd 95e7 bc3c 578f 003d b586 ab3d
000002b0: c4c6 d8bd 72a1 183d 5986 8cbd 505b e6bc
000002c0: f0bd 17bd 1803 b93c d98d a7bd 7adc 36bd
000002d0: 2a96 f0bc 2599 943d 1f82 98bd 7638 b2bd
000002e0: 7bf8 83bd b92e 8a3d e05d c33d 3328 f23a
000002f0: 31da db3d b2bb 033a 35ac b03c e9c1 2fbd
00000300: 70ea a8bd ca33 adbd 12b3 833d 77ac 1cbd
00000310: fff2 a63d 379f d3bc d7ee 2e3c 0138 0e3c
00000320: 17b9 b5bd 8cb0 08bd b9de 233d e4bb 9dbd
00000330: ce69 a4bc ecac ce3d 2fed 093d 0da7 013e
00000340: 2713 e13d 064e 79bc d21d 493c a671 a13d
00000350: f6ef b63d 81a1 953d 231b dbbc a5ad 3c3d
00000360: 2ce5 9cbd 923c a7bd 5545 efbd 2e04 f43d
00000370: 3699 2cbd 2f29 c33d 511b 643d 0ab8 9c3d
00000380: df4b b53d 3b99 25bd 9f3a 77bb 52e8 0cbd
00000390: f721 c7bd 0320 37bd c5f6 ce3d 9d1b 99bd
000003a0: 2a7d cd3c d714 4dbd 556d 85bc c280 8bbc
000003b0: c0fa d3bd ca99 233d 7c37 b33d 791e 6cbd
000003c0: 8bc4 00bd b072 5f3d 1172 57bd 8945 d5bb
000003d0: 0556 c5bd df01 873d c589 63bd dfc0 453d
000003e0: f031 c0bd 26e9 a93d 8f79 b43d 0104 9b3d
000003f0: 6f67 36bd c989 e53c 71d9 b9bd b630 bd3d

out.bias f4 [40]
-0.0100647425 -0.10453096 -0.06635325 0.064092845 -0.016860303 -0.12702854 -0.022657113 -0.043887313
0.09861228 -0.0027817758 0.041337658 -0.12889463 -0.09382304 -0.012167907 -0.086819775 -0.06668183
-0.0360808 -0.08314121 -0.058053844 -0.08617392 -0.10800938 -0.051891584 0.04277389 0.03629303
0.018391537 0.058623437 -0.107324444 -0.056841508 -0.06006257 -0.04459068 -0.1003857 -0.039069287
0.031869005 0.00031430912 0.03304133 -0.103957385 0.06212047 0.041102193 0.055492174 -0.12621152
00000000: 97e6 24bc 5414 d6bd 36e4 87bd 1c43 833d
00000010: 9e1e 8abc c513 02be 699b b9bc 2fc3 33bd
00000020: 3cf5 c93d 744e 36bb ad51 293d f4fc 03be
00000030: 4b26 c0bd e75b 47bc 91ce b1bd 7c90 88bd
00000040: 76c9 13bd f045 aabd dec9 6dbd f47b b0bd
00000050: 0634 ddbd 458c 54bd ad33 2f3d 00a8 143d
00000060: d9a9 963c 211f 703d ebcc dbbd a4d2 68bd
00000070: 2b04 76bd b8a4 36bd 0597 cdbd 1e07 20bd
00000080: 1389 023d dbc9 a439 5856 073d 9ce7 d4bd
00000090: 0972 7e3d c65a 283d c34b 633d 983d 01be
