models/2x2x4_1x2x1highlevelperform.pth (torch, 288903 bytes, 10 tensors)

conv1.0.weight f4 [32, 4, 2, 2]
0	0xbcc13c28	-0.023588255
1	0xbda83066	-0.08212356
2	0x3e5c1b93	0.21494894
3	0x3e6d764d	0.2318966
4	0x3e8b778f	0.27239653
5	0xbc561cfd	-0.013068435
6	0xbda913dd	-0.08255742
7	0xbd79a4e2	-0.06094826
8	0x3d92dd50	0.07171118
9	0xbdd4bdbe	-0.10387753
10	0xbdd29902	-0.1028309
11	0x3e7a6896	0.24453959
12	0x3d883b7c	0.06651971
13	0x3d2564f3	0.040379476
14	0x3e0a54cc	0.1350891
15	0x3e07ee4e	0.132745
16	0xbe3a41fc	-0.18189234
17	0xbe3877ae	-0.18014404
18	0xbcec8fe9	-0.028877215
19	0xbe020723	-0.12698035
20	0x3e49a99d	0.19693609
21	0xbdda6b3d	-0.10664985
22	0xbe85d11f	-0.2613611
23	0x3d3c4960	0.045968413
24	0x3d1f7c80	0.03893709
25	0xbe6ae45f	-0.22938679
26	0xbd625ca9	-0.05526415
27	0xbd17c595	-0.037053663
28	0xbe052de2	-0.13005784
29	0xbe2a4dd5	-0.16631253
30	0xbe73b227	-0.23798428
31	0xbe01db74	-0.12681371
32	0x3b87f7c2	0.004149408
33	0xbdf6cd6c	-0.120509
34	0xbe1d261c	-0.15346569
35	0xbe3a13bd	-0.18171592
36	0xbd97d868	-0.07414323
37	0xbd9f23e4	-0.077705175
38	0xbc3c0fd5	-0.011478384
39	0xbe19a9bb	-0.15006153
40	0x3e0bf723	0.13668494
41	0xbd3ce37d	-0.046115387
42	0xbe37a8bb	-0.1793546
43	0x3d3ff813	0.04686744
44	0xbdbcd8d6	-0.09221046
45	0xbea0dbb1	-0.3141761
46	0xbe1c761e	-0.15279433
47	0xbdbd0d1d	-0.09231017
48	0xbd99c9a7	-0.07509165
49	0x3e8e7c88	0.27829385
50	0x3d192bdd	0.037395347
51	0xbe189e60	-0.14904165
52	0x3e843b1b	0.25826344
53	0x3e9c8472	0.30569798
54	0xbdbd5673	-0.092450045
55	0xbe3f7e18	-0.18700445
56	0x3b098173	0.0020981699
57	0x3da5809a	0.080811694
58	0x3cb221cc	0.021744631
59	0x3a5043f2	0.0007944695
60	0xbc9034a3	-0.017603224
61	0x3ea5fdd0	0.32420206
62	0xbe31adf4	-0.17351514
63	0x3e22e484	0.15907484
64	0xbe08b6c5	-0.13350971
65	0xbc6c9410	-0.014439598
66	0x3e7b34db	0.24531882
67	0x3e7b82d5	0.24561627
68	0x3e46d05f	0.19415425
69	0xbe69d6cf	-0.22835849
70	0x3e68b0a6	0.22723636
71	0x3e56a4a6	0.20961246
72	0x3e5faae6	0.21842536
73	0x3e87ae29	0.2650006
74	0xbcf66f1f	-0.030082284
75	0xbe4c2117	-0.19934498
76	0xbd707d6b	-0.058713358
77	0xbccb2d65	-0.02480192
78	0x3d14a35d	0.036288608
79	0x3e788bba	0.24272051
80	0xbc804201	-0.015656473
81	0xbe74f3a2	-0.23921064
82	0x3dcd4ff2	0.10025014
83	0xbd67964b	-0.056539815
84	0xbea33572	-0.31876713
85	0x3d8856f9	0.06657214
86	0x39ef6cda	0.00045666733
87	0x3e2eb7dc	0.17062324
88	0xbe92dea6	-0.28685492
89	0xbdccd084	-0.10000709
90	0x3d9b1ea3	0.07574203
91	0xbe01d998	-0.12680662
92	0xbea24c23	-0.31698713
93	0xbb19b03d	-0.0023450993
94	0x3cf6ced8	0.030127928
95	0x3e9ec775	0.3101155
96	0xbda8c359	-0.082403846
97	0x3e3fd6b4	0.18734246
98	0xbdcae56f	-0.09907042
99	0xbe63cef5	-0.22246917
100	0xbd75eaf1	-0.06003851
101	0x3e4a757b	0.19771378
102	0xbe858b01	-0.26082614
103	0x3c4528c8	0.012033649
104	0xbe94b8e6	-0.29047316
105	0x3eb8bcaa	0.3608144
106	0xbe578cb1	-0.21049763
107	0x3e2c83d1	0.16847159
108	0x3e2ac2dc	0.16675895
109	0x3df22511	0.11823476
110	0xbe4fcec1	-0.20293714
111	0x3e3b8c96	0.18315348
112	0x3c3c5097	0.0114938235
113	0xbd0aca2f	-0.033884224
114	0xbe352a16	-0.17691836
115	0x3c840b9f	0.016118823
116	0xbd3758e8	-0.044762522
117	0x3d719196	0.058976732
118	0xbe0d7fb1	-0.13818242
119	0x3e40e2b1	0.18836476
120	0xbd8f9d01	-0.07012368
121	0x3e185cd9	0.14879169
122	0xbe8db80f	-0.27679488
123	0x3e027fcf	0.12744068
124	0xbdf831eb	-0.12118896
125	0x3df10b23	0.11769702
126	0xbe55d741	-0.20882894
127	0x3e6ac086	0.22925004
128	0x3e65014f	0.2236378
129	0x3ce0131e	0.027352866
130	0xbca944b8	-0.02066265
131	0xbe9d98e6	-0.30780715
132	0xbd9aa84f	-0.075516336
133	0xbe0d89f6	-0.13822159
134	0xbd365ec1	-0.044523958
135	0xbde82594	-0.113352925
136	0xbe91e3c6	-0.2849409
137	0xbe9f2287	-0.3108103
138	0xbd8e156a	-0.06937678
139	0xbe2ff6f1	-0.17184044
140	0x3e5e30bc	0.21698278
141	0x3d88da9d	0.06682322
142	0x3d85f7d0	0.06541407
143	0xbe45aa6a	-0.19303289
144	0x3df85565	0.12125663
145	0xbdc9f126	-0.098604485
146	0xbdfa97c5	-0.12235979
147	0xbe5ca742	-0.21548179
148	0x3e473288	0.1945287
149	0x3b383db3	0.0028112947
150	0x3e364d00	0.1780281
151	0xbe3f164e	-0.18660852
152	0xbe9dfaaa	-0.30855304
153	0xbe09764b	-0.13424031
154	0x3e1b1d39	0.15147866
155	0x3e0557d5	0.13021787
156	0xbd89e22f	-0.06732594
157	0xbe01e9ed	-0.12686892
158	0x3ea4ef58	0.32213855
159	0xbe3ff40c	-0.1874544
160	0xbe50691c	-0.20352596
161	0x3db2887d	0.08717439
162	0xbe52cc12	-0.20585659
163	0x3c4e4ac2	0.012591066
164	0xbe1ac6ee	-0.15114948
165	0xbdc6dc47	-0.09709983
166	0x3e106633	0.14101486
167	0x3d59ec0c	0.053203627
168	0xbc243d24	-0.010024343
169	0x3c39126d	0.011295897
170	0xbc7aa756	-0.015298685
171	0xbe1f1887	-0.155367
172	0xbdf9a787	-0.121901564
173	0xbe4ba8ca	-0.19888607
174	0xbe5a18f5	-0.21298583
175	0xbe7c68a6	-0.24649295
176	0x3e6abe3b	0.2292413
177	0xbdb1481f	-0.08656334
178	0x3d925f35	0.071470656
179	0x3e90ce69	0.28282478
180	0xbcd3c8f8	-0.025852665
181	0xbe493255	-0.19648106
182	0x3e0eea61	0.13956596
183	0x3e281d49	0.16417421
184	0x3e79d9c5	0.24399479
185	0x3e534d6b	0.20635001
186	0xbe2b4c6c	-0.16728371
187	0xbe8d0f81	-0.2755089
188	0x3d41b6e6	0.047293566
189	0x3e8872be	0.2665004
190	0x3e034c3d	0.12822051
191	0xbc4648f6	-0.012102356
192	0xbe752fa3	-0.23943953
193	0x3d9a5528	0.075357735
194	0xbe7d5d77	-0.24742685
195	0x3e3c8ef8	0.18413913
196	0x3e2c48ff	0.16824721
197	0xbcac8d3b	-0.021063438
198	0xbdc3c3b4	-0.09558812
199	0xbe41e45e	-0.18934771
200	0xbe62dca7	-0.22154485
201	0x3e0b9670	0.13631606
202	0x3dd35fbf	0.103209965
203	0x3e18b5c6	0.14913091
204	0xbe9b081f	-0.30279633
205	0xbddb21a3	-0.10699775
206	0x3d7445c8	0.05963686
207	0xbd33c9de	-0.043893687
208	0x3d5bed80	0.053693295
209	0x3e4420a0	0.1915307
210	0x3c339ad4	0.010962207
211	0xbd45395f	-0.048150416
212	0xbe37b625	-0.17940576
213	0xbe709d34	-0.23497468
214	0x3e0a1fa1	0.13488628
215	0x3e5fe5d1	0.21865012
216	0xbc8dc05a	-0.017303634
217	0xbe91cb40	-0.2847538
218	0x3ca048df	0.019565998
219	0xbe88585e	-0.2662992
220	0xbcb909d0	-0.022587687
221	0xbce6f1b6	-0.028191429
222	0x3e651c6d	0.22374125
223	0xbe564db5	-0.2092808
224	0xbd1204c0	-0.03564906
225	0x3e26be74	0.1628359
226	0xbc151cd1	-0.009101109
227	0x3e3896c2	0.1802626
228	0x3dfb2742	0.12263347
229	0x3e52ebdd	0.20597787
230	0x3e2ef2dd	0.17084832
231	0x3ec06ed0	0.37584543
232	0x3e23625c	0.1595549
233	0xbe1402db	-0.14454214
234	0xbe1180cc	-0.14209288
235	0x3e0d7f2f	0.13818048
236	0x3d677f37	0.056517806
237	0xbe520c5f	-0.20512532
238	0x3d8778d8	0.06614846
239	0x3d97a4cd	0.0740448
240	0x3e2fbeba	0.171626
241	0x3d51d52d	0.05122869
242	0xbd7c7d29	-0.0616428
243	0x3ebd0f40	0.36925697
244	0xbdbf3ec8	-0.093381464
245	0x3e6f06cb	0.23342435
246	0x3eafff33	0.3437439
247	0x3e76210a	0.24036041
248	0x3be39848	0.0069456436
249	0x3e42e22a	0.19031587
250	0x3e6f566a	0.23372808
251	0xbe76a220	-0.24085283
252	0x3dc2a531	0.09504164
253	0x3cc40e15	0.023932496
254	0xbe18241a	-0.14857522
255	0x3e88dd33	0.26731262

conv1.0.bias f4 [32]
0	0x3e0de6d9	0.13857593
1	0xbbed9072	-0.0072498852
2	0xbdc7a533	-0.09748306
3	0xbd0740d5	-0.033020813
4	0x3e2a44e9	0.1662785
5	0xbdc59dc9	-0.09649236
6	0x3e6a4898	0.22879255
7	0xbdd87c9f	-0.105706446
8	0x3d212570	0.039342344
9	0xbd8bbcf3	-0.068231486
10	0x3d6ecd21	0.058301095
11	0xbc955c6f	-0.018232552
12	0x3d1c998b	0.038232367
13	0x3e0b0cc5	0.1357909
14	0x3d88e2c4	0.06683877
15	0x3c9fce89	0.019507663
16	0x3d3dcd17	0.046338167
17	0x3dea4ef4	0.1144084
18	0x3e370037	0.17871176
19	0x3d889270	0.06668556
20	0xbd25dc5e	-0.04049336
21	0xbc710276	-0.014710059
22	0xbdd3e057	-0.10345524
23	0x3e4e24b2	0.20131186
24	0x3d104fda	0.035232402
25	0x3e7528b6	0.23941311
26	0xbdc8c96b	-0.098040424
27	0x3df292be	0.11844395
28	0xbe30b6a2	-0.17257169
29	0x3e1a0d4c	0.15044135
30	0xbc09e0fe	-0.008415459
31	0xbe0a7dad	-0.13524504

conv2.0.weight f4 [64, 32, 4, 4]
0	0x3c915aaa	0.017743427
1	0xbd1f07ed	-0.038825918
2	0xbd28b18c	-0.041184947
3	0xbcf96a38	-0.030446157
4	0xbcf30dd4	-0.02966968
5	0x3d1b1d21	0.037869576
6	0x3c279cbc	0.0102302395
7	0x3d15969d	0.03652059
8	0xbd037b94	-0.032100275
9	0x3c559f13	0.0130384145
10	0xbd4a3715	-0.049368937
11	0xbcfa4924	-0.030552454
12	0xbc9a74f2	-0.018854592
13	0x39685600	0.00022157282
14	0x3d113e3d	0.035459746
15	0x3cec2436	0.02882586
16	0xbc5e2412	-0.0135584045
17	0xbbc04360	-0.0058674067
18	0x3c9a3b6a	0.018827159
19	0xbc136cf8	-0.008998148
20	0xbcd59bcb	-0.026075264
21	0x3de938c4	0.1138778
22	0x3c65a032	0.014015244
23	0xbbe03410	-0.006842144
24	0xbd1e59ec	-0.038659975
25	0x3db29705	0.08720211
26	0x3d321c75	0.04348417
27	0xbc798506	-0.015229469
28	0xbc980d66	-0.018561076
29	0x3caed4a6	0.021341633
30	0x3d33663b	0.043798666
31	0xbc072880	-0.008249402
32	0xbc3d2ee4	-0.011546824
33	0xbc3a18b4	-0.011358429
34	0xbcd18f6e	-0.025581088
35	0xba845aa0	-0.0010097809
36	0x3d0cb6d7	0.034354057
37	0x3e009b8c	0.12559336
38	0x3db148ce	0.086564645
39	0xbb964e38	-0.004586961
40	0xbd06765e	-0.032827727
41	0x3dbccc8e	0.09218703
42	0x3cf8bb74	0.030362822
43	0x3c8feb72	0.017568324
44	0x3c8188f4	0.015812375
45	0xbba9f928	-0.0051871724
46	0xbb96bea8	-0.0046003647
47	0xbd214a2f	-0.039377388
48	0xbc182c14	-0.009287853
49	0x3d06a451	0.032871548
50	0xbd292dc7	-0.041303422
51	0x3bf708b8	0.007538881
52	0x3d0af995	0.033929426
53	0x3dcdc40c	0.100471586
54	0x3ddf58ca	0.10905607
55	0x3d1313bb	0.03590749
56	0x3cc394ae	0.023874607
57	0x3d6124c9	0.05496672
58	0xbca58dd6	-0.020209234
59	0x3c841ef0	0.016128033
60	0x3c76bd40	0.015059769
61	0x3cfbd546	0.030741345
62	0x3d153201	0.03642464
63	0x3cc3c332	0.023896787
64	0xbd002237	-0.03128263
65	0x3c86c45e	0.016451057
66	0xbcd4cc09	-0.025976198
67	0x3d307245	0.043077726
68	0x3d172829	0.036903534
69	0x3bd3e6af	0.0064667086
70	0xbd739751	-0.05947048
71	0xbd066482	-0.032810695
72	0x3d08f2b5	0.03343459
73	0x3d269540	0.04066968
74	0xbc59575f	-0.01326546
75	0x3d1aac01	0.037761692
76	0xbcc3f791	-0.02392176
77	0xbd1d71dc	-0.038438663
78	0xbb75bd00	-0.0037496686
79	0xbc56d29c	-0.013111737
80	0xbcb6a446	-0.022295129
81	0xbd2ba92c	-0.04190938
82	0x3d319391	0.04335362
83	0xbcec62f3	-0.028855776
84	0xbb794f90	-0.0038041808
85	0xbcc24cac	-0.0237182
86	0xbcee4064	-0.029083438
87	0xbce83a6f	-0.028348176
88	0xbcab3151	-0.02089754
89	0x3d4a4761	0.04938448
90	0xb9856cc3	-0.0002544877
91	0x3d2b4cd3	0.041821312
92	0x3cbdd07a	0.023170698
93	0xbbed9740	-0.0072506964
94	0x3bc7cab8	0.006097164
95	0x3cb113b6	0.021615844
96	0x3d0ef04b	0.03489713
97	0xbcf4dfaa	-0.029891808
98	0xbd04795c	-0.0323423
99	0xbc1e4a18	-0.00966122
100	0xbd23d059	-0.039993618
101	0x3d8e43e8	0.06946546
102	0x3d57016f	0.0524916
103	0xbd08047a	-0.033207394
104	0x3cf7ac22	0.030233447
105	0x3d4af965	0.049554247
106	0x3cd823a7	0.026384188
107	0xbcdde9d7	-0.027089043
108	0x3d033893	0.032036375
109	0xbd18d735	-0.037314612
110	0x3d27e2bf	0.040987726
111	0xbd2d6caa	-0.04233996
112	0xbd2d8bfd	-0.04236983
113	0xbc6cbcee	-0.014449341
114	0x3c8be0aa	0.017074902
115	0xbcc474ed	-0.023981536
116	0x3d0c34dd	0.0342301
117	0xb9c18bbd	-0.00036915942
118	0x3d18e8c9	0.037331376
119	0x3c67372c	0.014112275
120	0x3cc546e6	0.024081659
121	0x3d1fd491	0.03902108
122	0x3d152bb9	0.03641865
123	0xbcb76192	-0.022385392
124	0x3c4cabcc	0.012492131
125	0x3d0afeb3	0.033934306
126	0x3d160565	0.03662624
127	0x3be20d08	0.006898526
128	0xbbbe4db8	-0.0058076046
129	0xbc9c5c74	-0.019087054
130	0x3d27ed81	0.040997986
131	0xbb075f30	-0.0020656101
132	0x3cabe1a6	0.020981621
133	0x3dc21be0	0.09477973
134	0x3d1502d5	0.036379654
135	0x3cef465a	0.02920835
136	0xbd3174e9	-0.043324385
137	0x3c945c21	0.018110337
138	0xbbca8a5a	-0.0061810436
139	0xbc0a52b0	-0.008442566
140	0x3d0dfa53	0.034662556
141	0xbce940bf	-0.028473256
142	0xbae231e0	-0.0017257296
143	0x3d298833	0.041389655
144	0xbc5b5008	-0.01338578
145	0xbcb0d390	-0.021585256
146	0xbcdf0ece	-0.02722874
147	0xbceb865e	-0.028750595
148	0x3d2ff7b9	0.042960856
149	0x3e23ec52	0.16008118
150	0xbcfd2900	-0.03090334
151	0xbc090c4c	-0.008364748
152	0xbcdb04ba	-0.026735652
153	0x3daeff2e	0.085447654
154	0x3bfaa335	0.0076488503
155	0xbcdf7be3	-0.027280753
156	0x3c98627a	0.018601645
157	0xbc1fde4c	-0.00975759
158	0x3d1d2f7f	0.038375374
159	0xbcc1ec47	-0.023672236
160	0xbc453234	-0.012035895
161	0x3ca934ae	0.020655002
162	0xbc8aac95	-0.016927997
163	0xbcfa2952	-0.030537281
164	0xbb718c60	-0.0036857352
165	0x3d66cbb6	0.056346618
166	0xbb1af27f	-0.0023643074
167	0x3c5e0068	0.013549902
168	0x3c1ba004	0.0094986
169	0x3b7942e6	0.003803426
170	0x3d86f367	0.06589394
171	0xbc37df9c	-0.011222746
172	0xbb1ce340	-0.0023939162
173	0x3c00280c	0.007822048
174	0x3c2add84	0.01042879
175	0xbca12dde	-0.019675191
176	0x3d14d22d	0.03633325
177	0x3b36f330	0.0027915947
178	0x3cf26062	0.029586975
179	0x3cb651d2	0.022255812
180	0xbcdf131a	-0.027230788
181	0xbdaee5f1	-0.085399516
182	0xbd89c35f	-0.06726717
183	0x3d020f6d	0.031752992
184	0xba6ec980	-0.00091090053
185	0xbc2699df	-0.010168522
186	0x3b90da4d	0.0044205547
187	0xbd27ec8d	-0.040997077
188	0xbd23b2f0	-0.03996557
189	0x3d190b4f	0.0373643
190	0x3c51cb8c	0.012804877
191	0x3cef323a	0.029198755
192	0x3ce1b526	0.027552199
193	0xbc16c4cc	-0.0092021935
194	0xbae54100	-0.0017490685
195	0x3d07454d	0.033025075
196	0xbd09b462	-0.033619292
197	0xbd526465	-0.051365275
198	0x3cd3c19d	0.025849158
199	0xbd2f577e	-0.04280805
200	0xbc928d27	-0.017889572
201	0xbd6a7bb9	-0.057246897
202	0xbb84ba84	-0.0040505547
203	0x3ccf8636	0.025332551
204	0x3d1e7da1	0.038694028
205	0x3c9ef9f2	0.019406293
206	0xbc80edf1	-0.01573846
207	0xbd009ad9	-0.031397674
208	0x3d2fbc47	0.042904165
209	0x3c910dae	0.017706718
210	0x3ced750e	0.02898648
211	0x3ceee99a	0.029164124
212	0xbd224c8b	-0.03962378
213	0x3b6b122e	0.003586899
214	0xbd2cb926	-0.04216876
215	0xbc295dd4	-0.010337312
216	0xbd2de177	-0.04245135
217	0xbcb74086	-0.022369634
218	0x3d20e32e	0.039279155
219	0x3d2d0f8d	0.04225116
220	0x3bd35160	0.0064489096
221	0xb9996280	-0.00029255822
222	0xbc0b4ff8	-0.008502953
223	0xbc1546f0	-0.009111151
224	0x3c126b1c	0.00893667
225	0xba09b700	-0.00052534044
226	0x3b4cd490	0.0031254627
227	0x3d342347	0.043978956
228	0xbc7e807c	-0.015533563
229	0x3ab21710	0.0013587195
230	0xbd887d7f	-0.066645615
231	0x3c242bb0	0.010020182
232	0xbcd4d46c	-0.025980197
233	0xbd5f8a82	-0.05457545
234	0xbd7f711e	-0.062363736
235	0x3d28ace5	0.04118051
236	0x3d2c562b	0.042074364
237	0xbb38eef0	-0.002821859
238	0x3c6821b0	0.014168188
239	0x3d056cbf	0.03257441
240	0xbc421020	-0.011844665
241	0x3d2f6419	0.04282007
242	0x3d1beb19	0.038066003
243	0xbd0e8b7d	-0.034800995
244	0x3cc98d92	0.024603639
245	0xbc57d4f1	-0.013173328
246	0xbd40d4bd	-0.047077883
247	0xbc700ef6	-0.014652004
248	0xbd084b9a	-0.033275224
249	0x3c095f68	0.008384563
250	0xbdcd5d2b	-0.10027536
251	0x3b9fddc8	0.0048787333
252	0x3d1c78d1	0.038201157
253	0x3d32cb93	0.043651175
254	0xbcd282b2	-0.025697086
255	0x3d276573	0.040868234

conv2.0.bias f4 [64]
0	0x3c5cfd3e	0.013488112
1	0x3da6599b	0.0812256
2	0xbc934883	-0.017978912
3	0xbccd13a2	-0.025033776
4	0xbcee053c	-0.02905523
5	0x3c32db9c	0.010916617
6	0x3dc9ad37	0.09847491
7	0xb9568966	-0.00020459815
8	0x3d8ff91d	0.070299365
9	0x3cc34ffd	0.023841852
10	0x3c90931b	0.01764827
11	0x3d1efb29	0.038813744
12	0x3c6c1b26	0.01441077
13	0x3d76ed1e	0.060284726
14	0x3d228787	0.03968003
15	0x3cd21e45	0.0256492
16	0xbc3940bd	-0.011306939
17	0x3d409a10	0.047021925
18	0x3d28ac08	0.041179687
19	0x3ce0ce5c	0.02744215
20	0x3dae8da7	0.08523112
21	0xbc02e49d	-0.007989076
22	0x3d5c381e	0.053764455
23	0x3d54c0b0	0.051941574
24	0x3d8a67d2	0.067580834
25	0x3d3b0def	0.045667585
26	0x3d3c98b9	0.046044085
27	0x3c2f353d	0.010693845
28	0x3c4e7559	0.01260122
29	0x3dae7525	0.08518437
30	0xbc96e6a8	-0.018420532
31	0x3d52943e	0.051410906
32	0x3d519fda	0.051177837
33	0x3d7ad4b1	0.061237995
34	0x3d9f41e3	0.07776239
35	0x3da41e36	0.08013575
36	0x3be7f475	0.007078702
37	0x3ca573b0	0.020196766
38	0xbcfb3e52	-0.030669365
39	0x3cd3e16d	0.025864327
40	0x3d89e7a0	0.06733632
41	0x3d00d841	0.031456236
42	0xbcb8119b	-0.022469332
43	0x3d5ecc17	0.054393854
44	0x3b09761b	0.0020974937
45	0x3d778472	0.060429044
46	0x3d7b6d6a	0.061383642
47	0x3d16ad81	0.03678656
48	0x3da738b2	0.08165111
49	0x3cdddf1d	0.027083928
50	0x3c8c4e1a	0.017127085
51	0x3d04474d	0.03229456
52	0x3c2c0c96	0.010501048
53	0x3b92e17f	0.0044824476
54	0x3cea067a	0.028567541
55	0xbd0ea1ca	-0.034822263
56	0x3d541267	0.051775362
57	0x3d24a7c8	0.04019907
58	0x3cdc5414	0.02689556
59	0x3cef617b	0.029221287
60	0x3d2725dc	0.04080759
61	0x3c7ebf3e	0.015548525
62	0x3d2703d4	0.040775135
63	0xbd032682	-0.032019146

conv3.0.weight f4 [64, 64, 3, 3]
0	0xbc034470	-0.008011922
1	0xbd21f26f	-0.039537843
2	0x3ca2397a	0.019802798
3	0xbcb22588	-0.021746412
4	0xbd3b2ed8	-0.04569897
5	0xbcd6b4f3	-0.02620933
6	0xbd16a3aa	-0.036777176
7	0x3c86e648	0.016467229
8	0xbca6ad1e	-0.02034622
9	0x3cd249fa	0.02567004
10	0x3c672c64	0.014109705
11	0xbc8eb0a0	-0.017418206
12	0x3d297045	0.041366834
13	0x3d037b81	0.032100204
14	0xbb351000	-0.0027627945
15	0xba625cc0	-0.00086350366
16	0x3c33527c	0.010944959
17	0x3cef8e62	0.029242698
18	0x3d12b5c1	0.035817865
19	0x3c3df044	0.011592928
20	0xbbbc3248	-0.0057432987
21	0x3923e500	0.000156302
22	0x3d0efce4	0.034909144
23	0x3d1de691	0.038549963
24	0x3cc68fda	0.024238516
25	0xbc91db5b	-0.017804792
26	0xbbfd82c0	-0.007736534
27	0x3d2a317b	0.041551095
28	0x3cb1d012	0.021705661
29	0x3beddc00	0.007258892
30	0xbc141b34	-0.009039689
31	0xbd9c197f	-0.076220505
32	0x3d267a93	0.04064424
33	0xbce714ce	-0.028208163
34	0xbd12ee56	-0.035871826
35	0x3c8efa2e	0.01745328
36	0x3cab5f52	0.020919476
37	0xbd0060c7	-0.031342294
38	0x3bd19da8	0.006396968
39	0xbd0ec5c8	-0.034856588
40	0x3c1593ec	0.009129506
41	0x3c9e4d22	0.01932389
42	0x3c753f30	0.014968678
43	0xbd2651ab	-0.04060523
44	0xbb2be9f0	-0.0026231967
45	0x3cc569f2	0.02409837
46	0xbac79160	-0.001522582
47	0x3c902e96	0.017600339
48	0xbd1af97e	-0.03783559
49	0x3d7165b0	0.058934867
50	0xbcdde88e	-0.02708843
51	0xbc7f06bc	-0.01556557
52	0x3d0de079	0.034637902
53	0x3cb47f32	0.022033308
54	0xbcb89f00	-0.022536755
55	0x3d0361b1	0.032075588
56	0xbcbdc15b	-0.023163488
57	0x3ce87902	0.028378014
58	0x3d0db318	0.034594625
59	0xbc22d0cc	-0.009937476
60	0x3cfcd88e	0.03086498
61	0xbd0a56d6	-0.03377422
62	0xbcb4cb30	-0.022069544
63	0x3c1fcf24	0.009753976
64	0xbcb839c0	-0.022488475
65	0x3c895a62	0.01676673
66	0x3c7193cc	0.01474471
67	0xbdc19bfc	-0.0945358
68	0x3ba2f2b8	0.004972782
69	0xbc4a9626	-0.0123649
70	0x3b3313b0	0.0027324967
71	0xbd046e47	-0.03233173
72	0x3d292a8d	0.041300345
73	0xbb6cce70	-0.0036133789
74	0x3b815bf8	0.003947731
75	0x3c24a7d0	0.010049775
76	0xb868569f	-5.5393783e-05
77	0x3c2e52a4	0.01063982
78	0xbd06389c	-0.03276883
79	0x3cec4fd6	0.028846662
80	0xbbf18920	-0.007371083
81	0xbd22aa2a	-0.039713062
82	0xbc003794	-0.007825751
83	0x3c4c1cb4	0.012458015
84	0x3d135a2b	0.035974663
85	0xbccf5e18	-0.025313422
86	0xbcb51b5e	-0.022107776
87	0xbcaf9488	-0.02143313
88	0x3c46145c	0.012089815
89	0x3c98fa90	0.018674165
90	0x3ce10b86	0.027471315
91	0xbc31b00c	-0.0108451955
92	0x3af42ea0	0.0018629618
93	0xbd08aa48	-0.033365518
94	0xbcaf61b3	-0.021408891
95	0xbc2c8a96	-0.010531088
96	0x3cc4a492	0.024004254
97	0x3cd9a91e	0.0265699
98	0xbba3f0c8	-0.0050030686
99	0xba4c1a00	-0.0007785857
100	0xbd048662	-0.03235472
101	0xba0ec340	-0.00054459646
102	0xbc892f1b	-0.016746094
103	0xbc523094	-0.012828965
104	0x3c1ee180	0.009697318
105	0x3cbdd3fa	0.023172367
106	0x3cc4598e	0.023968484
107	0xbc06dd5c	-0.008231487
108	0x3cdd06ba	0.026980747
109	0xbc08d820	-0.008352309
110	0xbc003574	-0.007825244
111	0xbcd01480	-0.0254004
112	0x3ca2b225	0.019860337
113	0xbc950f26	-0.0181957
114	0xbce84dd8	-0.028357431
115	0x3cea6a9a	0.028615285
116	0xbcd6db4b	-0.026227614
117	0xbc4425d0	-0.011971906
118	0xbc01a2d0	-0.007912353
119	0x3c8b145a	0.016977478
120	0x3cfeeafa	0.031117905
121	0x3d12212a	0.03567616
122	0xbce40fa8	-0.027839497
123	0xbc15dac0	-0.009146392
124	0x3c1dea40	0.009638369
125	0xbcfd20f8	-0.03089951
126	0x3c6b7544	0.01437122
127	0xbd28482f	-0.041084465
128	0x3d0b604f	0.034027394
129	0xbd1c35a8	-0.038137108
130	0xbd1b902e	-0.037979297
131	0xbb682d90	-0.0035427548
132	0x3d09d93f	0.033654448
133	0xbd1a0988	-0.037606746
134	0x3bd72338	0.0065654777
135	0xbd234b6c	-0.03986685
136	0xbc872dd6	-0.016501348
137	0x3ce37f96	0.027770799
138	0x3b191780	0.0023359954
139	0x3d316127	0.043305542
140	0xbd20d0de	-0.03926169
141	0xbcebea43	-0.028798228
142	0xbcc3ffd0	-0.023925692
143	0x3b8abc38	0.004233863
144	0x3aff5680	0.0019480735
145	0xbd120302	-0.0356474
146	0x3d198ce5	0.037487883
147	0xbca42c58	-0.020040676
148	0xbb080720	-0.00207562
149	0x3b591d00	0.0033128858
150	0x3c47e904	0.012201551
151	0xbcd7186e	-0.026256766
152	0x3cb39e1e	0.021925982
153	0xbca1fd63	-0.019774145
154	0xbd231fd7	-0.039825287
155	0xb9eb0400	-0.00044825673
156	0xbc2d53a6	-0.010579025
157	0xbcbd0311	-0.023072751
158	0xbcd1c73e	-0.025607701
159	0x3986b080	0.00025689974
160	0xbae7b100	-0.0017676651
161	0x3ce3c7f6	0.02780531
162	0xbba4c7a0	-0.00502868
163	0x3c6748f0	0.014116511
164	0xbb1f7200	-0.0024329424
165	0x3ae816a0	0.0017706938
166	0xbb3d7761	-0.0028910267
167	0xbcaa5a73	-0.020795083
168	0xbd13d123	-0.03608812
169	0x3c4c0f0c	0.012454759
170	0xbcbcb690	-0.023036271
171	0x3cca96ea	0.024730165
172	0x3cf4cf72	0.029884074
173	0x3b70cdf0	0.0036743842
174	0x3d0b7a3b	0.034052115
175	0xbcfef7bd	-0.03112399
176	0x3c424a60	0.011858553
177	0xbcdfccd8	-0.027319357
178	0x3c3d7f94	0.0115660615
179	0x3c2060ac	0.009788673
180	0x3d152c17	0.036419
181	0x3d0bf209	0.03416637
182	0x3caafa32	0.020871256
183	0xbc93137e	-0.01795363
184	0xbd565c31	-0.052334014
185	0x3c5f1ba4	0.01361743
186	0x3cff8c8e	0.031194951
187	0x3b3680c0	0.0027847737
188	0xbcb521de	-0.022110876
189	0x3caaae22	0.020834986
190	0x3bc77bc0	0.00608775
191	0xbcabd0cb	-0.020973584
192	0x3d0f2755	0.03494962
193	0x3d861c7d	0.065484025
194	0x3d1fc581	0.039006714
195	0xbd132580	-0.035924435
196	0x3c9737d6	0.018459242
197	0x3b8843c0	0.004158467
198	0x3c7fb090	0.015606061
199	0xbcd3d91b	-0.02586036
200	0x3cab2af2	0.020894501
201	0xbba43ac8	-0.00501189
202	0x3d82731c	0.063696116
203	0x3cf61eaa	0.030043919
204	0xbd1ca958	-0.038247436
205	0x3d1042c9	0.03521994
206	0x3c86a26e	0.016434874
207	0xbd18f330	-0.037341297
208	0xbced7f23	-0.028991288
209	0xbbb74320	-0.0055927187
210	0x3cd6aa62	0.026204292
211	0xbbcdd6c6	-0.0062817065
212	0x3c5dfbdc	0.0135488175
213	0xbcd0f4d0	-0.02550736
214	0x3ba08738	0.004898932
215	0x3d20d92f	0.039269622
216	0xbccad6d8	-0.024760649
217	0x3c6d0260	0.014465898
218	0xbcee2440	-0.02907002
219	0x3d0ac181	0.033875946
220	0x3d85080b	0.06495675
221	0x3ca42a22	0.020039622
222	0x3d0335a9	0.032033596
223	0x3cbd56aa	0.023112614
224	0xbcf53043	-0.02993024
225	0xbc5684c6	-0.013093179
226	0xbcb994db	-0.022653988
227	0xbce96878	-0.028492197
228	0xbd25e163	-0.04049815
229	0x3bf64857	0.007515948
230	0xbd1b2f2f	-0.037886795
231	0xbbc6efb8	-0.006071057
232	0x3c95b226	0.018273424
233	0xbc15bba4	-0.009138975
234	0x3aad6080	0.0013227612
235	0xbcf3259b	-0.029681018
236	0xbb673df0	-0.003528472
237	0x3d11d37d	0.03560208
238	0x3caf5e04	0.021407135
239	0x3c98896e	0.01862022
240	0x3ca42680	0.02003789
241	0xbbdc71b8	-0.0067274235
242	0x3c851990	0.01624754
243	0x3b1740d0	0.0023079403
244	0xbb058c00	-0.0020377636
245	0xbcf116d8	-0.029429838
246	0x3cbbd562	0.022928897
247	0xbd26d27f	-0.04072809
248	0x3c7d8e9c	0.015475895
249	0xbc1e1270	-0.0096479505
250	0xbd23c037	-0.039978232
251	0xbc9b3f4e	-0.018951084
252	0xbc6179c6	-0.013761943
253	0x3c29b80c	0.010358822
254	0xbcc3494e	-0.023838665
255	0x3cd5f78a	0.026119012

conv3.0.bias f4 [64]
0	0x3d3c63c4	0.04599358
1	0xbb181534	-0.0023205997
2	0x3c5b5034	0.013385821
3	0x3ad7b674	0.0016457574
4	0x3d8e9bf6	0.06963341
5	0x3de55a42	0.11198856
6	0xbcbc7fc7	-0.023010148
7	0x3d06af59	0.03288207
8	0x3d796ded	0.06089585
9	0x3d82b2c4	0.06381753
10	0xbcfff90c	-0.031246684
11	0xbd73f063	-0.059555423
12	0x3b0975b4	0.0020974698
13	0x3d125477	0.035725083
14	0xbd29ac16	-0.04142388
15	0x3cd234c2	0.025659923
16	0xbd1a5554	-0.03767903
17	0xbc595650	-0.013265207
18	0xbb9831cc	-0.004644608
19	0x3c436428	0.011925735
20	0xbd40f3db	-0.04710756
21	0x3d628894	0.055306032
22	0x3cac4640	0.021029592
23	0x3d556cc5	0.052105684
24	0xbabdfa80	-0.001449421
25	0x3caf623f	0.021409152
26	0x3dbc6ea8	0.092007935
27	0x3cc0b7b0	0.023525089
28	0x3d95ee97	0.07320898
29	0x3ce23fd2	0.027618323
30	0x3b8ecd91	0.0043580015
31	0xbcdc2f47	-0.026878012
32	0x3c8368a1	0.016041102
33	0xbc830a21	-0.01599604
34	0x3d034db8	0.03205654
35	0x3d1ab156	0.037766777
36	0x3cb127dc	0.021625452
37	0x3c3cbedf	0.011520117
38	0x3c124248	0.0089269355
39	0x3cb20f82	0.02173591
40	0x3cb56709	0.022143858
41	0x3b95d207	0.0045721564
42	0x3da406b6	0.080090925
43	0xbc1cfb19	-0.009581351
44	0x3d8bf2d4	0.06833425
45	0x3d64afbc	0.055831656
46	0xbcfdbf88	-0.030975118
47	0x3be5aa8e	0.007008857
48	0x3d91e2cd	0.07123337
49	0x3d7f17fa	0.062278725
50	0x3b64be92	0.0034903628
51	0x3d853770	0.065047145
52	0x3da2ec64	0.07955244
53	0x3cfca97f	0.03084254
54	0xbc4bf48c	-0.012448441
55	0x3da28150	0.07934821
56	0x3d09af55	0.033614475
57	0xbc881f4b	-0.016616484
58	0xba4d436c	-0.0007830176
59	0xbcee0af8	-0.029057965
60	0xbcc0aeb3	-0.023520803
61	0xbd17edc5	-0.03709199
62	0xbcfc4ac6	-0.030797374
63	0x3c4efe54	0.012633879

fc1.0.weight f4 [16, 66]
0	0xbdc89bc1	-0.09795333
1	0xbb8474a0	-0.004042223
2	0x3ccd114a	0.025032658
3	0x3dd92cf6	0.10604279
4	0x3d2637e6	0.040580653
5	0x3d35ef84	0.044417873
6	0x3bbb3be0	0.0057139248
7	0x3dd36dbd	0.10323665
8	0x3aaecc6b	0.0013336068
9	0xbc5b4d50	-0.013385132
10	0xbb37c260	-0.002803944
11	0x3cba5d58	0.022749588
12	0xbd8b56a5	-0.068036355
13	0xbd2b458f	-0.041814383
14	0xbdc0f3a7	-0.09421473
15	0xbccfd5d1	-0.02537051
16	0xbdcb5e4b	-0.09930094
17	0x3d951562	0.07279469
18	0x3d9ba31e	0.075994715
19	0x3d695276	0.056963407
20	0xbd0245c6	-0.031804822
21	0x3c7102b3	0.014710116
22	0xbd84892c	-0.06471476
23	0xbd4dee6c	-0.050276205
24	0xbc548b00	-0.012972593
25	0x3df4c2da	0.119512275
26	0xbd87d961	-0.066332586
27	0xbd1819ca	-0.03713397
28	0xbdf1ea27	-0.11812239
29	0x3d5dd4e5	0.05415811
30	0x3b0b3511	0.0021241347
31	0x3d2cd564	0.042195693
32	0xbda3ed3c	-0.08004233
33	0x3d2b33c0	0.0417974
34	0x3d449076	0.04798933
35	0x3c6b73d0	0.014370874
36	0x3d76f8c4	0.060295835
37	0xbdcb8d9b	-0.099391185
38	0x3d3a2cb8	0.045452803
39	0xbdf317e0	-0.11869788
40	0xbd7d31d3	-0.061815094
41	0xbdd5aa09	-0.10432822
42	0x3dc8fedb	0.09814235
43	0xbdc09ce6	-0.09404926
44	0xbddfb372	-0.10922898
45	0xbc021e61	-0.007941813
46	0xbdfb2baa	-0.12264188
47	0x3dcd6cc4	0.10030511
48	0xbbb11d6d	-0.005405119
49	0xbd8e30a3	-0.069428705
50	0x3de2dc80	0.11077213
51	0x3c539c06	0.012915617
52	0x3dd801df	0.10547232
53	0xbdcae97d	-0.099078156
54	0x3c19b790	0.009382144
55	0xbd1e70e6	-0.038681887
56	0x3df606e3	0.12013032
57	0xbce678ec	-0.028133832
58	0x3cd75f22	0.02629048
59	0x3d38d044	0.045120493
60	0x3c3cedac	0.011531275
61	0xbdce2b3c	-0.1006684
62	0xbd18a6f8	-0.03726861
63	0xbd6048bc	-0.054756865
64	0xbd14a5ce	-0.036290936
65	0x3a893534	0.0010468126
66	0xbe32805a	-0.17431775
67	0xbdbdfafe	-0.092763886
68	0xbdcc5552	-0.09977211
69	0x3e269e8d	0.1627142
70	0xbe442b80	-0.19157219
71	0xbc1d5027	-0.009601629
72	0x3d5fcc90	0.054638445
73	0x3d258b9e	0.040416352
74	0xbdb8bd09	-0.090204306
75	0x3ce43340	0.02785647
76	0x3dcc4d7f	0.09975719
77	0xbd55b0e4	-0.05217065
78	0xbe299654	-0.16561252
79	0xbce7310f	-0.028221635
80	0xbdcb73e9	-0.099342175
81	0xbe002d85	-0.12517364
82	0x3d990775	0.074721254
83	0x3dcb6fda	0.09933443
84	0xbd943383	-0.072363876
85	0x3dafbb96	0.08580701
86	0x3afe3c81	0.0019396694
87	0xbde68d32	-0.112573996
88	0x3d6818aa	0.056664146
89	0x3c17fb84	0.009276275
90	0xbc814b3c	-0.015782945
91	0xbd40fb0e	-0.047114424
92	0x3d2a860e	0.04163175
93	0xbc404658	-0.011735521
94	0xbde7a425	-0.11310605
95	0xbdb0a03a	-0.08624311
96	0x3db38ff7	0.087676935
97	0x3e171a4d	0.14756127
98	0xbdba0454	-0.09082857
99	0xbdd888d0	-0.1057297
100	0xbe21847f	-0.157732
101	0x3b5aaf8e	0.00333688
102	0x3d18404f	0.037170704
103	0x3de27ec9	0.110593386
104	0x3e193be8	0.14964259
105	0xbd20ebdd	-0.039287437
106	0x3ce41477	0.02784179
107	0x3d1e7a60	0.038690925
108	0xbd961a83	-0.073292755
109	0x3e52dc65	0.20591886
110	0x3db27d62	0.08715321
111	0x3e3c7d1a	0.18407097
112	0xbddfc363	-0.10925939
113	0xbda33916	-0.07969873
114	0x3d85fd4e	0.06542455
115	0xbc538836	-0.012910893
116	0x3dda9bac	0.10674223
117	0x3defb97b	0.117052995
118	0xbc8ce181	-0.017197372
119	0xbce3b058	-0.027794048
120	0x3dae5a6c	0.0851334
121	0x3d77c921	0.060494546
122	0xbdc90662	-0.098156705
123	0x3dfbe722	0.122999445
124	0xbe3cc02d	-0.18432684
125	0xbc6317c0	-0.013860643
126	0x3c25119d	0.010075
127	0x3e0f504b	0.13995473
128	0x3e14962d	0.14510413
129	0x3dbb3734	0.091413885
130	0xbe3a0d18	-0.18169057
131	0x3d93eea9	0.07223255
132	0x3d165510	0.036702216
133	0xbd591dce	-0.05300694
134	0x3d78e498	0.06076488
135	0x3de48470	0.11158073
136	0x3da67c3e	0.08129166
137	0xbde693e8	-0.1125868
138	0xbd1d64e4	-0.038426295
139	0x3b618680	0.0034412444
140	0xbce9a3c0	-0.028520465
141	0xbdb044d9	-0.08606882
142	0x3cd22e10	0.02565673
143	0xbd8db588	-0.0691939
144	0xbda9155a	-0.082560256
145	0x3deb2b74	0.114828974
146	0x3dd15206	0.10220723
147	0x3d85e774	0.06538287
148	0xbd5b49b0	-0.05353707
149	0x3d6c36ac	0.057669327
150	0xbda3dce3	-0.08001115
151	0xbd59664c	-0.053076074
152	0x3bacd680	0.005274594
153	0xbd124792	-0.035712786
154	0xbd300380	-0.042972088
155	0xbde4023d	-0.111332394
156	0xbdecc2d4	-0.11560598
157	0xbcc23fac	-0.023712002
158	0x3da96f62	0.08273198
159	0xbd601f34	-0.054717258
160	0x3c092af0	0.0083720535
161	0x3dcf6cfc	0.10128209
162	0x3de75ada	0.112966254
163	0xbd2d1f18	-0.04226598
164	0xbdcacf97	-0.09902876
165	0x3bc3bbc0	0.0059733093
166	0x3d2a177c	0.041526303
167	0xbdf138d9	-0.11778421
168	0xbdc6e81e	-0.097122416
169	0xbd92fe16	-0.07177369
170	0xbd0cbfca	-0.03436259
171	0x3d356e38	0.044294566
172	0xbde608b1	-0.112321265
173	0xbd586934	-0.052834705
174	0x3dad83f4	0.08472434
175	0x3da64f74	0.08120623
176	0xbd9a8f25	-0.07546834
177	0xbde23fe2	-0.11047341
178	0x3cf41a58	0.029797718
179	0xbdafcddc	-0.085841864
180	0xbdc29f93	-0.095030926
181	0xbcefec60	-0.029287517
182	0x3dc42690	0.09577668
183	0x3d2973a4	0.04137005
184	0x3abcfcc0	0.0014418587
185	0xbd2e0c84	-0.042492405
186	0xbd9c5786	-0.07633881
187	0x3df4d972	0.11955537
188	0x3dd7de2a	0.10540421
189	0x3dc38bac	0.09548125
190	0xbddb5c06	-0.107109115
191	0x3d8ea84c	0.06965694
192	0xbd7e932c	-0.062152073
193	0x3cdb42c8	0.026765242
194	0xbd137220	-0.03599751
195	0xbd55f848	-0.052238733
196	0xbc77ea28	-0.015131511
197	0xbdd99878	-0.10624784
198	0x3d884a0b	0.066547476
199	0x3c536d02	0.012904407
200	0x3d6b697d	0.05747365
201	0x3c7a0191	0.0152591625
202	0x3dbf8f1d	0.093534686
203	0xbd02e3eb	-0.03195564
204	0x3dc190fd	0.094514824
205	0xbdbacbc2	-0.09120895
206	0x3e34e75e	0.17666385
207	0xbdaba84b	-0.08381709
208	0xbd921dd7	-0.07134598
209	0x3d6c8d72	0.05775208
210	0x3db6a581	0.08918286
211	0xbe1e0f0b	-0.15435426
212	0x3d811044	0.063019305
213	0x3de76905	0.11299328
214	0x3d433215	0.047655184
215	0x3d2f4fd8	0.042800754
216	0x3deebd42	0.11657192
217	0xbe41eb00	-0.18937302
218	0x3d969e15	0.073543705
219	0xbe439a86	-0.19101915
220	0xbd00e6c0	-0.03147006
221	0x3be66ebf	0.007032245
222	0xbd4e2b08	-0.050334007
223	0x3e3ca995	0.18424065
224	0xbd8e966c	-0.069622844
225	0x3e404c41	0.18779089
226	0x3e6dc070	0.2321794
227	0xbac63814	-0.0015122914
228	0xbd4cb497	-0.04997691
229	0x3cc24246	0.023713242
230	0x3e591af8	0.21201694
231	0xbdef5b87	-0.11687379
232	0x3c88284d	0.01662078
233	0xbbe86393	-0.0070919483
234	0xbd25f98f	-0.0405212
235	0xbcf596a4	-0.029979058
236	0x38f39f72	0.00011616842
237	0x3e5124df	0.20424221
238	0xbc551be0	-0.013007134
239	0x3dadd577	0.08487981
240	0x3e399414	0.18122894
241	0xbd2aeef8	-0.041731805
242	0xbdb2576f	-0.08708083
243	0xbe0a1141	-0.13483144
244	0xbc612528	-0.013741769
245	0x3db9a7ab	0.09065183
246	0x3dd15005	0.10220341
247	0x3c604757	0.013688884
248	0x3d4d7279	0.050157998
249	0xbcfacd29	-0.030615406
250	0x3ce7053e	0.028200742
251	0xbbe98060	-0.007125899
252	0x3c384650	0.011247233
253	0x3d63b5f6	0.055593453
254	0x3e38ef6f	0.18060087
255	0xbcbba25c	-0.022904567

fc1.0.bias f4 [16]
0	0x3cc8db83	0.024518734
1	0xbb9b8a75	-0.00474673
2	0x3d7dad00	0.061932564
3	0x3cfcf11d	0.03087669
4	0xbdb9c03c	-0.09069869
5	0xbdc6beb2	-0.09704341
6	0x3dc2b404	0.095069915
7	0x3dee25d6	0.116283104
8	0x3e396a15	0.18106873
9	0x3dd020c0	0.101624966
10	0x3b97ea73	0.004636103
11	0xbd91ad71	-0.071131594
12	0xbdbd62e7	-0.0924738
13	0xbca5e5c7	-0.020251168
14	0xbd4f99a9	-0.05068365
15	0x3de871f2	0.11349858

out.weight f4 [8, 16]
0	0x3c3b152f	0.011418625
1	0xbe30a5f4	-0.17250806
2	0xbe12bfec	-0.14331025
3	0x3d04db2a	0.032435574
4	0xbd145cb0	-0.036221206
5	0x3d173aaf	0.0369212
6	0x3c4ac52b	0.01237611
7	0xbda84fe1	-0.08218361
8	0xbe0eee4f	-0.13958095
9	0x3e822217	0.25416633
10	0xbda0c993	-0.07850947
11	0x3e76f34b	0.24116246
12	0x3e9dc8b5	0.3081719
13	0x3e989fd1	0.2980943
14	0x3e52a29a	0.2056984
15	0xbdc555d0	-0.09635508
16	0xbd2dc2fd	-0.042422283
17	0xbe918208	-0.28419518
18	0x3d086bf8	0.033306092
19	0x3e36597a	0.1780757
20	0x3e4f8098	0.20263898
21	0x3e75b910	0.23996377
22	0xbd649e6e	-0.055815153
23	0x3e946422	0.28982645
24	0x3e98e370	0.2986102
25	0xbe38dd73	-0.18053226
26	0x3e909abc	0.28243053
27	0x3e3ae330	0.18250728
28	0xbd40b759	-0.047049854
29	0x3e3c9921	0.18417789
30	0x3e6b674c	0.22988623
31	0x3db97784	0.09055999
32	0x3e27fa27	0.1640402
33	0x3df280cd	0.11840973
34	0x3e4b3ade	0.19846675
35	0x3e72e823	0.23721366
36	0x3cc99790	0.024608403
37	0x3e33c75d	0.1755652
38	0xbc79f89f	-0.01525703
39	0x3d7efb28	0.06225124
40	0xbe3b54a2	-0.18294004
41	0x3e8274d9	0.25479773
42	0xbe21df74	-0.15807897
43	0xbdc26d12	-0.0949346
44	0x3da51a7d	0.08061693
45	0x3e7b9557	0.24568687
46	0x3e747ebf	0.23876475
47	0x3d33b200	0.043870926
48	0x3d65927c	0.0560479
49	0x3ea9a4b3	0.33133468
50	0x3c9eb9d0	0.019375712
51	0x3db101cc	0.08642921
52	0x3e312464	0.17299038
53	0x3e804182	0.25049978
54	0xbec68266	-0.3877136
55	0x3e82d936	0.25556344
56	0xbdefdcca	-0.11712034
57	0x3db4cecb	0.08828505
58	0x3e390446	0.18068036
59	0x3cba9761	0.022777261
60	0x3dfdc5a2	0.12391211
61	0x3e1112ec	0.14167374
62	0x3e70a6cd	0.2350113
63	0xbe1aaa92	-0.1510413
64	0x3ddd5a60	0.10808253
65	0x3e512b94	0.2042678
66	0xbe201d1e	-0.15636107
67	0xbdcc8f04	-0.099882156
68	0xbdfc804c	-0.12329158
69	0xbd12980f	-0.035789546
70	0xbd0333aa	-0.032031693
71	0x3dc44ace	0.0958458
72	0x3e19d9d4	0.15024501
73	0x3e153f81	0.14575006
74	0x3e54ba43	0.20774178
75	0xbe8fe9bf	-0.28108022
76	0x3de699a6	0.11259775
77	0x3e9e32ae	0.3089804
78	0x3e15b4b9	0.14619721
79	0x3e63ae7a	0.22234526
80	0x3d8b458e	0.06800376
81	0x3de29d59	0.11065168
82	0x3e4647b8	0.19363296
83	0xbdc1581c	-0.09440634
84	0x3e406f1c	0.18792385
85	0x3e1962a3	0.14979033
86	0xbd5d97dc	-0.054099903
87	0x3e80af44	0.25133717
88	0x3e1c1721	0.15243198
89	0x3e1885e6	0.14894828
90	0x3e85b46c	0.26114213
91	0xbdc23e6f	-0.094845645
92	0xbc8480d6	-0.016174715
93	0xbd83d802	-0.064376846
94	0x3eb91e60	0.36155987
95	0xbe1b5df0	-0.15172553
96	0xbe02acb7	-0.12761198
97	0xbd47d5da	-0.04878793
98	0xbdbe1be0	-0.092826605
99	0x3e14b4b7	0.14522062
100	0x3e64d77c	0.22347826
101	0x3e1a9d38	0.15099037
102	0xbdbdfe96	-0.09277074
103	0x3d5a6391	0.05331761
104	0x3eb3dbc6	0.3512861
105	0xbe027690	-0.1274054
106	0x3e840660	0.25786114
107	0xbe5e0e95	-0.2168525
108	0x3dafd4c7	0.08585506
109	0xbd872f6a	-0.066008404
110	0xbd704b42	-0.05866552
111	0x3c47f0e0	0.012203425
112	0xbdf094e3	-0.11747148
113	0x3d316ae6	0.043314837
114	0x3e3a9eae	0.18224594
115	0x3e8e6e83	0.2781869
116	0xbded8e68	-0.115994275
117	0xbd5d4d8e	-0.05402904
118	0x3e06b910	0.13156533
119	0x3dbbedf2	0.09176244
120	0xbdc31850	-0.095261216
121	0x3e59c499	0.21266402
122	0x3d7370bf	0.059433695
123	0xbd2d1278	-0.04225394
124	0x3df7a1a9	0.12091381
125	0x3d4745c5	0.04865052
126	0xbd8a8a16	-0.06764619
127	0x3dec1d54	0.115290314

out.bias f4 [8]
0	0x3e1c4527	0.15260755
1	0x3e06cd7f	0.13164328
2	0x3d58ad07	0.052899387
3	0x3de9b115	0.11410729
4	0x3e79bbd6	0.2438806
5	0x3e5dd79d	0.21664281
6	0x3e891f58	0.26781726
7	0x3e2b487c	0.1672687
